artifacts/model_exp-04_wd-1e-3_20251104T051225Z.pt (torch, 52157 bytes, 5 tensors)

net.0.weight f4 [128, 29]
00000000: c3ae 113e f635 083e c3c1 4dbd 1b83 f33d
00000010: 8f17 89bd 5c48 433d 6609 c5bd 0cdc 103e
00000020: 212f 353e 5b18 febd 465e 1e3e be74 7f3d
00000030: 4e75 1c3e 4ebe bf3b 408e 663d 892b 1dbd
00000040: 1042 343e 5c71 653d d623 68bd d863 8d3d
00000050: c04d 1fbd 5391 ccbc 4e6c 3bbd 6e25 9737
00000060: cb55 97b9 3cc7 62b1 7d0b dc2e 08b9 a6b5
00000070: 484b 66ab 4a9d 3ebe 88c4 1e3e bc63 2bbe
00000080: 2661 e03d 5157 213c 79b2 72bb 2a1a f43d
00000090: c20d 573d 3ff5 283e 2edd 033d ca77 0cbd
000000a0: 569c 4b3d 761a d1bc ff29 7d3d 2eca 173e
000000b0: 3aac f23d 1d89 c2bd 928b de3d 90b5 203d
000000c0: b4b0 c03d 6a7d dfbd bae3 02be 33f9 72bd
000000d0: 8ec8 50b9 bc6b f039 54f1 08af 5972 64b0
000000e0: bb9d 532f 461c 752b 7af7 1c3e d8f7 00be
000000f0: c0ef bbbc 87d7 11be e870 3c3d 1c89 6fbd
00000100: 9cf9 3f3d df00 81bd b8a2 273e af47 cfbd
00000110: 5fb8 b2bd 86c0 aabd 1588 283e 72ad 433d
00000120: d86b 333e d4c2 18be af4f 40be 7f07 ddbd
00000130: 0088 b5bd 8492 a63d c8f6 5b3d 804b 0d3e
00000140: b12d b4bd 1ca3 01b8 9677 87b3 2790 49af
00000150: fd82 ea35 0d4e 922e bc27 b932 ded1 3cbe
00000160: 0405 58bd 9a3d 513d 0463 ac3c e9a1 24bd
00000170: 1211 8d3d da50 953d 4726 efbd 25bf 07be
00000180: 7b23 353e a982 60bd 93ae 4ebd 50d1 e9bd
00000190: 894b d2bd 230a 353d 1ba5 f6ba 2af3 0abe
000001a0: bfdf c93c d747 c2bd c124 11be 9781 d7bd
000001b0: e7fd 3abe 656d e6bd 1e21 413b d3d7 a32d
000001c0: 1488 fc2e b08b d9ba 1871 74b7 a00f a82d
000001d0: abc0 89ba 981d 04be f016 dabd 3155 16be
000001e0: 229d cbbc 7caf 52bd 04d9 b23b da93 39be
000001f0: f7e2 1ebe 0624 03be 98f1 dfbd 7c1b 1bbe
00000200: e5db 1a3e e200 19bd 4e0a 213e 2b02 943d
00000210: b6aa 2dbe c918 0e3e b012 e2bc 1f23 8fbd
00000220: 8bbb 23be ef66 1fbe 68e8 dc3c db88 6eae
00000230: 2058 5830 b8d6 f0b9 227c 0439 9111 e0b8
00000240: 7993 d72d ae8a 973c 1c0c 943d 6531 fa3d
00000250: 0b09 0a3e 95b8 19be a70f 573d cf65 68bd
00000260: 93b0 89bc b49e debd 45d0 0e3e c464 dbbd
00000270: 08b2 9c3d 65da 4b3d 2f15 563d 69e5 97bd
00000280: a76b 083e 1dc2 923c 561b 903b c0c1 13be
00000290: 4200 543d 6209 39bd d4a7 6cbd 4492 053e
000002a0: 51fc 242e b3a5 e533 c210 3f31 9377 ab2c
000002b0: 355c cfb3 e07c 88ae 9828 e7bd 647d 88bd
000002c0: a13d 19be e58e 3f3d 40c5 013e 3cff 1cbe
000002d0: b580 243d 4d19 ce3d 1bd5 243d 3f1d 9fbd
000002e0: fb8d c43d 2a1f af3d 24b5 9a3d d6e3 49bd
000002f0: b890 81bd a66d 563d 692c 003d c650 16bd
00000300: d532 f53d 703c 283e d2bb ab3c 68c0 09bd
00000310: 3bd2 7d3c 931b 1bad a05d 8fae 34f2 afae
00000320: be18 abba 9861 ccae 5679 203a 2817 893d
00000330: 7ab3 e4bb 81cf 03be 0f5a 03be fc94 2fbe
00000340: 6acc 1abd bc64 3c3d b7e9 c83d d05a 8c3d
00000350: 800a 20be 1779 0cbe 6c1c 22bc 25c2 363e
00000360: e211 e2bb b4b0 77bd 1f93 b03d 85bc 91bd
00000370: 7782 b9bd e5b7 073e 8eb6 85bd ca9f 00bd
00000380: 746d 29be 7991 dd3d 9198 3039 959e d7ae
00000390: f528 43b8 d0b0 2ebb 6e8e d5b9 1f30 0d39
000003a0: b81a a43d 3229 0c3e 5c21 cd3d 5c8f 123d
000003b0: 32f5 f4bb 144b f1bd c6af 0cbe 827a 12be
000003c0: 2ad8 583d 89cd 8fbd d334 9cbc 4543 a6bd
000003d0: c94c a2bc 3983 d1bd 0712 c5bd 3669 1d3d
000003e0: c965 94bd e0bd bf3d 917a 13bd 220b 16be
000003f0: 9a89 57bd 4a30 8ebd c727 6bbd 62e3 01bb
0.14226823 0.13301834 -0.050233614 0.11890241 -0.066939466 0.04767643 -0.09620933 0.14146441
0.1769376 -0.12406989 0.1546565 0.062367193 0.15279123 0.0058515435 0.056288004 -0.038371596
0.17603326 0.05601631 -0.0566748 0.06903809 -0.038892508 -0.02497164 -0.045757584 1.8018032e-05
-0.00028864885 -3.300058e-09 1.00064824e-10 -1.2421815e-06 -8.181689e-13 -0.18614689 0.15504658 -0.16737264
0.109560296 0.009847478 -0.0037032648 0.11919053 0.052503355 0.16499804 0.032193355 -0.034293927
0.04970964 -0.025525313 0.06180763 0.14823219 0.11849256 -0.094988085 0.10866465 0.03923565
0.094087034 -0.10912593 -0.12782183 -0.059319686 -0.00019911138 0.00045856636 -1.2454865e-10 -8.3108415e-10
1.9246375e-10 8.708072e-13 0.1532878 -0.12594545 -0.02294147 -0.14242373 0.046006113 -0.058480367
0.046868905 -0.06298994 0.16370666 -0.101210944 -0.08726572 -0.08337502 0.16458161 0.047772832
0.17521608 -0.14918071 -0.18780397 -0.107924454 -0.088638306 0.081334144 0.053702146 0.13798332
-0.087977774 -3.0907904e-05 -6.30818e-08 -1.8332057e-10 1.7472481e-06 6.653176e-11 2.1554904e-08 -0.18439433
-0.05273916 0.05108414 0.021043308 -0.040193472 0.068880215 0.07290812 -0.11677223 -0.1325651
0.17689316 -0.054812107 -0.050459456 -0.11416876 -0.102683134 0.04419912 -0.0018817516 -0.13569322
0.024642823 -0.094863586 -0.14174177 -0.10522764 -0.18260919 -0.11251334 0.0029469202 1.86268e-11
1.14838056e-10 -0.0016597416 -1.4569865e-05 1.9106328e-11 -0.001050969 -0.12901914 -0.10648906 -0.14680935
-0.0248552 -0.051436886 0.005457999 -0.18122807 -0.15516268 -0.1280671 -0.10934752 -0.15147203
0.15122946 -0.037354358 0.15726587 0.07226976 -0.16959652 0.13876642 -0.027596802 -0.06989121
-0.1598951 -0.1556661 0.026966289 -5.4236487e-11 7.8705575e-10 -0.00045936345 0.00012634744 -0.00010684424
2.4508161e-11 0.018498745 0.07228872 0.122164525 0.13480012 -0.15011819 0.05250516 -0.056737717
-0.01680783 -0.10870114 0.13946636 -0.10712579 0.07651144 0.049768824 0.052266296 -0.074168034
0.13322316 0.017914826 0.00439779 -0.14429379 0.05175806 -0.045174964 -0.05777724 0.13044077
3.7513385e-11 1.0693784e-07 2.7803684e-09 4.8733877e-12 -9.655961e-08 -6.206746e-11 -0.112870395 -0.06664541
-0.14964916 0.046767134 0.12672901 -0.15331739 0.040161807 0.100634195 0.040242296 -0.0776925
0.09597393 0.08550866 0.07554081 -0.049289547 -0.06326431 0.052350663 0.031292353 -0.036698125
0.11972586 0.16429305 0.020963583 -0.03363076 0.015492017 -8.816853e-12 -6.519518e-11 -8.0011026e-11
-0.0013053638 -9.294182e-11 0.0006121596 0.0669387 -0.006979403 -0.12872125 -0.12827323 -0.17146677
-0.0377926 0.045994505 0.098102026 0.068532586 -0.15629005 -0.13718067 -0.009894472 0.17847498
-0.0068991045 -0.06047125 0.08621811 -0.07116035 -0.09058087 0.13253744 -0.0652896 -0.031402387
-0.1654566 0.10818762 0.00016841503 -9.805238e-11 -4.6529767e-05 -0.0026655681 -0.00040732644 0.00013464734
0.08012909 0.1368759 0.100161284 0.03578125 -0.0074755186 -0.11781898 -0.13738927 -0.14304546
0.052940525 -0.070216246 -0.019068157 -0.081182994 -0.019812005 -0.10230107 -0.09622579 0.038430415
-0.072459765 0.09362388 -0.03600556 -0.14652684 -0.05262146 -0.06942804 -0.05741098 -0.0019819369

net.0.bias f4 [128]
00000000: d7b5 2cbd 2a5c 943d 562b 343e 8ee6 c43b
00000010: 0f86 973d 6de7 20bc 7d3c 1e3d 0945 1f3e
00000020: 3280 983d fbe7 c4bd 6e32 683e bd91 d73d
00000030: 8d3e b1bb 82ea 4c3e 225e 383d 03cd 2e3e
00000040: 4de2 d6bd f44d 583e a32e 563e 7aed e9bd
00000050: ca4c 04be 64a9 b6bc 6bdd 4cbd 0e9f 333d
00000060: 2711 f63d 287e 48bc 2247 ee3d 7b29 363d
00000070: ecc7 91bc 12b9 d6bd 37c7 d43d e989 2bbe
00000080: 5fe7 583c dff0 9d3d c8dd 82bd a84d c83d
00000090: 1ed2 a03d 0cd3 243e 954c 2b3e 6087 0ebe
000000a0: a86c f4bd 7e27 27bd 613e b3bd c0ed c43d
000000b0: e562 afbd 98b6 d7bd 8eaf ce3d f1fa f73d
000000c0: ff92 5abd c72a 2ebe 0bce 893d 368c 153e
000000d0: 0c9d 3d3e 6566 ef3c 9849 313e 93b0 08be
000000e0: 47b4 5f3e 05f4 03be 87d1 a6bd f4f1 f53d
000000f0: 2409 22bc 9f77 0b3e cd89 bcbd 1928 393e
00000100: f721 5b3e 60f1 b43d c930 433e b1a3 bfbd
00000110: cd9c 60bc 57c4 ce3d 299c 3b3e 44d0 5cbd
00000120: 989b 283e 722e a7bc 7746 44bd 1fce 2e3d
00000130: 92f8 fdbd f04a 0ebe 3b8f dc3d f6a4 823d
00000140: 2625 d13d b20b ae3c 0862 ccbd 78c3 d4bd
00000150: b419 6a3e dc39 f2bd c1c3 aa3d 79f6 333e
00000160: 54fe 463e f44d 11bd 1ae2 15bc b05c 1dbe
00000170: 2f9a 2e3e 053e 2fbe c383 08be 4c43 aebd
00000180: b5ea 5a3e 5bff 183e 2b28 d43d 78d9 d83d
00000190: 5460 cebc e0d9 83bd c3dd 84bd 9112 4e3d
000001a0: 03eb 183d 916c 7f3d 7207 d1bd b8e0 7e3c
000001b0: 8718 89bd 2f04 99bb 2c55 453c dc9b 763d
000001c0: 8f35 2bbe 1981 323e dadc 65bd 9295 c03d
000001d0: c344 323e c835 9c3d a028 283e 5a44 3b3e
000001e0: 6ee1 2e3e 7015 1f3c fb51 243e ac1a 29bd
000001f0: fbd4 5abd 27be 0f3e 3be4 a43d c5d0 e23c
-0.042165603 0.072441414 0.17594656 0.0060089296 0.073986165 -0.009820801 0.038631905 0.15553679
0.07446326 -0.09614559 0.22675487 0.10525844 -0.005409068 0.20011333 0.045011647 0.17070393
-0.10492382 0.21123487 0.20916228 -0.11422248 -0.12919918 -0.022297569 -0.050015848 0.04385286
0.1201499 -0.012237109 0.11634661 0.044473153 -0.017795525 -0.10484518 0.1038956 -0.16751827
0.013238757 0.07711958 -0.06389958 0.09780437 0.07852577 0.16096133 0.16728432 -0.13918829
-0.11934787 -0.040809147 -0.08752132 0.0961566 -0.085637845 -0.10532874 0.10092078 0.1210841
-0.053362843 -0.17008506 0.06728753 0.14604267 0.1851694 0.02922363 0.1731323 -0.13348608
0.21846114 -0.12886055 -0.08145433 0.120090395 -0.009889875 0.1361985 -0.09205971 0.18081702
0.21399675 0.08835101 0.19061579 -0.093573935 -0.013709259 0.100960426 0.18321289 -0.053909555
0.16465604 -0.020407889 -0.047918763 0.04267704 -0.12400927 -0.13895774 0.107695065 0.0637912
0.102121636 0.021245811 -0.099796355 -0.10388845 0.22861367 -0.11827442 0.08338118 0.1757449
0.19432956 -0.035474733 -0.009148145 -0.15367389 0.17051004 -0.17113502 -0.13331513 -0.085089296
0.21378596 0.1494116 0.10359224 0.10588354 -0.025192417 -0.06438041 -0.0648761 0.050310675
0.0373335 0.062359396 -0.10206498 0.015556507 -0.06694131 -0.004669688 0.012044232 0.060207233
-0.1671965 0.1743206 -0.056118824 0.09403528 0.17409043 0.076274455 0.16421747 0.18287793
0.17078182 0.009709701 0.16046898 -0.041285202 -0.05342577 0.14037381 0.08051344 0.02768744

net.2.weight f4 [64, 128]
00000000: 7894 2abd 1e6d 0a3d aac7 8d3d 7158 0f3c
00000010: 6e32 263d e49d 3d3d 813f 8fbd 7c01 273c
00000020: 8f97 88bc 841a 19bb 8508 aa3d bd6f d93d
00000030: 5f4b 063d e8c4 a43d 6189 21bd a07e 3e3d
00000040: b447 603c 9d85 b8bc 21e0 4d3d d039 073d
00000050: 98c4 603b 069b 573d 06d0 743d 98da b43d
00000060: 3fcd a13c 7682 c23c b3fc e43c 6778 403d
00000070: 47b6 1bbd d7e1 b93c 4777 22bd 139d 66bd
00000080: 0526 45bd d935 a93d 52bd cdbc 7475 543b
00000090: 7d71 933c 85a6 b43d a319 893d 8b7a e7bc
000000a0: b162 8c3d 3574 83bd d1a4 043d 1bc1 cb3d
000000b0: e254 b63d 590e b5ba 01c6 16bd ab4a 803d
000000c0: d8d3 703d fc63 dcbc dca4 463b c0df c8bc
000000d0: 42d8 6a3d 9309 303d 760e 833d a7cd efbb
000000e0: 4955 3abd d3fc 90bc 04b1 4cbd 8692 4bbb
000000f0: 7bb3 4d3d 4350 10bd ee1a 0a3c 4abc 51bd
00000100: 6013 04bd ace8 3fbd d1c9 64bc 8b1e dfbc
00000110: 83cf 393d 6571 8f3d 75ec d33d 0044 663d
00000120: 1915 183d a05f 0f3b 5e65 973d 071f 493b
00000130: da78 7b3d 719b a3bd c67f 1ebd 04ca 4c3d
00000140: a6e1 05bd 9385 193d 8113 a23d 2289 803d
00000150: bbc4 e63d e352 e7bc 3514 04bd c64c 463c
00000160: 03c3 923c fefa 6b3c 6d34 383c 0e44 953d
00000170: 967e 13bc c8ac 823d aee3 5b3d e04a 643d
00000180: f3df 3e3d c596 20bc c81c 7a3d db5e afbc
00000190: 5322 b5bc 1b75 cc3d 44d5 9f3d e602 0dbd
000001a0: a7ed 933d 7e7f 203d 3401 0f3d 7086 b93d
000001b0: 6b13 993b ba64 9f39 83f1 a33d dc19 3e3c
000001c0: bc08 9839 274b 4f3c 9d47 b03d a5b6 883d
000001d0: 0001 313c 981f a83c cced d63c 99ca f8b9
000001e0: d7c2 193d 1573 28bd 42ac c63c ff72 d33b
000001f0: ed86 ea3b 444d da3d 6193 323d 11a6 563d
00000200: b689 8bbd 036a 8cbb cfda 153c 5f46 e93c
00000210: 8709 28bd 4662 0fbd 4d06 b3bd b3ef 133d
00000220: d803 223d f9ba b33c 59a9 cf3c 14a6 0b3d
00000230: b420 813d 366d 423c 4239 5e3c 6dd8 493c
00000240: 715c 71bd 05dc 7e3b b968 1b3c 568e 9ebd
00000250: 23f4 18bd c37a 86bd 8e72 89bd 5af7 333d
00000260: 3246 4b3d ef96 d9bc fbad 173c dee0 15bd
00000270: 8c90 063b bb37 f1bc eaec 77bd 3e7c 48bd
00000280: c981 8d3d 9c1f 7fbb da79 76bd 3e11 18bc
00000290: bb0e c9bd b7c9 64bc 30d1 3e3d 9181 82bb
000002a0: 8e52 8d3b 8ac3 c2bd 9e29 e9bc 473b 123d
000002b0: e574 99bd 3270 59bd 24c9 1d3d c538 1a3c
000002c0: aab5 bb3c 2255 bbbd 5d1a 173d 4edd 0abd
000002d0: 0ddc d63a e1f9 553d 42c6 c2bd e25e 013c
000002e0: c508 c1bd c852 433d 64cc b73b 9809 c0bb
000002f0: a955 46bd 3b5d 8a3c cd4f 5cbd 8d84 d2b9
00000300: 3107 633d f18e a4bd 391e 2dbd 05c8 8a3b
00000310: 8f6d 4fbb 942e 87bc f083 643d d7b0 25bd
00000320: 3a13 d13b 09a0 f43c 6807 0bbd 747e 163d
00000330: 8167 163d feba 913c 5803 08bd 1fe9 6d3d
00000340: 50cd 8abd ca7b 0c3c f96d e63a b74e 2f3d
00000350: 220c b2bd 9857 51bb 0377 8dbd 4fdf fa3c
00000360: 309d 713c 3285 a0bd 1d2a a7bc b11a f83b
00000370: 0926 a03c aba1 6e3d c735 c53c 4321 6fba
00000380: 09e1 ed3c 3482 c6bd fbcb 283d 7db8 d1bc
00000390: b989 ea3c aaad 053c d70c 88bc 337d 383d
000003a0: 1fff 83bd 58af 263c 4ee8 903c 8229 33bd
000003b0: b01f 833c fcd8 c8bd 985a 73bd 2fea d23c
000003c0: c2d6 ec3c 22bd b6bd a323 4a3c 9755 21bc
000003d0: ae55 8b3d fe4a c9bd 4ae0 0cbd fafb 83bd
000003e0: 4885 85bd 6797 f7bc df21 bfbd cfca 4e3d
000003f0: ff26 2ebd 9af1 663c e430 84bd 6395 75bc
-0.041645497 0.03379547 0.069228485 0.008749113 0.040575437 0.046293154 -0.06994534 0.010193225
-0.016673831 -0.0023361752 0.08302406 0.106170155 0.032786723 0.080453694 -0.039437655 0.046507478
0.01368897 -0.02252465 0.050262574 0.03301412 0.0034296867 0.052638076 0.0597687 0.08830756
0.01975119 0.02374385 0.027952528 0.046989825 -0.03801563 0.022690697 -0.039664533 -0.05630214
-0.04813196 0.08262224 -0.025114689 0.003241864 0.017998451 0.088208236 0.06694343 -0.028256675
0.068547614 -0.06418649 0.032383744 0.09948941 0.08902909 -0.001381348 -0.036809925 0.06264242
0.05879578 -0.026903145 0.0030310666 -0.024520755 0.057335146 0.04297788 0.063992426 -0.007318217
-0.04549149 -0.017698681 -0.049973503 -0.0031062677 0.050219994 -0.035232794 0.008429272 -0.051204957
-0.03224504 -0.046852753 -0.013964132 -0.027236244 0.045363914 0.0700405 0.10347835 0.056217194
0.037129495 0.0021877065 0.07392381 0.003068866 0.06139455 -0.079886325 -0.038696073 0.049997345
-0.0326859 0.037480902 0.07913876 0.06276156 0.11267992 -0.028237766 -0.032245833 0.012103265
0.017915254 0.014403103 0.011242968 0.07288371 -0.009002348 0.06380612 0.05368393 0.05573547
0.046600293 -0.009801571 0.061062604 -0.021407535 -0.022111094 0.099832736 0.07804349 -0.034426592
0.07223063 0.039184086 0.034913257 0.09058845 0.0046715043 0.0003040189 0.08005049 0.011602845
0.00028998207 0.012652195 0.08607409 0.06675462 0.010803461 0.020522878 0.026236437 -0.00047453193
0.03753933 -0.041125376 0.02425206 0.0064529176 0.0071571977 0.106592685 0.043597583 0.052404467
-0.06813376 -0.0042850985 0.009146406 0.028475938 -0.04102471 -0.03500583 -0.08741436 0.036117267
0.039554447 0.021939741 0.025349306 0.03409393 0.06305066 0.011866858 0.013563456 0.012319666
-0.05892605 0.0038888466 0.009485417 -0.07741992 -0.037342202 -0.06566384 -0.06711303 0.043937065
0.04962749 -0.026561229 0.009257789 -0.036591403 0.0020532934 -0.02944552 -0.060528673 -0.04894661
0.0690952 -0.0038928753 -0.0601748 -0.009281455 -0.09817263 -0.013964108 0.046586215 -0.0039827307
0.00431282 -0.09509952 -0.028462227 0.035701063 -0.07492999 -0.053085513 0.0385219 0.009412949
0.022913773 -0.09147097 0.036890376 -0.03390246 0.0016392485 0.052240256 -0.09510471 0.007896157
-0.09425501 0.04768637 0.005609082 -0.0058605187 -0.048421536 0.016890159 -0.05378704 -0.0004015308
0.05542678 -0.080350764 -0.04226515 0.00423527 -0.0031650995 -0.016501702 0.055789888 -0.04045185
0.006380466 0.029861467 -0.03394261 0.03674169 0.036719803 0.01778936 -0.033206314 0.05808365
-0.067774415 0.0085744355 0.0017580382 0.042799678 -0.086937204 -0.003194308 -0.06907465 0.03062406
0.014746949 -0.07837905 -0.020405823 0.0075715412 0.019549387 0.058259647 0.024073495 -0.0009122083
0.02903797 -0.09692803 0.041210156 -0.025600666 0.028630124 0.0081590805 -0.016607685 0.045041274
-0.06445145 0.010173641 0.017688897 -0.043740757 0.01600632 -0.098070115 -0.05941257 0.025746433
0.028910998 -0.08922793 0.012337598 -0.009847066 0.068034515 -0.09828757 -0.034393586 -0.06444545
-0.06519562 -0.030223561 -0.09332632 0.050486382 -0.04251766 0.014095688 -0.06454638 -0.01498923

net.2.bias f4 [64]
00000000: 8cdc e53d fa9d 35bd 0e58 40bd 8807 9dbc
00000010: b324 a33d 5578 8c3d 7c30 4c3d 0bd9 9b3d
00000020: 57f9 c7bd d324 45bd c11a ca3c 37f7 a2bc
00000030: fcb7 8ebd c5c6 2e3d 433e 09bd bd4c 433d
00000040: 8b89 8abb 4a70 ca3c 4b81 17bc 80da f5bb
00000050: 5998 e43d 880b afbb 6e9e f83d 2846 04bd
00000060: e7fe 3ebd 34c3 d6bc 9e33 5f3d 4d8c ca3c
00000070: 07fb 1f3d 003d f53d 2b63 64bc fd2c cfbc
00000080: 27d8 803d 5ca3 a93c bdad 203d ba34 9d3d
00000090: ccc2 833d b4af 90bd b2cf 643c ba6d e83d
000000a0: bb1b 8c3c 02b8 13bd c4c4 583c 706b 9e3c
000000b0: 7627 cabc cea0 9d3a 3aa4 2d3d 4115 863d
000000c0: a4ee 853d 671a af3c bd07 3f3d be09 0dbd
000000d0: 0414 013d 5175 323d 49db 8bbd cecb f23d
000000e0: 2d02 113b 0308 1cbd f483 54bd 02a3 06bd
000000f0: abf4 b2bd a4c2 ba3d bb9f efba d6b0 40bd
0.112237066 -0.04434011 -0.046958975 -0.01916863 0.07965984 0.06858889 0.049850926 0.07609757
-0.09764355 -0.04813082 0.02467096 -0.019893272 -0.06968686 0.04267003 -0.033506643 0.047680605
-0.004227822 0.024711747 -0.009247134 -0.007502854 0.111618705 -0.005341951 0.12139593 -0.03229347
-0.046629813 -0.026216127 0.054492585 0.024725104 0.039057758 0.119745255 -0.013939659 -0.025290007
0.06291228 0.020707779 0.03922819 0.076760724 0.06433639 -0.07064763 0.013965534 0.11349054
0.017103067 -0.036064155 0.013230506 0.01933834 -0.02467702 0.0012026073 0.042392947 0.065470226
0.06539658 0.021374894 0.04663824 -0.03443312 0.03151323 0.043568913 -0.06828935 0.11855279
0.002212654 -0.038093578 -0.051883653 -0.0328703 -0.08738073 0.09119156 -0.0018281856 -0.047043644

head.weight f4 [1, 64]
00000000: 05ab 263d e574 bbbd eae7 733d 88a7 4c3c
00000010: c2bf 853d 7241 2c3d 66de 1fbd 0a8d e43d
00000020: b62e 9cbd 0829 a53c dc90 043e fdfa 473d
00000030: c3b5 9dbd 087a 193e 4a12 6ebd 41cb 0cbd
00000040: b281 c23d 0eb1 6dbd d8d0 903c 5200 8e3d
00000050: 21a1 c23d 07f8 7cbd e6bc 133e f14a da3d
00000060: 6a65 0cbd 0e9f ce3c 301f 00bd 5d20 44bd
00000070: 9f36 093e ef5b f63d 25d8 353d 6e75 023e
00000080: 3ded d4bd 3db8 163d f11e 3ebd 6d61 c23d
00000090: e19f 0f3d 9844 aabd 6f76 e13c 74ea a33d
000000a0: 8598 babc e26d 9f3b 6d09 9abd 6f72 0a3e
000000b0: 1ed6 d7bd 7ef7 77bd e8c7 a5bd 1dec 26bd
000000c0: 04bc 5fbd ba5f 8c3d 6812 013e 5731 e73c
000000d0: 7249 553d dfb0 f53d 75a5 d8bd ded5 1b3d
000000e0: 3d44 aa3d 63c3 203d 31dd 20bd 88d1 cdbc
000000f0: 197b 51bd c8db 193e b977 26bd 71d5 5bbc
0.04069044 -0.09153155 0.059547342 0.012491114 0.065307155 0.0420546 -0.039030455 0.111597136
-0.07626097 0.020161167 0.12945884 0.048823345 -0.07700684 0.14987957 -0.05812291 -0.034373526
0.09497394 -0.05803018 0.01767771 0.06933655 0.09503389 -0.061759975 0.14427528 0.10658825
-0.034276403 0.025222328 -0.031279743 -0.047882427 0.13399743 0.12029254 0.044395585 0.12740108
-0.10396812 0.036796797 -0.046416227 0.09491239 0.03506458 -0.083138645 0.027522294 0.08003703
-0.022777805 0.004865394 -0.07521329 0.13520215 -0.105388865 -0.06053876 -0.0809477 -0.04075252
-0.054622665 0.06854196 0.12604678 0.02822177 0.052071996 0.11996626 -0.105784334 0.038045757
0.08313797 0.039248835 -0.039273445 -0.025124326 -0.051142786 0.15025246 -0.04064152 -0.013417588
