artifacts/model_exp-04_wd-1e-3_seed1_20251104T051620Z.pt (torch, 52229 bytes, 5 tensors)

net.0.weight f4 [128, 29]
00000000: 2468 db3d 2a53 2cbd 2d73 9cbd d054 ef3c
00000010: 7935 3ebe 89e3 093e e67a 3ebd 36e9 043e
00000020: 49e4 8b3c e51a 9cbc 1a81 0c3d bfa9 1c3d
00000030: 90b4 fc3c 13d6 cebd c686 f7bc 17ac 10bd
00000040: c464 cfbc 720d 963d 1058 3c3e c59b b13d
00000050: d5cf a9bd 7de1 b4bd db03 aabb fa87 1f31
00000060: 67d3 4daf 000e 89ac 81b2 6b35 aedf d4b3
00000070: b1ca 21bb 9e39 263e 7db4 3b3d 42c9 0e3e
00000080: 5197 9f3d abe9 39be 7dcc 1ebe 52e7 a8bd
00000090: 510d 5a3e e85b 8fbd 948c d83d 90dc 57bd
000000a0: d36c 503e 4850 08bd 9cd8 c23d 6954 e1bc
000000b0: 62c2 8ebd d4f7 ce3d 5b59 7ebd 44e8 a13d
000000c0: e8a1 09bd 262d 43bc 1814 21be 50e8 8ebd
000000d0: d1bc d0b3 405e 6b2e cdd3 3b3b 33ba b639
000000e0: f3d1 c32c 14a4 abb7 0d82 1b3e a7f0 813c
000000f0: 1c03 0ebe 4e62 ab3d b1d0 be3d e165 213e
00000100: 340a bbbd 3765 98bc 9fac 28bd ebe8 263d
00000110: b89a e2bd 4299 e8bd 3438 013e dd2b 32bd
00000120: 57cc d53d 0ed1 32ba ead2 a5bb c563 743d
00000130: abb6 c83d c81b bb3d 3aaf 4fbe b2c8 d23d
00000140: 0661 0bbe f9be 26b9 6e77 2e2c 7975 102e
00000150: 85ca e534 51ca 2eb4 549e 8bba c0b8 203e
00000160: 60be 24bd 8fc1 803d 595c 083d bc3e 06be
00000170: 1232 8fbb 5b44 d03c e3a1 23be 44db aebd
00000180: 6db6 973d 7d8a 603d f5b7 dcbd 785a 76bd
00000190: 5813 0e3e f15e 2dbd 661e 133e 5719 0f3e
000001a0: 217d 63bd 16c9 18be 775d 5b3e 854f 653d
000001b0: a0a7 ce3d e30f 493d 1521 452f a2a5 1039
000001c0: 801c fb3a 7725 98b7 1417 b5ad feb5 0e39
000001d0: c05f b03d 167d 973d 8353 44be 7b84 5ebe
000001e0: d619 08be eba8 e63b 2506 173e 23fa febd
000001f0: 0af9 173e f95c eebd db5f 58be ea88 b8bd
00000200: ebec ec3d c901 073e 064b 06be baa2 883d
00000210: bfd9 513e c4a6 3d3e 1632 0d3e 9d6d 1b3e
00000220: 72e1 1a3e 818d 0f3d e66d afbd cda3 1bba
00000230: d98c 19b1 5ebe 99ad e8f9 22b6 b920 3fae
00000240: 92f6 122f 946d 21bd 9d84 573d 55b8 ac3c
00000250: e48e 9f3d c68b e53d d17b 77bd 5253 213e
00000260: ddd6 1ebd 7a06 bd3c cb19 36be ff39 c9bd
00000270: a254 13be f2b7 5dbd 6abb ac3d 5969 aebd
00000280: 454e c3bd bb02 0a3e acee cb3d 09c3 ee3d
00000290: ff66 6fbd 09a1 b53d d86e 44bd 7d3e 15bc
000002a0: 8f37 aab9 a25e bbb0 24a1 bbae c3eb 13b1
000002b0: 6f72 262e b1e3 c0ad f659 263e 7c26 253e
000002c0: cbe1 cd3d 3228 8dbc 87fa 08be c065 263e
000002d0: 6105 77bd 3d50 4fbc 6ff9 27be 7ec4 1bbd
000002e0: 6e5f babd 1100 5c3e ec99 19be d160 16be
000002f0: 8722 11bd a296 b3bd dcd0 c83d 4f5b 0fbd
00000300: 1129 6cbd b5dc ba3c 5595 173e 6da0 e9bd
00000310: f494 e83d d5df 1337 ada8 223b e779 50b8
00000320: ce74 80ae 5ab7 f9b8 4bb8 393a bb1d 8dbd
00000330: 9839 053e e193 27bd 5cd7 a1bd ad9a 44bd
00000340: b2f4 363d 0279 923d 4581 b63c e770 b03d
00000350: 04a9 5cbe b91e 1a3e 2c1f 123e aa8d 473e
00000360: 7f79 e63d 6521 c3bd dbff 94bd 54c8 fc3d
00000370: 04b5 0ebe 580e 2b3e ea36 26be 47c9 1bbe
00000380: bb66 ba3d 8577 20be f4b4 812d 917d c338
00000390: 58f3 9d39 c394 f53a b1c7 272e 10a0 78b9
000003a0: 319e 483e 9f4a 6fbd 71b5 c8bd 74df f2b9
000003b0: f907 19be 1a42 0c3e a24e c23d be99 17be
000003c0: a5a7 15be a7e3 9dbc 7e9b ba3d 3ece dc3b
000003d0: 8226 a4bd ff29 2fbc 6261 30be dda2 14be
000003e0: c7c6 21be 1475 173e cde2 2c3e 5700 8ebd
000003f0: 2f7b 78bc 8d71 ae3d 1f78 a63c 2042 86b1
0.107132226 -0.0420715 -0.076391555 0.029215246 -0.18575086 0.13465704 -0.046503924 0.12979588
0.017076628 -0.019055793 0.03430281 0.03824782 0.030847818 -0.10099425 -0.030215632 -0.035320368
-0.025316603 0.07326783 0.18392968 0.08672289 -0.08291594 -0.08832071 -0.005188448 2.321484e-09
-1.8719747e-10 -3.8953285e-12 8.780408e-07 -9.9127064e-08 -0.0024687464 0.16232917 0.045826424 0.13943961
0.07792533 -0.18155544 -0.15507694 -0.08247246 0.21294142 -0.069999516 0.10573688 -0.05270058
0.20354013 -0.033279687 0.09513971 -0.02750607 -0.06970669 0.10105863 -0.062096935 0.07905629
-0.03360167 -0.01191262 -0.15730321 -0.06977904 -9.7201e-08 5.3516525e-11 0.0028660179 0.00034852474
5.5655424e-12 -2.0461193e-05 0.15186329 0.015861822 -0.13868374 0.083683595 0.093171485 0.1576152
-0.091328055 -0.01860295 -0.04118025 0.04074947 -0.110646665 -0.113573566 0.12619096 -0.043498863
0.10439365 -0.00068213127 -0.0050605433 0.05966546 0.09800466 0.09136158 -0.20281687 0.10292186
-0.1361123 -0.00015902137 2.4793184e-12 3.2846146e-11 4.2801926e-07 -1.6278615e-07 -0.0010652044 0.15695477
-0.04022062 0.06286918 0.033291195 -0.13109869 -0.0043699825 0.02542322 -0.15979724 -0.08537915
0.07407842 0.054819573 -0.107772745 -0.06014487 0.13874567 -0.04232687 0.14367065 0.1397451
-0.055539254 -0.14920458 0.21422373 0.05598404 0.10090566 0.049087416 1.7928799e-10 0.00013794613
0.0019158274 -1.8137258e-05 -2.0587566e-11 0.00013609973 0.08612013 0.07396905 -0.19172482 -0.21730225
-0.13291106 0.0070391796 0.14748438 -0.124500535 0.14841095 -0.11638827 -0.21130316 -0.09010489
0.11568626 0.13184275 -0.13114557 0.06671663 0.2049322 0.18520647 0.13788638 0.15178533
0.15125063 0.035047058 -0.08565883 -0.0005937189 -2.2344493e-09 -1.7478626e-11 -2.4285346e-06 -4.3457436e-11
1.3366222e-10 -0.039411142 0.052616704 0.02108399 0.07790926 0.112083 -0.060420815 0.1575444
-0.03877913 0.023074377 -0.17783277 -0.09825515 -0.14387754 -0.054130502 0.08434184 -0.08516187
-0.09536413 0.13477604 0.099576324 0.11658294 -0.058447834 0.08868606 -0.04795727 -0.009109137
-0.0003246632 -1.3632937e-09 -8.5324e-11 -2.152533e-09 3.7845668e-11 -2.1928988e-11 0.16245255 0.16127962
0.10052832 -0.01723108 -0.13376819 0.16249752 -0.060307864 -0.012653408 -0.16403745 -0.038029186
-0.09100233 0.214844 -0.15000123 -0.1468537 -0.03543332 -0.08768965 0.09805462 -0.034999188
-0.05765635 0.02281032 0.1480306 -0.11407552 0.113565356 8.813998e-06 0.0024819777 -4.9704595e-05
-5.841515e-11 -0.00011907397 0.0007084652 -0.06890436 0.13010252 -0.040912513 -0.07902405 -0.047999073
0.044666953 0.07151987 0.022278437 0.086152844 -0.2154885 0.15050782 0.14269704 0.19487634
0.11253642 -0.09527854 -0.07275363 0.12342897 -0.1393624 0.1670469 -0.16231886 -0.152135
0.091016255 -0.15670593 1.4745961e-11 9.321713e-05 0.0003012668 0.0018736351 3.8148765e-11 -0.00023710751
0.19591595 -0.058420774 -0.09800232 -0.00046324322 -0.14944448 0.1369709 0.09487654 -0.14804742
-0.14614733 -0.019273592 0.09111689 0.006738453 -0.08015157 -0.010691165 -0.17224649 -0.14515252
-0.15798484 0.14790756 0.16883393 -0.069336586 -0.015166088 0.08517752 0.02032095 -3.907431e-09

net.0.bias f4 [128]
00000000: df20 f53d 6c4d 3f3e 2967 1d3e 1bf0 e2bd
00000010: fd7e 66bd 9ee9 e23d 2e4c c0bc d93f eeba
00000020: e9b6 c2bb 4173 e9bd a3fb 9b3b 0738 9e3d
00000030: 303f 62b9 79a3 57bd 93af 8ebd a595 403e
00000040: a89f 283e 27c5 13bd cdaa b5bd 47c5 0b3c
00000050: bddc 5fbd 0996 17be 48bf d1bd 54fd 4a3e
00000060: e3e7 36bd 35fb 413e dbce f43d f755 6f3d
00000070: 556c 25bd 727b 113e 110e 823c 9827 65bd
00000080: dee2 073e d137 81bc f4a8 093e b7da ec3d
00000090: 2be2 02be 2971 a0bb a714 2e3d d913 bb3c
000000a0: f956 bb3d 6b79 dd3a c8e1 d4bb 9a0e fe3c
000000b0: edea 193e 35ff 97bc 14b0 3dbc 4197 653e
000000c0: 532f 563e 66ac 3b3e f89c 5a3e a54e 93bd
000000d0: a270 b43c fd93 1abe 53ce 01bd 73fc 1b3e
000000e0: d353 553e ce79 0fbe 49f8 0f3e d2c9 10bd
000000f0: 6941 3f3e fce1 a53d ab96 babd a09c 463e
00000100: ec7c 8bbd 669f 91bb 8d32 26bd 9039 c53d
00000110: 5c3f 0f3e 7457 67bd 95c2 b2bd 5d76 d53d
00000120: 3d92 0f3e f8f4 c33d 373c dbbd a360 d73d
00000130: 095b 8ebd 0341 483b ba0b bd3c 1aeb 05be
00000140: 6ce5 083e 41a6 adbd c4d6 c03d ad70 42bd
00000150: 2e28 153e 988f 813d ce49 023e 6032 163d
00000160: 6003 9ebd 9475 d7bb fa6c f63d 0907 ae3d
00000170: e594 1cbd 6787 88bd 3fdc e53c 9421 e4bc
00000180: d08c 98bc df7e 533e 5068 34bd 1581 653e
00000190: fad8 4e3e d3a5 cdbd f371 0a3e 1d55 d7bd
000001a0: b67e 9a3d 97e0 a9bd 5e0c 80bd c7fa d03d
000001b0: a7c4 423d dc8d 3cbd ca49 a23c 41ae d53d
000001c0: c239 07be 657a 953d c823 47be c230 b6bc
000001d0: ab53 5c3e b702 8fba 0967 70bd 434a 00be
000001e0: 2f10 8a3e 9efc 803d f8cf a3bd 0ed1 473c
000001f0: 08db 4d3e a04a 0fbe 0c94 ed3c 2b7d b1bd
0.1196916 0.18681878 0.15371384 -0.11080953 -0.05627345 0.11079715 -0.023473825 -0.0018176987
-0.0059422147 -0.11398936 0.004760222 0.0772553 -0.00021576579 -0.052646134 -0.06967082 0.18807085
0.16467154 -0.03607669 -0.08870468 0.008530921 -0.05465387 -0.14803328 -0.10241562 0.198232
-0.04465474 0.18943484 0.11953517 0.05843159 -0.040386517 0.14207247 0.015875848 -0.055945963
0.13270137 -0.015773686 0.13443357 0.11565154 -0.12781589 -0.0048963022 0.042500164 0.022836613
0.09147448 0.0016897147 -0.006496642 0.031012822 0.15031023 -0.01855431 -0.011577625 0.2242098
0.2091649 0.18327484 0.21348941 -0.07192735 0.022026364 -0.15095516 -0.031690907 0.1523302
0.20832758 -0.14011309 0.14059557 -0.03534872 0.18677296 0.08099744 -0.09110769 0.19395685
-0.06810936 -0.0044440506 -0.040575553 0.0963012 0.13989013 -0.056479886 -0.0872852 0.10422967
0.14020629 0.095682085 -0.107048444 0.10516479 -0.06950957 0.0030556328 0.02307688 -0.13077965
0.13368767 -0.08478976 0.09415963 -0.047470737 0.14566109 0.063262165 0.12723467 0.036669135
-0.077154875 -0.0065752957 0.120325044 0.084974356 -0.038227934 -0.06666451 0.028059123 -0.027848043
-0.018621832 0.20653866 -0.044044793 0.22412522 0.20199957 -0.10041394 0.1352003 -0.10514281
0.075436994 -0.0829479 -0.06252359 0.10204082 0.047550824 -0.046033725 0.019810576 0.10433627
-0.13205627 0.072987355 -0.19447243 -0.022240046 0.21516292 -0.0010910843 -0.058692012 -0.12528329
0.26965472 0.06298183 -0.07998651 0.012195839 0.20103085 -0.13993311 0.029001258 -0.08666452

net.2.weight f4 [64, 128]
00000000: 8cd1 83bd 31f5 f1bc 3f5c 973c 3ed3 b7bd
00000010: c0cf 74bd 5a5c 9fbd 554e 01bd 42f1 4bbd
00000020: b299 ff3c c4e9 2cbc f6f4 9cbc 127a a8bd
00000030: b9bd 1fbc 5ff3 b3bd 950d abbd ee1f b13c
00000040: 47c1 bfbd a592 15bc da62 043c fab5 8abc
00000050: 2732 333d a7d0 d8bc 2b65 2f3d 1a39 68bd
00000060: e4b5 88bd 43b5 8bbd ba4b 073d 0857 7ebb
00000070: 81e9 a3bc 3fe1 abbc 7b28 2abd f408 af3b
00000080: 0437 9fbc c978 a0bc a3bf 4abd 8e0a 86bd
00000090: 315a 6fbb bbd9 cebb 2d7e aebd 6292 743d
000000a0: c3c8 c73c 1b99 203d 2bad 4e3c 5b57 06bd
000000b0: 99c5 853c fc11 d03c 95ac 943c 1c7b 26bd
000000c0: 41a5 68bd 52d6 86bc 10dd 5a3d 0639 26bd
000000d0: 5b28 42bd a07c 4fbd 2a19 80bd eb66 993c
000000e0: ec77 c1bc d2bf 92bb 0676 8b3d 9e9d a6b9
000000f0: 0cb3 4e3d 56af 65b9 9ff6 a8bc dae0 1a3d
00000100: 9f57 533c 0e01 95bc bf0e 13bc 1956 55bd
00000110: fb27 aebc 4772 2d3d 4d9a 613d 09a7 7d3d
00000120: 86bc 91bd 5339 84bc 3fbf 923c 1e18 2b3d
00000130: 2b46 51bd 0dd6 9abd 3f67 7e3c 9185 61bd
00000140: 92d1 8c3d b041 58bd 9006 e93c 60d1 10bd
00000150: c3d5 a7bd ab32 bebd 4ad6 bd3c b191 16bd
00000160: 1fa9 81bd 7d63 853d 87d5 0f3d e5b5 263d
00000170: 85e1 18bd b911 73bc eab6 6a3b 83b0 b4bc
00000180: 8b88 cb3c 0c8f 04bd 424d f0bc c010 afbc
00000190: 588b 30bd 51c9 89bd 5b9a b6bc d86e 14bd
000001a0: 6f6f 1dbd f1bf 2bbd fdea bb3c d484 dcbc
000001b0: e7d8 4f3d a4a1 493c a5cf 22bd 3a5c 8e3d
000001c0: f914 10bd f2b7 87bd a09b 323d 2c79 56bd
000001d0: d9d6 343d 4cc3 4b3d 2206 05bd 3506 12bd
000001e0: e728 823c e878 e23c ed7d 4e3d 5332 0f3c
000001f0: 3757 acbb 02ce 663d f5ec dd3b 0653 95bd
00000200: be4c d3bc 0ea4 88bc b915 383c 015d d1bb
00000210: aafe a4bc aa38 6abd 5303 cdba c0c3 cb3c
00000220: 3273 47bd 03ea ae3c f4fc ffbb cf3b 4c3d
00000230: aa13 0cbd d24b 54bc 1ec6 6d3c 69c4 b9bd
00000240: 54d5 263d 3cb9 89bb 678a 7e3b daad 81bc
00000250: 849b 5f3d 5d25 cb3a de10 9a3a 1d7b 3abd
00000260: 97d7 6abd 718e 59ba 0c9d 8cbd c239 11bc
00000270: 1b14 6a3d 7bf8 523c 6800 05bd b875 d6bc
00000280: 16aa 4c3c d352 85bd a0a1 fabb 8bbd 86bc
00000290: b525 ae3c 0f62 1bbd d7d3 b5bc 0868 14bd
000002a0: 8466 ba3c 45a9 e5bc 022e aebb 5e67 d73c
000002b0: 36af 1fbd b896 843d 1cbf 1abd a358 13bd
000002c0: e2f5 63bb 5103 35bd 2715 97bd b982 09bd
000002d0: 1122 6ebd 7bbe 493d f42c 70bb 0ff2 3bbd
000002e0: 1a78 963c 72d8 d2ba 5099 1abd a268 043c
000002f0: a057 6dbd 245b 8ebd d85c ff3c 934e 883c
00000300: fed0 c63c 4b5c 6c3c f918 b5bc 1cad d5bc
00000310: 8c72 2cbc 8310 033d 1f4c 613c 3f5b d4bc
00000320: 8b6d 04bd 0852 0aaa 81f5 253d 6e56 24bc
00000330: 07b8 1a3d 6359 2cbd 3583 053c 4a97 5abd
00000340: f61d abbb 5b7c 373d 962c 04bd 67e8 ca3c
00000350: 269b 183d 9458 433d d143 37bd eea7 c33b
00000360: 4e35 8139 3db5 16bc 9a7a a03a 729e 78bd
00000370: b626 723d 5ca6 573c fd7c 103d acf1 2d3c
00000380: eb3a dbbc 67d7 6d3c 4b4c 53bd e5f8 bebc
00000390: 89ce dcbc 9067 8cbb 40eb 04bb 2bfa ab3b
000003a0: 393d de3c 9213 2cbd 5274 223d 82e3 a43b
000003b0: ee6d e6b9 159c 97b5 3434 2fbd 30ea 7ebd
000003c0: 1038 083c 66b8 553d c460 57b0 56ed 773d
000003d0: 585d f73c 1aa8 2b3d 9156 163d d276 223d
000003e0: e8e5 49ba de3f 8bbc d83a 6bbd c043 52b0
000003f0: 1fd8 0bbc 7811 29ba 3702 813b b233 81bd
-0.06436452 -0.029535862 0.018476604 -0.08975838 -0.05976844 -0.077812865 -0.031568844 -0.04979063
0.031201217 -0.010553781 -0.019159775 -0.08226408 -0.009749823 -0.08786654 -0.083522 0.02162167
-0.093630366 -0.009129201 0.008080209 -0.016932476 0.043749 -0.02646668 0.04282109 -0.05669508
-0.06675318 -0.06821682 0.033031203 -0.00388092 -0.020008804 -0.02098143 -0.04154251 0.0053416435
-0.019435413 -0.019588845 -0.049499165 -0.06544982 -0.0036522264 -0.0063125766 -0.0852016 0.059709914
0.024387723 0.039208513 0.012614529 -0.032798152 0.016329573 0.0253992 0.0181487 -0.04064475
-0.056798223 -0.016459618 0.053433478 -0.040581726 -0.047401767 -0.05065596 -0.062548 0.018725833
-0.023616754 -0.004478433 0.068096206 -0.0003177942 0.05046372 -0.0002190446 -0.02062541 0.03781209
0.012899308 -0.01818898 -0.008975684 -0.052084062 -0.021259299 0.04234531 0.055078793 0.061926875
-0.07116036 -0.016140616 0.017913459 0.041771047 -0.051092308 -0.07560358 0.0155275455 -0.05505902
0.0687591 -0.05279702 0.028445512 -0.035355926 -0.08195069 -0.09287008 0.02317347 -0.036760036
-0.063310854 0.065131165 0.035115745 0.040700812 -0.037324447 -0.014835768 0.0035814592 -0.022056824
0.024845382 -0.032362983 -0.029333714 -0.021370292 -0.04310164 -0.06727851 -0.0222904 -0.03623852
-0.03843635 -0.041931096 0.0229392 -0.026918806 0.050743964 0.012306605 -0.039748807 0.069511846
-0.03517625 -0.06626882 0.043605447 -0.052361652 0.044150207 0.049746796 -0.03247655 -0.03565045
0.015888644 0.027645543 0.05041306 0.008740026 -0.0052594203 0.056348808 0.0067726322 -0.07291226
-0.02579343 -0.01667979 0.011235648 -0.0063892608 -0.020140965 -0.057182945 -0.001564125 0.024873614
-0.048693843 0.02135182 -0.007812137 0.049861725 -0.03419844 -0.01295753 0.014512567 -0.090706654
0.04073079 -0.00420299 0.0038839818 -0.01582997 0.05459167 0.0015498806 0.0011754294 -0.045527566
-0.05733451 -0.00082991185 -0.06865892 -0.008863868 0.05714808 0.012876625 -0.03247109 -0.02617918
0.0124917235 -0.06509938 -0.0076486617 -0.016447803 0.021258214 -0.037935313 -0.02219574 -0.036232024
0.022753961 -0.028034816 -0.005315543 0.026294407 -0.038985454 0.0647406 -0.037779912 -0.035973202
-0.0034784009 -0.044192616 -0.07377081 -0.033571932 -0.058137957 0.049253922 -0.0036647888 -0.045885142
0.018367816 -0.0016086234 -0.037743866 0.008081587 -0.057944894 -0.069509774 0.031172201 0.01663903
0.024269577 0.014426301 -0.022106634 -0.026083522 -0.010525357 0.03199817 0.013751059 -0.025922416
-0.03233103 -1.2285322e-13 0.040517334 -0.010030372 0.03777316 -0.042077433 0.008148958 -0.053366937
-0.0052220775 0.04479633 -0.032269083 0.024769021 0.037257336 0.047691897 -0.04474241 0.0059709465
0.00024644512 -0.009198484 0.0012243569 -0.06069798 0.05911895 0.013162222 0.035275448 0.010616701
-0.026761493 0.014516688 -0.05158643 -0.023312042 -0.026953952 -0.0042848065 -0.0020281821 0.005248328
0.027128803 -0.04201085 0.039661713 0.005032004 -0.00043950923 -1.1295803e-06 -0.042774394 -0.062235057
0.008314148 0.05217781 -7.8354057e-10 0.060529076 0.030195877 0.04190836 0.03670365 0.039664097
-0.00077018 -0.016998228 -0.057429165 -7.6493833e-10 -0.008535414 -0.00064494414 0.0039370316 -0.06308688

net.2.bias f4 [64]
00000000: 7025 1bba cdb6 cebc ed85 cc3d 0f95 d5bd
00000010: 4beb c33b 327e b13d 1b3c 993c 4133 93bd
00000020: 972c d93d ea14 4cbd 7212 78bb 3ff9 fe3c
00000030: 4378 7c3d cdf7 113d 2f92 b7bd ea74 fbbb
00000040: 9813 993d 035d d7ba ca3d 4ebc 264d e8bc
00000050: aeae a9ba d3c7 44bd 0383 f0bb aa88 8ebc
00000060: 4d4d 19bc 12d8 94bc c171 5abc ead7 91bd
00000070: d4d7 7a3d 8792 0cbc 9e50 ce3d 6ebb 003d
00000080: 070c 9a3d aa78 56bd c259 a4bd e12c e2bc
00000090: e3db f7bc 7184 633d ee6e aabc 8040 853a
000000a0: 82b9 543c 5833 fb3d 96cc 793d c2cc eebc
000000b0: 7ce5 a83d 3c0c a63c cb08 d63c 8100 ca3d
000000c0: 447c 153d 4810 033d 3598 63bd bd7f 4ebd
000000d0: e98f 9d3d 9794 d13c e310 efbc f578 b6bc
000000e0: 2cdd c0bc 2e92 81bc 5960 edbc 818e bdbd
000000f0: 5485 863d af4b d63d e8a0 de3c f6d4 cb3d
-0.00059183594 -0.02523365 0.09986482 -0.10428821 0.005978977 0.08666648 0.018705418 -0.0718751
0.10604208 -0.049824633 -0.003785279 0.03112471 0.061638128 0.035636712 -0.08963429 -0.0076738494
0.0747444 -0.0016430918 -0.012587974 -0.0283571 -0.0012945735 -0.04804213 -0.0073398366 -0.01739915
-0.009356809 -0.018169437 -0.013332785 -0.071212605 0.061240986 -0.008579857 0.1007397 0.031428747
0.07521825 -0.052361168 -0.080249324 -0.02760929 -0.030256217 0.055546228 -0.020804849 0.0010166317
0.012983682 0.122656524 0.060986124 -0.02915037 0.08246896 0.020269506 0.02612724 0.09863377
0.036495462 0.03199795 -0.055565078 -0.05041479 0.07693464 0.025583548 -0.029182857 -0.022274474
-0.023542963 -0.015816774 -0.028976606 -0.09255696 0.06568399 0.10463654 0.027176335 0.099527285

head.weight f4 [1, 64]
00000000: e1de 8fbd 8f9a a2bd 3465 b03d 2c89 81be
00000010: 969c cebb c5e3 053d e402 88bd f32d 37bd
00000020: ef45 f83d e680 1ebd cbcd 89bc 83c4 95bd
00000030: 0e0f 16bd 03d3 d3bd 3c3a a2bd 4f6c a23d
00000040: 32cb 2c3d b39f af3d a3c7 9dbd 0d4e e83d
00000050: 7835 c43d 7cab 75bc 455d a4bc cef7 003e
00000060: c615 883d 929c 523d 1841 b73c 9f43 de3b
00000070: 1f19 8fbc ea4b 323d 16b6 213e 2c2d e43d
00000080: 0134 1e3e 2c50 67bd 364e 8ebd c0bd f43d
00000090: e95f 57bc 910d 94bc eb9a c5bc d2bd 4bbd
000000a0: 4b24 1ebc 031b 353d f345 4a3d 10ee aebc
000000b0: 8e28 ed3d 6b92 e13d 84b9 80bc 7fff 5f3d
000000c0: f069 a43d ccb5 0b3d 1555 77bd c705 233c
000000d0: 60c6 983d 25ee e8bc 1621 36bd 29dd 5cbd
000000e0: fda7 94bd 49ea 33bd 741a 79bd d066 bcbc
000000f0: b517 7d3d 6286 553d 0600 103d 3ca5 093e
-0.07024933 -0.07939636 0.08613053 -0.25299966 -0.0063052876 0.03268792 -0.06641176 -0.044721555
0.12122714 -0.038697146 -0.016821763 -0.07312872 -0.03663545 -0.10342982 -0.079212636 0.079308145
0.04218597 0.08575382 -0.07704093 0.11343012 0.09580511 -0.014994498 -0.020064006 0.1259453
0.06644778 0.05141885 0.022369906 0.0067829634 -0.017468033 0.04352943 0.15792117 0.11141428
0.15449525 -0.056472942 -0.06948511 0.119502544 -0.013145425 -0.018072875 -0.024121722 -0.049741574
-0.009652208 0.044215214 0.049383115 -0.021353751 0.11580001 0.11014255 -0.01571346 0.05468702
0.080280185 0.034108922 -0.060383875 0.009950108 0.07459712 -0.028433869 -0.044465147 -0.053921852
-0.07258604 -0.043924604 -0.060816243 -0.022998244 0.061790187 0.05213011 0.035156272 0.13441938
