artifacts/model_exp-03_wd-1e-4_20251104T051225Z.pt (torch, 52157 bytes, 5 tensors)

net.0.weight f4 [128, 29]
0.15187325 0.14712195 -0.054031197 0.13589668 -0.073605165 0.0527928 -0.10533133 0.15124744
0.19484046 -0.13889892 0.16667782 0.06692326 0.16840863 0.0076656085 0.062308013 -0.041726362
0.19217885 0.059872184 -0.06151621 0.07736412 -0.046042297 -0.027953008 -0.05040474 1.854619e-05
-0.00029239248 -3.7062993e-09 1.0810781e-10 -1.3246377e-06 -1.4056233e-11 -0.1965861 0.16486253 -0.17376935
0.113625735 0.010251064 -0.00446494 0.12751399 0.05456952 0.17631412 0.034319196 -0.037800625
0.054835893 -0.026195578 0.06449732 0.1571401 0.12473582 -0.10158332 0.11290059 0.040539525
0.09930199 -0.116238065 -0.13756308 -0.06304996 -0.0002020149 0.00046366564 -1.2183606e-10 -9.48376e-10
1.9225414e-10 8.835971e-13 0.16085228 -0.13774477 -0.021654503 -0.1472737 0.050210174 -0.06320621
0.0506724 -0.06655331 0.17453237 -0.111310445 -0.095690936 -0.08791117 0.17007497 0.051790096
0.1822161 -0.15846808 -0.19472365 -0.112554274 -0.0928389 0.08416592 0.05573008 0.14748661
-0.09099036 -3.1686493e-05 -6.592449e-08 -8.584647e-11 1.8501587e-06 6.676061e-11 3.966456e-08 -0.20151141
-0.060430713 0.05488051 0.021736767 -0.043438554 0.083059855 0.08271152 -0.12711707 -0.14068772
0.18642607 -0.060504463 -0.05434983 -0.12306844 -0.10946779 0.047201272 -0.0026685486 -0.1445518
0.024965936 -0.101193644 -0.14887537 -0.11167922 -0.20348336 -0.11861893 0.0029629634 7.023983e-12
1.3057769e-10 -0.0016712401 -1.5023235e-05 4.8150754e-11 0.001318756 -0.13632834 -0.11028377 -0.15204361
-0.026272416 -0.05353663 0.0050135627 -0.18845567 -0.16395186 -0.13598289 -0.11566333 -0.1563259
0.15728675 -0.03958805 0.1621178 0.07593351 -0.17725666 0.1432958 -0.030315118 -0.07263995
-0.1678158 -0.16420713 0.027675863 -5.120006e-11 7.762225e-10 -0.0004644672 0.0001284662 -0.0001087276
1.4259328e-11 0.020797111 0.07994133 0.13366015 0.14711474 -0.1644492 0.06329449 -0.06312021
-0.019369494 -0.120863385 0.14945735 -0.12034753 0.08430402 0.05832949 0.058442526 -0.07982246
0.15463267 0.019722007 0.004733664 -0.16301076 0.05599649 -0.048916284 -0.06581137 0.14085813
2.7124532e-11 1.0459738e-07 4.4669837e-09 3.2822096e-13 -9.130053e-08 -7.072288e-11 -0.11988868 -0.071764804
-0.15541092 0.04876714 0.13133839 -0.16613041 0.04473693 0.10809876 0.042959467 -0.08179702
0.10676485 0.09106789 0.081358515 -0.052330285 -0.06649108 0.057667498 0.03246698 -0.038669165
0.12691894 0.17079002 0.022019636 -0.036536437 0.015599622 8.264748e-12 -5.964752e-11 -9.130596e-11
-0.0013153154 -1.437442e-10 0.0006183243 0.073154286 -0.008628298 -0.13804094 -0.13629189 -0.18425046
-0.041973155 0.05227043 0.10944033 0.07669469 -0.17386352 -0.14966887 -0.011285075 0.19154951
-0.005257648 -0.062412914 0.09507972 -0.076227926 -0.097740225 0.14692935 -0.06968642 -0.034130834
-0.18827198 0.11493608 0.00017100153 -5.2816307e-11 -4.7574216e-05 -0.0026807254 -0.00041204033 0.00013686123
0.087492466 0.14502972 0.10965492 0.037642825 -0.008289514 -0.12171946 -0.14145754 -0.1509986
0.057715412 -0.07474132 -0.020161757 -0.08715896 -0.020839242 -0.1090921 -0.10207866 0.040330898
-0.0760829 0.09873217 -0.03844241 -0.15327394 -0.05471616 -0.071650445 -0.06312258 -0.0019947148
00000000: a984 1b3e 23a7 163e d14f 5dbd 8028 0b3e
00000010: 4ebe 96bd 433d 583d f4b7 d7bd 9ce0 1a3e
00000020: 4284 473e 853b 0ebe 97ad 2a3e 100f 893d
00000030: 5073 2c3e c92f fb3b b036 7f3d 43e9 2abd
00000040: 88ca 443e 893c 753d 6cf8 7bbd 1471 9e3d
00000050: d996 3cbd b5fd e4bc 3375 4ebd a493 9b37
00000060: 414c 99b9 e8b1 7eb1 49bb ed2e 34ca b1b5
00000070: a547 77ad de4d 49be b9d1 283e 98f0 31be
00000080: 9cb4 e83d 14f4 273c a24e 92bb 0793 023e
00000090: 4a84 5f3d b08b 343e 4992 0c3d d4d4 1abd
000000a0: 9a9b 603d 1c98 d6bc 2c17 843d 56e9 203e
000000b0: 7e75 ff3d ea0a d0bd 6d38 e73d c60c 263d
000000c0: d75e cb3d 390e eebd 56dd 0cbe 5620 81bd
000000d0: f6d3 53b9 2618 f339 cdf5 05af 0458 82b0
000000e0: bb62 532f e2b5 782b 76b6 243e f70c 0dbe
000000f0: c964 b1bc ebce 16be 2fa9 4d3d 4272 81bd
00000100: dd8d 4f3d 1a4d 88bd 9db8 323e bbf6 e3bd
00000110: 9cf9 c3bd c60a b4bd 2228 2e3e da21 543d
00000120: db96 3a3e 7545 22be a365 47be db82 e6bd
00000130: 5222 bebd 2f5f ac3d 3945 643d bb06 173e
00000140: 2759 babd 1de7 04b8 5f92 8db3 44c7 bcae
00000150: f852 f835 e2ce 922e a55b 2a33 0259 4ebe
00000160: 3286 77bd 63ca 603d 4e11 b23c a0ec 31bd
00000170: 491b aa3d a864 a93d fa2a 02be 7110 10be
00000180: 7ae6 3e3e 87d3 77bd ed9d 5ebd 4e0b fcbd
00000190: a630 e0bd 1f56 413d d1e2 2ebb 6305 14be
000001a0: 5d85 cc3c 9d3e cfbd c972 18be 13b8 e4bd
000001b0: f15d 50be 7bee f2bd 472e 423b 6a22 f72c
000001c0: 5a92 0f2f 830d dbba 4e0c 7cb7 eec4 532e
000001d0: 1cda ac3a a899 0bbe 75dc e1bd 52b1 1bbe
000001e0: 4039 d7bc 3a49 5bbd d048 a43b 86fa 40be
000001f0: ffe2 27be 193f 0bbe e5e0 ecbd e613 20be
00000200: c70f 213e 1427 22bd 3502 263e 0783 9b3d
00000210: c582 35be 22bc 123e 6957 f8bc 41c4 94bd
00000220: e8d7 2bbe ea25 28be 7eb8 e23c 252e 61ae
00000230: cd5d 5530 bb83 f3b9 e2b4 0639 b004 e4b8
00000240: 4eda 7a2d b45e aa3c 48b8 a33d 35de 083e
00000250: 3fa5 163e 5f65 28be 8ba0 813d 2b45 81bd
00000260: c6ac 9ebc 3987 f7bd 590b 193e c478 f6bd
00000270: 96a7 ac3d e7ea 6e3d 6e61 6f3d f579 a3bd
00000280: 0758 1e3e 0c90 a13c da1c 9b3b 4bec 26be
00000290: 935c 653d 715c 48bd 1dc8 86bd 1d3d 103e
000002a0: 0497 ee2d 059f e033 017c 9931 a0c5 b82a
000002b0: ff10 c4b3 7185 9bae 3288 f5bd 6df9 92bd
000002c0: 0a24 1fbe 0dc0 473d 927d 063e 171e 2abe
000002d0: 123e 373d e262 dd3d 44f6 2f3d 3285 a7bd
000002e0: 88a7 da3d cd81 ba3d 4b9f a63d 4858 56bd
000002f0: 7a2c 88bd c134 6c3d 19fc 043d 8f63 1ebd
00000300: 0af7 013e 94e3 2e3e 8662 b43c 3ba7 15bd
00000310: 8f95 7f3c 1e65 112d 922a 83ae b0c8 c8ae
00000320: a966 acba 650c 1eaf 0b17 223a ead1 953d
00000330: b45d 0dbc 9b5a 0dbe 1a90 0bbe 27ac 3cbe
00000340: 0bec 2bbd 8519 563d 4022 e03d 1b12 9d3d
00000350: 4709 32be cc42 19be 09e5 38bc 8e25 443e
00000360: 5948 acbb afa4 7fbd 28b9 c23d 631d 9cbd
00000370: 072c c8bd a674 163e c1b7 8ebd c6cc 0bbd
00000380: 5fca 40be 9c63 eb3d e04e 3339 e049 68ae
00000390: 6d8a 47b8 1caf 2fbb 1e07 d8b9 6882 0f39
000003a0: 402f b33d ac82 143e c292 e03d 5d2f 1a3d
000003b0: bed0 07bc 0d48 f9bd 3fda 10be 619f 1abe
000003c0: ff66 6c3d fa11 99bd 452a a5bc 6680 b2bd
000003d0: 0fb7 aabc ae6b dfbd 9e0e d1bd 0332 253d
000003e0: 5ad1 9bbd 1834 ca3d ca75 1dbd d8f3 1cbe
000003f0: 0d1e 60bd 78bd 92bd 6946 81bd c3b9 02bb

net.0.bias f4 [128]
-0.045886945 0.07234854 0.1765292 0.004980421 0.07364467 -0.009989161 0.038666576 0.15780059
0.075924255 -0.10763747 0.22931111 0.10725893 -0.0076586423 0.20525114 0.04115788 0.17320955
-0.11026392 0.21216784 0.21299861 -0.11777377 -0.13843365 -0.024638433 -0.052843515 0.04401424
0.12099839 -0.014771279 0.12145649 0.04136506 -0.019163221 -0.1128391 0.10533678 -0.18862356
0.0120377205 0.07637221 -0.06686634 0.0989609 0.07812776 0.16187824 0.17150155 -0.14748862
-0.13828996 -0.042437606 -0.0982063 0.096938744 -0.09263987 -0.11163947 0.10101186 0.12153966
-0.05811329 -0.19328427 0.0673104 0.14545055 0.18739904 0.024995094 0.17374805 -0.14317967
0.2196116 -0.13881043 -0.08546723 0.12523326 -0.01261871 0.13915412 -0.09564636 0.18035327
0.21487702 0.08943721 0.19295275 -0.10050182 -0.018100351 0.10104836 0.18476237 -0.056924697
0.16788198 -0.025850113 -0.05513534 0.042576287 -0.13919592 -0.14602867 0.10759452 0.06284657
0.10285492 0.01658584 -0.10569376 -0.10873467 0.23153387 -0.122523025 0.08469103 0.1788704
0.19592142 -0.043230824 -0.011728411 -0.17235664 0.1753635 -0.17962117 -0.14248882 -0.08737044
0.2149111 0.15208861 0.10892526 0.1120491 -0.030972684 -0.06672059 -0.06809757 0.050407566
0.042759787 0.06195486 -0.10993485 0.013631556 -0.06881512 -0.0063976874 0.010334603 0.05915277
-0.17716913 0.17706217 -0.058593433 0.09400928 0.17669137 0.07930246 0.1647759 0.18110965
0.17161801 0.010179874 0.16386603 -0.043557383 -0.058804832 0.14042215 0.08037325 0.02685699
00000000: f3f3 3bbd 792b 943d 12c4 343e cd32 a33b
00000010: 04d3 963d 94a9 23bc d860 1e3d 7a96 213e
00000020: 2d7e 9b3d 0971 dcbd 88d0 6a3e 92aa db3d
00000030: 59f5 fabb 5b2d 523e 2a95 283d d85d 313e
00000040: 0dd2 e1bd 8742 593e 4f1c 5a3e 6033 f1bd
00000050: 8dc1 0dbe 8ad6 c9bc 7172 58bd 4748 343d
00000060: 01ce f73d 3c03 72bc 2ebe f83d 696e 293d
00000070: 30fc 9cbc 3018 e7bd cfba d73d 8926 41be
00000080: dc39 453c 0969 9c3d 38f1 88bd 03ac ca3d
00000090: 7201 a03d 69c3 253e 1a9e 2f3e 4207 17be
000000a0: e29b 0dbe 0ed3 2dbd 6220 c9bd d287 c63d
000000b0: f9b9 bdbd 3ca3 e4bd 4edf ce3d c9e9 f83d
000000c0: 3408 6ebd 50ec 45be 09da 893d fdf0 143e
000000d0: 89e5 3f3e 83c2 cc3c 02eb 313e b19d 12be
000000e0: dde1 603e 5224 0ebe 7109 afbd 263d 003e
000000f0: b5be 4ebc 6b7e 0e3e 3de2 c3bd 87ae 383e
00000100: b908 5c3e db2a b73d 6895 453e e6d3 cdbd
00000110: 3047 94bc 71f2 ce3d 5932 3d3e df29 69bd
00000120: 41e9 2b3e 9ec3 d3bc 98d5 61bd 7964 2e3d
00000130: 6089 0ebe 8a88 15be 845a dc3d b4b5 803d
00000140: 9aa5 d23d 07df 873c f875 d8bd 48b0 debd
00000150: 3717 6d3e 5aed fabd 7e72 ad3d cd29 373e
00000160: a09f 483e ce12 31bd 8528 40bc 427e 30be
00000170: 7d92 333e 9dee 37be 97e8 11be 46ef b2bd
00000180: a811 5c3e 1ebd 1b3e 3514 df3d 007a e53d
00000190: 6dba fdbc cea4 88bd bd76 8bbd 2a78 4e3d
000001a0: e324 2f3d 61c4 7d3d 8625 e1bd e456 5f3c
000001b0: f1ee 8cbd b1a3 d1bb 7752 293c 2d4a 723d
000001c0: d36b 35be c94f 353e abff 6fbd f087 c03d
000001d0: 95ee 343e 5469 a23d 03bb 283e cf74 393e
000001e0: a2bc 2f3e 7cc9 263c 7fcc 273e 3a69 32bd
000001f0: 56dd 70bd d3ca 0f3e bb9a a43d 3103 dc3c

net.2.weight f4 [64, 128]
-0.049767252 0.036267594 0.072270975 0.00838175 0.04200986 0.050787624 -0.08010735 0.009294298
-0.019133925 -0.004785501 0.08619455 0.11729539 0.034785535 0.084157474 -0.045424268 0.048315223
0.014153151 -0.026396284 0.05214266 0.035316695 0.002665595 0.05644147 0.06645711 0.0968042
0.019822266 0.024488283 0.028522667 0.05016273 -0.04385222 0.024060452 -0.046507943 -0.070449464
-0.055409998 0.09026176 -0.030979747 0.0024030895 0.018414332 0.09235825 0.07071853 -0.03983189
0.10909187 -0.0778124 0.034681022 0.10863293 0.1007454 -0.0030239706 -0.04175294 0.065691374
0.070162 -0.03018056 0.001939753 -0.028855557 0.060120378 0.0489721 0.067631535 -0.010073677
-0.051591247 -0.021437088 -0.05679009 -0.0043708 0.05718421 -0.03945693 0.008730972 -0.0579622
-0.035526175 -0.053005572 -0.01656482 -0.032024235 0.050654426 0.07473772 0.11231872 0.06173157
0.03813906 0.00074209995 0.07863257 0.00013455181 0.073540084 -0.09247465 -0.0434372 0.053543884
-0.036010053 0.039795667 0.08825191 0.06883576 0.11784204 -0.034095675 -0.035154544 0.011487891
0.017289067 0.012903291 0.011328981 0.09540069 -0.011931439 0.06824956 0.057549227 0.062214013
0.048205726 -0.0114185875 0.06590188 -0.024601975 -0.027031848 0.10767492 0.08923775 -0.03801061
0.080118656 0.04035785 0.03962332 0.10815346 0.0043193963 -0.0018339063 0.08409566 0.01047492
-0.0007097648 0.011455754 0.09902046 0.07056889 0.010342884 0.020471917 0.026410822 -0.0037394182
0.038959034 -0.047494363 0.024166165 0.005136792 0.0056856987 0.11426834 0.04599441 0.05674622
-0.0732002 -0.004404248 0.009443881 0.029377999 -0.042208232 -0.035957158 -0.09072828 0.037205536
0.040507387 0.023058718 0.02585244 0.03507211 0.064946726 0.012228188 0.014022491 0.013066717
-0.06678431 0.0040232805 0.0098145865 -0.08379228 -0.04030781 -0.06939407 -0.07199151 0.045468774
0.050581004 -0.027457656 0.00952865 -0.038191196 0.0021608772 -0.030994564 -0.06340241 -0.05247209
0.07169767 -0.004045951 -0.06399122 -0.009512997 -0.10248248 -0.014321724 0.04758314 -0.0045152446
0.004911229 -0.10171595 -0.030659351 0.03694292 -0.07934951 -0.056553263 0.03961557 0.009742599
0.023957267 -0.09572761 0.037693087 -0.035559047 0.0017004386 0.05516232 -0.098503314 0.008654259
-0.09736782 0.050251946 0.005803616 -0.006034441 -0.051478848 0.017363986 -0.058170114 -0.00041145703
0.05676256 -0.08340799 -0.04327428 0.0045144823 -0.0033577764 -0.01702792 0.05777831 -0.042038627
0.006616571 0.0318969 -0.034922656 0.039422553 0.038233943 0.018501814 -0.03487893 0.060020447
-0.06973783 0.008850883 0.0018466072 0.04548782 -0.08946053 -0.0033231054 -0.07052574 0.03193473
0.015462483 -0.08513604 -0.021777797 0.008178208 0.020242311 0.05927233 0.025639992 -0.00096193946
0.029688451 -0.09989568 0.042811904 -0.026337283 0.029566498 0.00847256 -0.018259594 0.046279483
-0.067257695 0.010486053 0.018609283 -0.04735405 0.01678136 -0.102902435 -0.061510514 0.026512401
0.030454665 -0.094333306 0.0130331945 -0.01013909 0.07003529 -0.101352006 -0.035587404 -0.06693073
-0.067876734 -0.031289794 -0.096310034 0.053996503 -0.048498865 0.01464508 -0.06719593 -0.015691709
00000000: bfd8 4bbd 548d 143d ce02 943d 9c53 093c
00000010: 8812 2c3d af06 503d 530f a4bd 1c47 183c
00000020: c0be 9cbc b1cf 9cbb c586 b03d 9138 f03d
00000030: 477b 0e3d c15a ac3d cc0e 3abd 2fe6 453d
00000040: 9ee2 673c 053d d8bc 8b93 553d 3da8 103d
00000050: 43b1 2e3b 2c2f 673d aa1a 883d 4841 c63d
00000060: 4e62 a23c a79b c83c 5ea8 e93c 6f77 4d3d
00000070: 639e 33bd 6d1a c53c 1d7f 3ebd cf47 90bd
00000080: 98f5 62bd 28db b83d 3dc9 fdbc 277d 1d3b
00000090: a7d9 963c 5226 bd3d e0d4 903d c426 23bd
000000a0: 8f6b df3d 1c5c 9fbd b00d 0e3d f17a de3d
000000b0: 9b53 ce3d cf2d 46bb 2105 2bbd 3389 863d
000000c0: 18b1 8f3d 393d f7bc 4f3f fe3a 7d62 ecbc
000000d0: c940 763d f896 483d 6782 8a3d 100c 25bc
000000e0: 5851 53bd d59c afbc ba9c 68bd ee38 8fbb
000000f0: fd39 6a3d 979d 21bd 5a0c 0f3c c669 6dbd
00000100: e583 11bd 5f1c 59bd f2b2 87bc d82b 03bd
00000110: 047b 4f3d 1710 993d 5b07 e63d 3eda 7c3d
00000120: b437 1c3d 7c89 423a 1d0a a13d 7a16 0d39
00000130: 2f9c 963d 5963 bdbd 35eb 31bd d550 5b3d
00000140: 477f 13bd c800 233d 6bbd b43d c3f9 8c3d
00000150: 2b57 f13d e8a7 0bbd 36fe 0fbd b537 3c3c
00000160: cda1 8d3c 5368 533c 319d 393c 7061 c33d
00000170: 157c 43bc 6dc6 8b3d bdb8 6b3d 1fd4 7e3d
00000180: 5e73 453d 0715 3bbc 91f7 863d 158a c9bc
00000190: e571 ddbc ab84 dc3d 48c2 b63d 03b1 1bbd
000001a0: 4015 a43d 464e 253d 104c 223d 907f dd3d
000001b0: b989 8d3b af5f f0ba 583a ac3d 009f 2b3c
000001c0: 820f 3aba eab0 3b3c 3dcb ca3d 6c86 903d
000001d0: 3375 293c b9b4 a73c 825b d83c 0711 75bb
000001e0: 8293 1f3d 7389 42bd 1ff8 c53c 8952 a83b
000001f0: 194f ba3b 8505 ea3d a264 3c3d b96e 683d
00000200: fde9 95bd 8351 90bb 82ba 1a3c 21aa f03c
00000210: 8ae2 2cbd d047 13bd c0cf b9bd d564 183d
00000220: 13eb 253d a3e5 bc3c 7fc8 d33c c6a7 0f3d
00000230: ca02 853d bd58 483c 97be 653c c915 563c
00000240: 36c6 88bd b9d5 833b 5ccd 203c 499b abbd
00000250: cd19 25bd 7a1e 8ebd 4970 93bd 773d 3a3d
00000260: 072e 4f3d e1ee e0bc 0e1e 1c3c 5f6e 1cbd
00000270: 819d 0d3b 50e8 fdbc 1fd9 81bd f9ec 56bd
00000280: 3ad6 923d e693 84bb d40d 83bd 67dc 1bbc
00000290: 56e2 d1bd aaa5 6abc 8ae6 423d 9ef4 93bb
000002a0: 60ee a03b 7450 d0bd 5229 fbbc 7651 173d
000002b0: ff81 a2bd 65a4 67bd f043 223d 6c9f 1f3c
000002c0: 0842 c43c d60c c4bd 1164 1a3d 5da6 11bd
000002d0: 40e1 de3a e3f1 613d 1bbc c9bd 98ca 0d3c
000002e0: c868 c7bd fcd4 4d3d 422c be3b 8fbc c5bb
000002f0: 7cdb 52bd eb3e 8e3c c943 6ebd d4b8 d7b9
00000300: dc7f 683d cfd1 aabd 5f40 31bd 39ee 933b
00000310: 240e 5cbb 237e 8bbc f3a8 6c3d b230 2cbd
00000320: d2cf d83b 53a6 023d 0f0b 0fbd 8b79 213d
00000330: 329b 1c3d 1e91 973c 35dd 0ebd 00d8 753d
00000340: b5d2 8ebd 4b03 113c db09 f23a 7051 3a3d
00000350: 1537 b7bd 75c8 59bb cd6f 90bd fecd 023d
00000360: 5b56 7d3c ce5b aebd 5a67 b2bc e4fd 053c
00000370: 34d3 a53c 8bc7 723d f60a d23c aa2a 7cba
00000380: 3235 f33c 1b96 ccbd 895b 2f3d 49c1 d7bc
00000390: 7135 f23c 7ed0 0a3c 2595 95bc 8e8f 3d3d
000003a0: 67be 89bd b2cd 2b3c 7f72 983c 52f6 41bd
000003b0: 1079 893c 83be d2bd 73f2 7bbd 8930 d93c
000003c0: 107c f93c d231 c1bd 2e89 553c 6d1e 26bc
000003d0: aa6e 8f3d a491 cfbd 19c4 11bd fb12 89bd
000003e0: f502 8bbd ba29 00bd 323e c5bd 702b 5d3d
000003f0: bfa6 46bd ebf1 6f3c 059e 89bd e68b 80bc

net.2.bias f4 [64]
0.11308301 -0.044701222 -0.04862667 -0.023266787 0.045087796 0.068380855 0.05036104 0.07557116
-0.10024003 -0.05370731 0.023918202 -0.021392327 -0.07138278 0.042038254 -0.03404613 0.048344113
-0.0055482914 0.026092144 -0.011375444 -0.008631713 0.11135589 -0.005492885 0.12101742 -0.033882428
-0.04798941 -0.030670725 0.05653163 0.02521903 0.03834599 0.11934943 -0.019688444 -0.026481645
0.06350992 0.01936592 0.039703008 0.076306246 0.06427668 -0.07166595 0.012397164 0.11329331
0.017494574 -0.03905786 0.013371114 0.01815145 -0.024802476 0.0013211805 0.042534538 0.06805235
0.06701878 0.020291094 0.045758784 -0.03822084 0.030578157 0.04272547 -0.070362166 0.11980444
0.0010115779 -0.04083745 -0.054161776 -0.033981275 -0.08872852 0.090652175 -0.0019464181 -0.062430795
00000000: 1198 e73d a118 37bd c22c 47bd fd99 bebc
00000010: fbad 383d 430b 8c3d 6147 4e3d 0dc5 9a3d
00000020: a54a cdbd 32fc 5bbd 1bf0 c33c f63e afbc
00000030: 2331 92bd 4e30 2c3d f473 0bbd 7a04 463d
00000040: 71ce b5bb 31bf d53c 1260 3abc 076c 0dbc
00000050: 8f0e e43d a9fd b3bb fbd7 f73d 4dc8 0abd
00000060: 8b90 44bd 2c41 fbbc b68d 673d 2498 ce3c
00000070: af10 1d3d 796d f43d a949 a1bc 09f0 d8bc
00000080: 7d11 823d 47a5 9e3c 9f9f 223d 7346 9c3d
00000090: 7ea3 833d 99c5 92bd 791d 4b3c 5306 e83d
000000a0: c850 8f3c 22fb 1fbd 8412 5b3c 5ab2 943c
000000b0: 902e cbbc 762b ad3a b238 2e3d 085f 8b3d
000000c0: 2441 893d 8239 a63c 906d 3b3d 758d 1cbd
000000d0: 0b7f fa3c e700 2f3d 0a1a 90bd 085c f53d
000000e0: ec96 843a 2c45 27bd bdd8 5dbd f32f 0bbd
000000f0: 4cb7 b5bd d9a7 b93d f41e ffba 6fb7 7fbd

head.weight f4 [1, 64]
0.039153986 -0.09199442 0.05762525 0.013081412 0.0006013629 0.040213626 -0.03913215 0.109947324
-0.078376 0.018594922 0.1276601 0.047006156 -0.07863724 0.14850922 -0.058545854 -0.03447879
0.092665724 -0.062130123 0.01618335 0.06752368 0.09357572 -0.062178355 0.14298734 0.10442678
-0.03460539 0.023473885 -0.031828746 -0.04823568 0.13234861 0.11864107 0.046387848 0.12538554
-0.1047367 0.035026576 -0.046620466 0.09349748 0.033313047 -0.083940744 0.025692007 0.07821847
-0.022889487 0.004885298 -0.07586146 0.13315375 -0.10576116 -0.061284255 -0.08121226 -0.041484807
-0.0556956 0.06636075 0.12412433 0.0264255 0.049764782 0.11784312 -0.1107669 0.036592837
0.08116781 0.037068818 -0.03985023 -0.025293939 -0.051549885 0.14872074 -0.0413242 -0.0121274
00000000: ee5f 203d 9267 bcbd 7408 6c3d 6b53 563c
00000010: c8a4 1d3a 0bb7 243d 0949 20bd 102c e13d
00000020: 9983 a0bd 6154 983c 54b9 023e 8789 403d
00000030: 900c a1bd cd12 183e c7cd 6fbd a239 0dbd
00000040: 87c7 bd3d 287c 7ebd f292 843c db49 8a3d
00000050: a1a4 bf3d bbae 7ebd 466b 123e b5dd d53d
00000060: 62be 0dbd 4e4c c03c dc5e 02bd c792 45bd
00000070: 6586 073e 17fa f23d 2f01 3e3d 1165 003e
00000080: 3280 d6bd 0778 0f3d 1af5 3ebd 9b7b bf3d
00000090: 4373 083d 20e9 abbd 0b78 d23c 0131 a03d
000000a0: bc82 bbbc da14 a03b 415d 9bbd 7559 083e
000000b0: 4f99 d8bd 3305 7bbd 9d52 a6bd f9eb 29bd
000000c0: 1221 64bd 25e8 873d e634 fe3d 4a7a d83c
000000d0: 28d6 4b3d bc57 f13d c2d9 e2bd 5fe2 153d
000000e0: 4f3b a63d 79d5 173d ff39 23bd 3c35 cfbc
000000f0: f925 53bd 404a 183e 9043 29bd 01b2 46bc
