artifacts/model_exp-10_bottleneck_20251104T051228Z.pt (torch, 35553 bytes, 5 tensors)

net.0.weight f4 [128, 29]
00000000: aa76 313e 13eb 1c3e 7312 c4bd f63a e03d
00000010: f8a4 a1bd a0a6 e33c cfb7 ddbd b735 1a3e
00000020: 1668 633e 3b1f 27be e79c 563e db6f 403d
00000030: ae0d 473e a8a5 efbb 1b17 673d feac 94bc
00000040: e389 4f3e 9030 d33d 84f8 4bbd 3609 bd3d
00000050: a71e 2bbd 4d43 fabc ccf3 abbc 5d48 fc3d
00000060: b019 16be f852 afbd cac6 56bd 96aa e4bd
00000070: bf93 8f3c 3544 7abe df11 173e 7dce 5abe
00000080: 9329 873d b116 01bd 3b77 1fbc 60b2 023e
00000090: 4583 5f3d 165a 0f3e 76aa 8e3d 88bb 32bd
000000a0: 6788 353d 510a 26bc 1a9f 063d 591b 273e
000000b0: 94f4 253e d8c3 19bd 7582 cf3d 76a5 e13c
000000c0: b6d9 b03d 214f afbd cbf6 16be 6c26 b9bd
000000d0: d8d9 11be f206 1c3e 3714 5b3d ef86 9d3d
000000e0: 028d 703d 4cb4 53bb d853 f43d c00c 0dbe
000000f0: c123 26bd e5c4 24be e354 143d 16d0 42bd
00000100: 929c 323d e7d5 2abd 34b1 213e ed77 cbbd
00000110: 4ee9 8ebd ec4c bbbd 9013 4b3e e9f9 123d
00000120: 3245 513e c324 31be d1f9 67be 0bf0 07be
00000130: a842 b1bd 6b30 913d e318 f23c f708 263e
00000140: 2554 e6bd fea0 01be f0c7 c93d 79b8 99bd
00000150: cad0 e63d 277e 34bd 278d d93d 80f8 53be
00000160: 20e4 c8bd 20ea cf3c 3a04 ceba 806e 96bd
00000170: bcf0 c33d f957 ce3d d065 ddbd dbe7 26be
00000180: b2e5 5b3e 1275 92bd c595 5bbd 583b 02be
00000190: 807c 05be 2a90 813d dd67 b4bb 873d 2cbe
000001a0: 03fc c4b8 0543 febd b1a4 28be 5cbf f5bd
000001b0: aa50 3ebe 970d 12be e113 3e3e eaa8 0f3d
000001c0: 8663 6a3d 105a 31be 14c6 f9bd 3f2c 7dbd
000001d0: 0fbd cfbc 17d6 1dbe 28fe fcbd 0806 23be
000001e0: 4ae1 f9bc 2576 b4bd dd48 e1bb c8b9 3bbe
000001f0: 64a9 29be 7ec4 10be 5c6e f4bd 3b8a 21be
00000200: 5332 333e 2d83 2ebd d99f 373e 253a a73d
00000210: c7f3 41be fb94 123e 35a5 98bc df44 97bd
00000220: 2175 35be cb2e 43be 43a2 d43c 7226 26bd
00000230: a80f 943d 020d 1cbe a62c 0d3e f194 0bbe
00000240: 3556 03bd 96e0 7a3c a7fa d73d 7c97 d13d
00000250: 3302 b63d 3609 50be 05b2 123d f9ae c6bd
00000260: 0809 c23c 9302 61be d4b5 653e a623 d6bd
00000270: f0e3 173e 92ef 733d cd17 4d3d 342b dcbd
00000280: 3881 133e 47b6 a73d e927 433d f08f dfbd
00000290: 61ba 5d3d 5005 d3bc 54a3 d3bd 2509 1f3e
000002a0: a093 293d cb69 d2bd 977c c0bd 264b 11bc
000002b0: d958 d43d 705c 42bd e77d c8bd d24d 33bd
000002c0: ed9c 21be f0cb 3a3c f802 d53d 6c50 13be
000002d0: 45b6 623d 0466 cf3d 9685 683d 693d d2bd
000002e0: d908 1c3e 92aa b53d cdce d03d f82b f9bc
000002f0: d5d6 6dbd cf51 1fba bb7a 2dbc 11bb 03bd
00000300: 3930 283e ba2c 143e 7c75 1abd 720e 8bbc
00000310: 34f1 e83c 85a8 35bc d8db 363d e125 553d
00000320: f5b4 2cbe b758 8cbd f421 203e b632 bd3d
00000330: 5d9c 25bd 03a2 11be e258 ecbd f3d7 27be
00000340: 1e49 9ebc 08ab b03d 2cfc 293e e66a bf3d
00000350: d7d6 05be 6a47 cbbd 5323 2ebc 50b3 fb3d
00000360: 5485 1fbb 66d2 ddbd 0932 673d e83a 5f3b
00000370: 9719 29bd 9f77 253e 30f8 dbbc a0c9 f03c
00000380: 7e44 19be 745f 243e d610 103e e399 8a3d
00000390: 8e96 04be 2bab 3bbe fe6f 1abe e1cb 0d3e
000003a0: 8355 9a3d 20ec 013e b133 eb3d b24e 9c3c
000003b0: fed3 86bc fbba d9bd 1715 f8bd 66e3 3cbe
000003c0: b8a2 983d df2b b9bd 449b 08bc 7600 93bd
000003d0: 11b6 74bb 7d4d c4bd 30f0 eabd f7b7 cd3c
000003e0: 4322 a1bd 333c e53d fbe8 68bc c1c4 20be
000003f0: b81e 75bd 4a5b 59bd 5835 4fbd 1e06 35be
0.17330423 0.15324049 -0.095738314 0.10948746 -0.078927934 0.027789414 -0.10826074 0.15059553
0.22207674 -0.16320507 0.20958291 0.046981674 0.19438812 -0.007313449 0.05641852 -0.018148895
0.20267443 0.10311997 -0.04979755 0.092302725 -0.04177728 -0.03054967 -0.020990275 0.1231849
-0.14658237 -0.08560747 -0.052435674 -0.11165349 0.017526506 -0.24440081 0.14752911 -0.21367832
0.065997265 -0.03151578 -0.009733017 0.12763357 0.054568548 0.13999209 0.069661066 -0.043635875
0.044319537 -0.010134296 0.032866575 0.16319026 0.1620658 -0.037540287 0.101323046 0.027544718
0.08635275 -0.085600145 -0.14742582 -0.090405315 -0.14243257 0.15237024 0.053486075 0.07691752
0.058728226 -0.003230351 0.119300544 -0.13774395 -0.04056144 -0.16090734 0.036213767 -0.047561727
0.04360635 -0.0417079 0.15790254 -0.099349834 -0.06978093 -0.09145531 0.19831681 0.035882864
0.20436552 -0.1729918 -0.22653891 -0.13275163 -0.08655292 0.07089313 0.029552883 0.16214357
-0.11246518 -0.1265907 0.09852588 -0.075058885 0.11270292 -0.04406562 0.10622626 -0.20700264
-0.098091364 0.025380194 -0.0015717812 -0.07345295 0.09567401 0.10075373 -0.10810435 -0.16299383
0.2147434 -0.07151236 -0.05360963 -0.1271795 -0.13035774 0.06326325 -0.0055055455 -0.16820346
-9.392949e-05 -0.12415127 -0.16469075 -0.119993895 -0.18585458 -0.14262997 0.1856227 0.0350732
0.05722382 -0.17319512 -0.121959835 -0.061809774 -0.025358705 -0.154137 -0.12353164 -0.1592027
-0.030502934 -0.08811597 -0.006875141 -0.18332589 -0.16568524 -0.14137456 -0.11935112 -0.15775387
0.17499666 -0.042605568 0.17932071 0.08165387 -0.1894065 0.14314644 -0.018633464 -0.07386183
-0.17720462 -0.19060819 0.025956279 -0.040564008 0.07229549 -0.15239337 0.13786563 -0.13631035
-0.032064635 0.0153123345 0.10545855 0.102339715 0.08887138 -0.20316014 0.035814304 -0.09701342
0.023685947 -0.21973638 0.22432643 -0.10456018 0.14833045 0.059554644 0.050071526 -0.10750428
0.14404762 0.081890635 0.047645483 -0.10916126 0.054132823 -0.02575937 -0.10333887 0.15530832
0.04140055 -0.10274085 -0.093987636 -0.008868014 0.10368509 -0.047451437 -0.09789639 -0.043775387
-0.15782519 0.011401162 0.10400957 -0.14386147 0.055349607 0.1012688 0.056768022 -0.10265619
0.1523775 0.08870424 0.10195694 -0.030416474 -0.058066208 -0.0006077559 -0.010588343 -0.032160822
0.16424645 0.14470187 -0.037709698 -0.016974661 0.028435327 -0.0110875415 0.044643253 0.052038077
-0.16865905 -0.068528585 0.15637952 0.09238188 -0.040432323 -0.14221959 -0.115403906 -0.16390972
-0.019321974 0.086263716 0.16600102 0.09346561 -0.13070236 -0.099257305 -0.010628539 0.122900605
-0.0024340944 -0.10831146 0.0564442 0.003406221 -0.04128417 0.16158913 -0.026851743 0.029393017
-0.14967534 0.16052037 0.14068922 0.06767633 -0.12948057 -0.18327014 -0.15081784 0.13847305
0.07535841 0.12687731 0.11484469 0.019080494 -0.016458508 -0.10631367 -0.121133976 -0.1844612
0.07452911 -0.09041571 -0.008337799 -0.07177822 -0.0037339965 -0.09585092 -0.114715934 0.025112135
-0.07867863 0.11193123 -0.014215703 -0.15700056 -0.05984375 -0.053065576 -0.050587982 -0.17678115

net.0.bias f4 [128]
00000000: a142 31bc 29b2 ba3d 5dda 3a3e 5be7 073d
00000010: 620e b73d 121b 273d 0f75 793d 1b19 e73d
00000020: 89c1 993d db7b 93bd e5f2 7c3e 62ce cd3d
00000030: 9d4c 2f3c 733a 613e 735b 7d3d 1989 423e
00000040: 6041 c3bd 97db 663e 654c 6b3e c356 23be
00000050: ed1e 34be 3937 a2bd c9fa 40bd a45d d43d
00000060: cb44 953d 8be2 3abc 6470 463e 6847 cfba
00000070: 72e2 1ebb 31a9 4ebd 547b e73d b842 4bbe
00000080: f15e 4c3d 41e5 af3d 1f48 ecbd 64b5 d23d
00000090: 8d07 993d a5f9 373e f329 353e f35f 07be
000000a0: f7ae b1bd 626f c7bc bc7f adbd 77e9 013e
000000b0: a916 8abd a047 ccbd ddab be3d ff72 373e
000000c0: 34fc 4cbc a86f eebd 2a5d 9f3d 293d 2e3e
000000d0: 24d5 1a3e ddc7 91bc 8756 423e ae0d 32be
000000e0: f5be 6f3e 76cf adbd 111b 87bd 9431 403e
000000f0: 754b 403c 72dc 1c3e ad1b 8fbd def5 3c3e
00000100: 3da9 5e3e 68c7 ef3d db00 4a3e e267 98bd
00000110: 6f97 9d3c 2b1d dc3d 194e 1a3e 2b39 0ebd
00000120: cb18 373e f3a1 1ebc 2af9 0bbe 88e8 d13d
00000130: a790 30be 7489 09be 94d4 e63d 206a e73d
00000140: 6299 043e 5748 d4bb a427 b7bd b797 c5bd
00000150: 9068 353e 6415 f7bd 7171 de3d dbd1 1d3e
00000160: bcda 413e 175b afbd 0973 ac3c 11ce 1bbe
00000170: 4e15 2b3e 19d3 02be fe38 f7bd 9acc 99bd
00000180: 21d1 4d3e 92cb 263e 4e0a 263e c9dc 373e
00000190: d383 a0bc 974d 91bd 57f6 7bbd 0d86 593d
000001a0: 8936 753d e64f f93c 6245 b1bd 0734 8c3d
000001b0: ad35 5bbd 09e7 f6bc b193 063d 5538 903d
000001c0: 6107 0abe 1fd6 7e3e b896 32bd 9ba2 d63d
000001d0: 62c3 423e c4a8 da3d 11d4 2b3e 5adc 443e
000001e0: 7c49 3f3e 923a 633d 2083 3e3e 8621 d3bc
000001f0: 053a 42bd 4af5 0f3e c19d c23d 9e1b 0c3d
-0.010819108 0.091160126 0.18247361 0.033179622 0.0893829 0.0407973 0.06090265 0.11284085
0.07507617 -0.07201358 0.24702032 0.1004913 0.010699418 0.21994953 0.06185479 0.18997611
-0.09533954 0.22544704 0.22978361 -0.15951066 -0.17589922 -0.07920689 -0.047114167 0.10369423
0.07288512 -0.011406551 0.19378811 -0.0015814127 -0.0024243859 -0.050454322 0.1130282 -0.1984967
0.04989523 0.085886486 -0.115371935 0.10288504 0.07472143 0.17966326 0.17691784 -0.13220195
-0.0867595 -0.024345104 -0.08471629 0.12686716 -0.06742603 -0.09974599 0.09310124 0.17914961
-0.012511302 -0.116423905 0.077814415 0.17015518 0.15120369 -0.017795498 0.1897832 -0.17388031
0.23412688 -0.08486836 -0.065969594 0.18768913 0.01173674 0.15318468 -0.069877006 0.18453166
0.21744247 0.117079556 0.19726889 -0.07441689 0.019237248 0.10747751 0.15068854 -0.03472249
0.17880552 -0.009682166 -0.13669267 0.1024943 -0.1724268 -0.1343134 0.11271015 0.112995386
0.12949136 -0.00647835 -0.08943108 -0.09648078 0.17715669 -0.12064627 0.10861481 0.15412085
0.18931097 -0.08562296 0.021050947 -0.15215327 0.16707346 -0.1277584 -0.12071417 -0.07509728
0.20099308 0.16288593 0.16214868 0.17955317 -0.019594109 -0.07094877 -0.061514225 0.053106356
0.059866462 0.030433606 -0.08655812 0.06845861 -0.053517986 -0.030139463 0.032855693 0.070419945
-0.13479377 0.24886368 -0.043600768 0.10480233 0.19019845 0.10676721 0.16780116 0.19224682
0.18680376 0.05547578 0.18604708 -0.025772821 -0.047418613 0.14058414 0.095027454 0.034206025

net.2.weight f4 [32, 128]
00000000: eaf9 bebd d65a 493c f0e1 1b3d 5e78 cebc
00000010: 66b9 5e3b 5246 d33c 77af d4bd e9fb 03bd
00000020: 825f 4abd 0e85 75bd cdac 173d f084 903d
00000030: bfa0 0bbb f89f 153d 363f acbd ad5d 0dbb
00000040: 887e e9bc df16 8dbd 8495 9b39 a6c7 533c
00000050: ef45 aabc d6fa c33c 8301 b83c 85a7 7d3d
00000060: 077b 37bc f302 5cbc 6bd3 9ebc c07c 77bb
00000070: 2653 93bd 4596 f1bc f755 bebd 5176 a1bd
00000080: dc35 bbbd 4c84 463d 51c0 8dbd a0ec afbc
00000090: 83eb 01bc c36e 753d 97e2 c03c f90b a1bd
000000a0: 524a 913d 862e ccbd 2711 c1bb 2859 813d
000000b0: 1b4e 803d 03b6 0fbd f419 97bd 602b a33c
000000c0: c5e1 4e3d 2359 77bd 1689 ffbc 113a 91bd
000000d0: 7461 8b3c 2148 1d3b 7714 d23c 4a0f 39bd
000000e0: d7b4 d1bd ddf6 53bd a78d a9bd f65d 13bd
000000f0: d4fa 8f3c 9a0d bcbd 62f3 a4bc a429 d4bd
00000100: 2a7e 9dbd 4c19 a3bd a192 40bd 8b5f 81bd
00000110: c292 fbba 4a08 1f3d 8949 4e3d 4daf 5f3c
00000120: fa30 9bbc eb98 06bd 91a2 333d ca74 86bd
00000130: 930d 523d c5ae c7bd cafd a4bd dcbf c43b
00000140: 35d5 54bd 7297 943a bc7c 763d 5362 ae3c
00000150: 6be0 8c3d fb92 5fbd bf4a 70bd dd0b e9bc
00000160: c602 0dbd 4bb4 62bd 8020 b8bc 628f 873d
00000170: 3453 88bd eba2 0d3d aa88 be3c 6182 043d
00000180: 9617 d23b 4392 3dbd bfc6 b63c 1f30 70bd
00000190: 7cad 8cbd af61 863d 7194 5b3d 1fdc a2bd
000001a0: 734f 603d 2ca0 f43a 3e9f ac3b 84be 893d
000001b0: 21c0 b8bc 8b38 2ebd 5b29 193d 7263 27bd
000001c0: b1f2 1ebd 254c 5cbd 84f3 903d 900c d13c
000001d0: dcb1 02bd f0a8 9ebc 908e 47bc 80e3 90bd
000001e0: a662 d23b 5425 b0bd 8092 b9bc 2c6c 11bd
000001f0: 736c 61bd b1c8 883d 1ecb fb3b 67fe c73c
00000200: 1ddc 98bd a620 91bb 1586 163c 44f5 f13c
00000210: b6ae 2bbd e44c 18bd 4483 babd 42e2 1a3d
00000220: a241 253d 3d93 bb3c 17f3 d93c 4cc6 0a3d
00000230: 42bf 843d 6556 533c 0cdf 4a3c 023a 533c
00000240: 4e2b 87bd 26c0 1b3b 770f 1e3c f8d6 a6bd
00000250: 6d68 22bd 57f8 8abd 9a64 94bd ae52 3d3d
00000260: 4120 4f3d 5084 d7bc f8d7 193c 0f82 1abd
00000270: a95e 413b f6a6 ffbc 4e0f 82bd c330 5bbd
00000280: 76ed 933d 090c 5bbb b104 84bd d5d0 0ebc
00000290: 96b6 d2bd 5097 6abc 3e6b 433d 697d 65bb
000002a0: 06bf 9e3b b95f d3bd e060 f9bc f394 193d
000002b0: 3ee6 a3bd e605 63bd 263f 263d 8daa 263c
000002c0: 11e5 af3c 7d15 c5bd f8ef 163d 0058 10bd
000002d0: 3419 fa3a d312 633d 07fa cbbd dc7b 263c
000002e0: 3196 c6bd d030 4e3d 21dc b83b a2ed b8bb
000002f0: 85b6 52bd 8336 8d3c 78df 6fbd 219a beba
00000300: 3895 693d 05e9 aebd d413 33bd 7f90 913b
00000310: e1f8 90bb 2305 86bc 0136 723d bf30 2fbd
00000320: 84a8 a83b ab85 043d b9b5 0fbd bdd2 233d
00000330: 5771 1e3d 159a 983c cb08 0cbd 12f6 713d
00000340: 89cb 8fbd e7c7 1d3c fa8a 023b 2ff7 3a3d
00000350: 9e61 b5bd 2c6f 89bb 0aa7 90bd 6380 033d
00000360: ab79 783c 1236 aebd 2bfd a4bc 0e65 c73b
00000370: 7054 9e3c 45c2 723d 7c47 e43c 3bc8 253a
00000380: 0871 f43c 0c97 cabd d546 343d 9506 d1bc
00000390: f6d0 ed3c 3551 1e3c 934d 96bc 5e3e 423d
000003a0: 5ab6 87bd d74d 353c 204c 913c 26e6 40bd
000003b0: c158 8a3c 85fe d3bd 1c60 78bd f095 d13c
000003c0: b661 fb3c bfdb c3bd d0b5 3f3c 7413 21bc
000003d0: 16bc 8e3d 40e6 cfbd 6c10 0ebd 8c48 8dbd
000003e0: 93f2 8abd 05e9 04bd 6997 c8bd 9429 5d3d
000003f0: 0098 45bd 8938 723c a75c 8abd afab 8bbc
-0.09325011 0.012289723 0.038057268 -0.02520388 0.0033985018 0.025790367 -0.1038503 -0.032222662
-0.04940749 -0.059941344 0.03703003 0.07056606 -0.002130553 0.03652951 -0.08410494 -0.0021570728
-0.028502718 -0.06889128 0.00029675302 0.012926018 -0.0207853 0.023923319 0.022461658 0.061927337
-0.011198766 -0.0134284375 -0.019387921 -0.0037763566 -0.07193594 -0.0294906 -0.0929374 -0.07883895
-0.09141132 0.048466012 -0.06921447 -0.021475136 -0.0079296855 0.059920084 0.023545546 -0.07863612
0.070942536 -0.09969811 -0.0058919373 0.06315833 0.062648974 -0.03508569 -0.07377997 0.019918144
0.05050828 -0.06038774 -0.031193297 -0.070911534 0.017014243 0.002399929 0.025644524 -0.045180596
-0.102395706 -0.0517491 -0.08278971 -0.03597828 0.017575659 -0.09182282 -0.020135585 -0.10359505
-0.076900795 -0.07963809 -0.047014836 -0.063170515 -0.0019193518 0.038826264 0.050363097 0.013652635
-0.018944252 -0.032860678 0.043856207 -0.065652445 0.051282477 -0.097501315 -0.08056219 0.0060043167
-0.051961143 0.0011336638 0.06017755 0.021287119 0.06878742 -0.05458353 -0.058665033 -0.02844804
-0.034426473 -0.055347722 -0.022476435 0.06619145 -0.06656495 0.0345792 0.023258526 0.0323509
0.006411503 -0.046282064 0.022311566 -0.05863964 -0.06869027 0.065616004 0.05360836 -0.07952141
0.05476327 0.0018663458 0.0052680066 0.06725791 -0.022552552 -0.042534392 0.037392955 -0.040866323
-0.038805667 -0.053783555 0.07077697 0.025518686 -0.0319079 -0.019367665 -0.012179986 -0.07074642
0.006420451 -0.0860087 -0.022652864 -0.03550355 -0.055035066 0.06678904 0.0076841256 0.0244133
-0.07463858 -0.004428941 0.009187241 0.029535897 -0.041914664 -0.037182704 -0.09107068 0.037813433
0.040345795 0.022897357 0.026605172 0.033880517 0.06481792 0.012899016 0.01238228 0.012892248
-0.066000566 0.0023765652 0.009647242 -0.08146471 -0.03965037 -0.06785648 -0.07245751 0.046221428
0.05056787 -0.026308209 0.00938987 -0.03772169 0.0029505885 -0.031207543 -0.063505754 -0.0535133
0.072230265 -0.0033423922 -0.06446207 -0.008716782 -0.10288732 -0.014318302 0.047709696 -0.0035017377
0.004844549 -0.10320992 -0.030441701 0.037495565 -0.080028996 -0.055425547 0.040587567 0.010172498
0.021471532 -0.09623239 0.036849946 -0.035240173 0.0019080997 0.055437874 -0.09959798 0.010161366
-0.096966155 0.05033952 0.005641476 -0.0056435624 -0.051443595 0.017237907 -0.058562726 -0.0014541784
0.05702707 -0.08540539 -0.04372008 0.004442274 -0.0044242 -0.016359871 0.059133533 -0.042771097
0.0051470418 0.03235404 -0.035085414 0.039995898 0.038682308 0.01862816 -0.034188073 0.05907256
-0.07021243 0.00963018 0.0019919262 0.04564589 -0.088565096 -0.004194161 -0.0706311 0.03210486
0.015165727 -0.08506407 -0.020140251 0.0060850447 0.019327372 0.0592673 0.027866118 0.0006324087
0.029839054 -0.09892091 0.044012863 -0.025515834 0.029030304 0.009662916 -0.018347537 0.04742276
-0.06626578 0.011065922 0.017736495 -0.047094487 0.016888024 -0.1035128 -0.060638532 0.025584191
0.03068624 -0.095633976 0.011701062 -0.009831298 0.06969468 -0.101513386 -0.03468363 -0.06898603
-0.067845486 -0.032448787 -0.09794504 0.05399473 -0.04824066 0.014783987 -0.06755953 -0.017049639

net.2.bias f4 [32]
00000000: 831a 513b a7a4 8bbd 91b3 0b3d 55ae 773d
00000010: b6df 3fbd 6e46 c73b 609b 52bd b525 d93d
00000020: 1c8f b9bc 9132 c7bd 9cfd 863d 4d6d 023e
00000030: 28b5 7cbc 3721 d93c 12e4 9abc 53e0 c23d
00000040: d0aa 063e a3ee 0c3d a7bb 173d 35d7 c23d
00000050: ba8f 743d e6a5 3a3d 64cf babd 44ff adbd
00000060: 8a3a a7bc 8428 263d 7a25 68bd 4a4c cf3d
00000070: dffd 123d 93c3 da3c 66de 6d3d 27ab f6bc
0.0031906671 -0.06818514 0.034106795 0.06046899 -0.046844207 0.006081394 -0.05141771 0.10602895
-0.022651248 -0.09726442 0.06591341 0.12737007 -0.01542405 0.026505096 -0.01890758 0.09515443
0.13151097 0.03440727 0.037044194 0.09513704 0.05970738 0.04556837 -0.09121588 -0.08495954
-0.020413656 0.040565982 -0.056676365 0.10121973 0.03588664 0.026704585 0.058073424 -0.030110909

head.weight f4 [1, 32]
00000000: 101a a5bd 3976 26bc 83ba c0bd 16e1 1dbe
00000010: 5f9e b4bc e28c fb3b d7f9 adbd 899e 4b3e
00000020: 02a3 cbbc 4a5f f0bc 47d7 393e 8281 7a3d
00000030: 4175 e7bc 5bed a83d 5721 15be 4b63 5b3e
00000040: 4217 c33d 5b1a d13d 6313 f6bd c12d 353e
00000050: c16d 03be ce0a 39bd affe c6bd 810b 9fbd
00000060: 3929 a33d 250a 27be c583 26be 446a a93d
00000070: 4bb4 cd3d adce 363d b297 75bd 03d3 1abd
-0.08061612 -0.010160022 -0.09410574 -0.15417895 -0.022048173 0.0076767066 -0.08494919 0.19884695
-0.024858002 -0.029342312 0.18148528 0.061158665 -0.028254153 0.08248397 -0.145635 0.21424596
0.095259205 0.10210105 -0.120154165 0.17693235 -0.12834837 -0.04517632 -0.09716546 -0.07765866
0.07966847 -0.16312464 -0.16261204 0.08272222 0.10044154 0.044630695 -0.05995912 -0.037798893
