artifacts/model_exp-09_smaller_20251104T051228Z.pt (torch, 19645 bytes, 5 tensors)

net.0.weight f4 [64, 29]
0.19893438 0.068778 -0.07305044 0.1287226 -0.08262237 0.0981286 -0.1382983 0.0334125
0.2247202 -0.16297628 0.23432185 0.059744675 0.19277956 0.020840462 0.032474656 -0.11379997
0.114553824 0.088553086 -0.015768671 0.06944775 -0.07618427 -0.013627867 -0.019361198 0.1231849
-0.14658237 -0.08560747 -0.052435674 -0.11165349 0.017526506 -0.23435962 0.14149281 -0.22143473
0.1018947 -0.004850501 -0.06936253 0.103022926 0.046581317 0.1897894 -0.008940073 -0.0847981
-0.014771549 -0.019897768 0.03893301 0.17039378 0.17397773 -0.0714825 0.10678169 0.014070964
0.09490803 -0.088082895 -0.19840328 -0.07823869 -0.14243257 0.15237024 0.053486075 0.07691752
0.058728226 -0.003230351 0.13861607 -0.086208485 0.01875159 -0.09919716 0.09512653 -0.10109795
0.027682599 -0.0009257115 0.14156216 -0.10654584 -0.05543223 -0.09938252 0.14348884 0.06899204
0.15969096 -0.1383353 -0.17084965 -0.09404614 -0.09320613 0.112325504 0.08843161 0.12218358
-0.057027213 -0.1265907 0.09852588 -0.075058885 0.11270292 -0.04406562 0.10622626 -0.15618512
-0.10731404 0.06588267 0.032737266 -0.030563995 0.12334159 0.12814932 -0.1510454 -0.082285024
0.1326662 -0.07212301 -0.031742632 -0.11571559 -0.105739854 0.01945677 -0.025536004 -0.13254087
0.050048422 -0.08563403 -0.124379985 -0.092064485 -0.15510161 -0.088857695 0.1856227 0.0350732
0.05722382 -0.17319512 -0.121959835 -0.061809774 -0.018212376 -0.14226429 -0.11581208 -0.13972008
-0.007796057 -0.04379785 0.020648094 -0.17753695 -0.19438206 -0.16846642 -0.09006255 -0.120421395
0.18557948 -0.034284458 0.1530321 0.05790097 -0.21950907 0.17259543 0.0067932443 -0.045002088
-0.1751186 -0.15013675 0.0538168 -0.040564008 0.07229549 -0.15239337 0.13786563 -0.13631035
-0.032064635 0.030636922 0.13141532 0.12747452 0.14050415 -0.16938321 0.042407356 -0.10103778
0.052074637 -0.19821797 0.22254708 -0.14057985 0.16445416 0.08999339 0.0333577 -0.15136075
0.17992249 0.11503097 0.06515601 -0.11736565 0.10647215 0.020371692 -0.111494064 0.20531254
0.04140055 -0.10274085 -0.093987636 -0.008868014 0.10368509 -0.047451437 -0.05800737 -0.08895961
-0.15233329 0.02872873 0.12155806 -0.14053187 0.029467605 0.07884383 0.073534794 -0.10331786
0.1889335 0.10999341 0.13954554 -0.03152303 -0.09008379 -0.017174525 0.0048263506 -0.011964045
0.16678296 0.18281144 0.0072848946 -0.026109947 0.042370982 -0.0110875415 0.044643253 0.052038077
-0.16865905 -0.068528585 0.15637952 0.050847493 -0.03349224 -0.15016712 -0.15019059 -0.19432797
-0.058660075 0.0588192 0.16486199 0.02040457 -0.19631375 -0.14834028 -0.00033971996 0.2268614
-0.011390151 -0.08638091 0.0673637 -0.066862494 -0.07300976 0.16892068 -0.04624984 -0.009124996
-0.18844366 0.12432294 0.14068922 0.06767633 -0.12948057 -0.18327014 -0.15081784 0.13847305
0.1088673 0.1597442 0.09417669 -0.002278244 -0.03716042 -0.122318074 -0.12918161 -0.23447417
0.044734225 -0.12733683 -0.010291267 -0.07578032 0.047382448 -0.10810204 -0.12809713 0.02950624
-0.09019837 0.14166947 -0.0017976279 -0.1405536 -0.05396051 -0.067671224 -0.039044503 -0.17678115
00000000: 74b5 4b3e 7bdb 8c3d 789b 95bd dbcf 033e
00000010: eb35 a9bd a6f7 c83d 129e 0dbe 8cdb 083d
00000020: 0d1d 663e 41e3 26be 11f2 6f3e d5b6 743d
00000030: 0168 453e 9eb9 aa3c 2504 053d f50f e9bd
00000040: 329b ea3d 525b b53d 4d2d 81bc 9f3a 8e3d
00000050: 8006 9cbd 6b47 5fbc 609b 9ebc 5d48 fc3d
00000060: b019 16be f852 afbd cac6 56bd 96aa e4bd
00000070: bf93 8f3c f8fb 6fbe 7ee3 103e c9bf 62be
00000080: 2bae d03d f4f0 9ebb f10d 8ebd affd d23d
00000090: 0dcc 3e3d 2758 423e 6279 12bc a0aa adbd
000000a0: 5e04 72bc a500 a3bc 3878 1f3d b57b 2e3e
000000b0: 3827 323e 6b65 92bd 5cb0 da3d e789 663c
000000c0: 245f c23d ce64 b4bd 3b2a 4bbe 9b3b a0bd
000000d0: d8d9 11be f206 1c3e 3714 5b3d ef86 9d3d
000000e0: 028d 703d 4cb4 53bb 5ff1 0d3e 138e b0bd
000000f0: ef9c 993c e127 cbbd b3d1 c23d 710c cfbd
00000100: 9ec6 e23c 72ab 72ba acf5 103e b534 dabd
00000110: e80c 63bd 1089 cbbd bdee 123e b34b 8d3d
00000120: 0786 233e c5a7 0dbe 36f3 2ebe 439b c0bd
00000130: dbe2 bebd ea0a e63d a21b b53d 633b fa3d
00000140: 5e95 69bd fea0 01be f0c7 c93d 79b8 99bd
00000150: cad0 e63d 277e 34bd 278d d93d feee 1fbe
00000160: 77c7 dbbd 7eed 863d 8317 063d 5861 fabc
00000170: 849a fc3d 9339 033e a5ab 1abe 0d85 a8bd
00000180: a6d9 073e 3bb5 93bd 9004 02bd 4cfc ecbd
00000190: 238e d8bd ce63 9f3c e230 d1bc cbb8 07be
000001a0: 93ff 4c3d e560 afbd efba febd 4e8c bcbd
000001b0: f5d2 1ebe 06fb b5bd e113 3e3e eaa8 0f3d
000001c0: 8663 6a3d 105a 31be 14c6 f9bd 3f2c 7dbd
000001d0: 1f32 95bc bbad 11be e22e edbd c812 0fbe
000001e0: 1176 ffbb 6065 33bd 3126 a93c 3fcc 35be
000001f0: 170c 47be 7682 2cbe b772 b8bd 7e9f f6bd
00000200: 8c08 3e3e dc6d 0cbd 72b4 1c3e 9129 6d3d
00000210: fcc6 60be dbbc 303e dd99 de3b 1c54 38bd
00000220: 4a52 33be 73bd 19be 016f 5c3d 7226 26bd
00000230: a80f 943d 020d 1cbe a62c 0d3e f194 0bbe
00000240: 3556 03bd 48fa fa3c bd91 063e ae88 023e
00000250: 52e0 0f3e cb72 2dbe 56b3 2d3d e5ec cebd
00000260: 374c 553d a7f9 4abe 62e3 633e 2af4 0fbe
00000270: ac66 283e 744e b83d 15a2 083d 50fe 1abe
00000280: 9a3d 383e 5b95 eb3d 8470 853d 675d f0bd
00000290: 120e da3d 89e2 a63c 0057 e4bd 733d 523e
000002a0: a093 293d cb69 d2bd 977c c0bd 264b 11bc
000002b0: d958 d43d 705c 42bd 2399 6dbd 7530 b6bd
000002c0: 42fd 1bbe 8358 eb3c 6ff3 f83d 96e7 0fbe
000002d0: 0c66 f13c e078 a13d 6999 963d 5098 d3bd
000002e0: c977 413e 3a44 e13d 07e5 0e3e 4b1e 01bd
000002f0: da7d b8bd 97b1 8cbc 5d26 9e3b d804 44bc
00000300: 27c9 2a3e ec32 3b3e 20b6 ee3b 87e4 d5bc
00000310: 328d 2d3d 85a8 35bc d8db 363d e125 553d
00000320: f5b4 2cbe b758 8cbd f421 203e 7645 503d
00000330: 292f 09bd 69c5 19be 90cb 19be e9fd 46be
00000340: 8c45 70bd 67ec 703d 95d1 283e 7c27 a73c
00000350: 7906 49be 84e6 17be 711c b2b9 5b4e 683e
00000360: c29d 3abc 79e8 b0bd fbf5 893d 34ef 88bd
00000370: 2486 95bd 8bf9 2c3e 7970 3dbd 0281 15bc
00000380: 60f7 40be 079d fe3d d610 103e e399 8a3d
00000390: 8e96 04be 2bab 3bbe fe6f 1abe e1cb 0d3e
000003a0: d2f5 de3d fc93 233e b5df c03d 974e 15bb
000003b0: 8635 18bd e681 fabd 2f48 04be ff19 70be
000003c0: 3c3b 373d 9664 02be b49c 28bc b632 9bbd
000003d0: 1914 423d 9a64 ddbd e52b 03be 12b7 f13c
000003e0: ecb9 b8bd cd11 113e 629e ebba 48ed 0fbe
000003f0: b205 5dbd 3697 8abd 21ed 1fbd 1e06 35be

net.0.bias f4 [64]
-0.06569163 -0.102092184 -0.21056911 0.09666461 0.1144705 -0.07804332 0.1731643 0.2742696
-0.17110224 0.18886952 0.067307666 -0.021404663 0.2340642 0.24454363 0.15184733 0.2179619
0.14798856 0.1135219 -0.10748626 0.08312803 -0.066194445 0.10722263 0.09133677 0.06347461
-0.08028977 -0.13564333 0.12414329 0.08873152 0.16096242 -0.018877499 0.051830076 0.019572198
0.18537746 -0.02690203 0.15160029 0.19900343 -0.08891675 0.057946444 0.020308517 -0.051445715
0.14876933 0.043378353 0.18693873 -0.041595653 0.0825154 -0.18441874 -0.06463634 0.07267046
0.17352386 0.16812898 -0.080539934 0.0702496 -0.056114018 0.042793818 -0.078940146 0.0103305355
0.19305104 -0.12590308 -0.11619835 0.086451836 0.089716464 0.00079668756 0.24210615 -0.06059368
00000000: 5589 86bd b515 d1bd 6e9f 57be 18f8 c53d
00000010: 826f ea3d 2dd5 9fbd fb51 313e 116d 8c3e
00000020: 6d35 2fbe 0367 413e 9ad8 893d d558 afbc
00000030: 87ae 6f3e a569 7a3e de7d 1b3e 6831 5f3e
00000040: 508a 173e 2b7e e83d c221 dcbd 073f aa3d
00000050: f490 87bd 8a97 db3d c60e bb3d fafe 813d
00000060: f76e a4bd 16e6 0abe d63e fe3d dfb8 b53d
00000070: 55d3 243e fca4 9abc c64b 543d e055 a03c
00000080: 97d3 3d3e a561 dcbc 1b3d 1b3e 8ec7 4b3e
00000090: fc19 b6bd 4059 6d3d 0c5e a63c beb8 52bd
000000a0: fd56 183e 80ad 313d de6c 3f3e 3460 2abd
000000b0: d6fd a83d 44d8 3cbe 0f60 84bd 40d4 943d
000000c0: 3db0 313e 012a 2c3e 1ff2 a4bd 06df 8f3d
000000d0: d0d7 65bd 9248 2f3d 5fab a1bd 6841 293c
000000e0: 2caf 453e bdec 00be 67f9 edbd a90d b13d
000000f0: 44bd b73d ccd8 503a adea 773e 1431 78bd

net.2.weight f4 [32, 64]
-0.022754252 -0.08140541 0.02102562 0.0053998563 0.13240786 0.024041425 0.083529346 0.00017590294
0.12676312 0.15213384 -0.058760997 0.016333869 -0.06253639 0.100637116 -0.0618831 -0.001388631
0.18339959 -0.08058019 0.12733255 0.046740256 0.13502409 -0.014037396 0.13807867 0.048975833
0.0333366 0.11567944 -0.06718673 -0.045347366 0.15822199 -0.0057987627 -0.041224554 0.031007405
0.0029738997 0.049657777 -0.029352792 0.07958859 -0.054294147 0.06037883 0.13031548 0.0566289
0.064383246 0.0391308 0.016461821 0.019693008 -0.005828634 -0.050861277 -0.030412268 0.16544385
0.032541152 0.08607062 0.111771084 0.056033567 -0.03526672 -0.03187856 -0.011847821 0.08284312
-0.059437037 0.019763803 0.07916808 0.13877383 0.08412121 0.07180693 0.13757975 0.10416933
0.104813054 -0.041772965 -0.04635376 0.0023345244 0.035525993 0.033514407 0.028879154 0.11056973
0.10095818 -0.0034610673 -0.059517093 -0.009029604 -0.013384654 0.12195728 -0.03394873 0.055895656
0.038177736 -0.044703797 0.090252966 -0.023264006 0.02304278 -0.028218044 0.049952753 0.048103105
0.009674942 -0.022503644 0.09506445 0.029975291 -0.03500053 -0.0056764083 0.023631413 -0.0831413
0.14207812 0.020856826 0.010460309 0.036660906 0.09261336 0.041299015 0.15267281 -0.04757641
0.098049894 0.00014151647 -0.03772086 -0.007867701 0.08565283 0.054765977 0.12622914 0.124199644
-0.006145333 -0.013904391 -0.005837126 -0.0015293965 -0.0099671595 -0.046684563 0.08008696 0.114725314
0.05867088 -0.06205012 -0.07278586 -0.020193549 0.08526793 0.054181118 0.081390366 0.16069728
0.031769697 0.0027290343 -0.048322458 0.034418814 0.020701796 -0.13620971 -0.09738864 -0.022623358
0.024268916 0.034481354 -0.10078668 -0.14522107 -0.028984707 -0.04082366 0.011731332 -0.058851838
0.07174215 -0.013776984 0.07003803 -0.11194382 0.026889315 -0.010731527 -0.087338105 0.03405147
-0.14671113 0.07455569 -0.01316188 -0.00969686 0.029555166 -0.014647001 0.02431549 0.052599736
-0.123337045 0.05967163 -0.040583942 -0.05184414 0.004047061 0.07374688 -0.091705054 -0.10844572
0.049865663 -0.081462376 0.014907988 -0.043619875 0.0070591103 0.070080444 -0.08795608 -0.08549568
0.04070032 -0.020236108 -0.034283772 -0.13011248 0.07398989 -0.030448975 -0.0435778 -0.079629086
-0.051348697 0.032412644 -0.031588133 0.078936525 -0.033918712 -0.043661986 0.044165593 -0.028840546
0.03227533 0.052794736 0.14348002 0.06595347 0.14194465 0.11163522 0.0772522 0.09646366
0.065072894 0.059566222 0.1593806 0.16324995 0.088583805 0.041780543 0.15738073 -0.038621962
0.15097183 0.10366001 0.11386236 0.024177194 -0.061006587 0.13979016 0.00079027 0.0654268
0.09345308 -0.088125296 0.05905775 0.007482984 0.12517683 -0.012038669 0.12513913 0.11573408
0.11103458 0.18147981 0.071931764 -0.08126839 0.1404716 0.060501363 0.056845948 -0.09029074
0.021868115 -0.039185055 0.17538902 0.13250493 0.14012969 0.11764577 -0.039065618 -0.013512003
0.0030988317 -0.009345278 0.12242787 0.1097243 0.13021518 0.04409663 -0.07699616 0.0005572372
0.13367867 0.10911785 0.06893278 -0.0019071803 -0.06976707 -0.018846635 0.11757977 -0.0035215637
00000000: 2067 babc e1b7 a6bd ec3d ac3c 47f1 b03b
00000010: ed95 073e 86f2 c43c 6f11 ab3d 9672 3839
00000020: 31ce 013e f9c8 1b3e 5faf 70bd 9bce 853c
00000030: 1413 80bd d51a ce3d 2279 7dbd b902 b6ba
00000040: 1acd 3b3e 3a07 a5bd 7763 023e b672 3f3d
00000050: c143 0a3e 1bfd 65bc 7f64 0d3e e29a 483d
00000060: f58b 083d 58e9 ec3d 3299 89bd 29be 39bd
00000070: f204 223e 8c03 bebb 14db 28bd 3e03 fe3c
00000080: c2e5 423b f465 4b3d 4475 f0bc 58ff a23d
00000090: 8a63 5ebd cb4f 773d 6c71 053e b5f3 673d
000000a0: 5ddb 833d 9e47 203d f1da 863c 3b53 a13c
000000b0: 20fe bebb ea53 50bd 2623 f9bc 1d6a 293e
000000c0: df49 053d cb45 b03d 3de8 e43d 7483 653d
000000d0: d673 10bd 1893 02bd 5d1d 42bc a7a9 a93d
000000e0: 4074 73bd b3e7 a13c e022 a23d ba1a 0e3e
000000f0: be47 ac3d 830f 933d b5e1 0c3e bb56 d53d
00000100: 3aa8 d63d 211a 2bbd 71dd 3dbd d2fe 183b
00000110: b483 113d 6746 093d fa93 ec3c 6272 e23d
00000120: 2ac3 ce3d 13d3 62bb 32c8 73bd e7f0 13bc
00000130: 4f4b 5bbc bdc4 f93d d30d 0bbd d8f2 643d
00000140: 4260 1c3d 541b 37bd 8cd6 b83d 2894 bebc
00000150: 36c4 bc3c 8729 e7bc 429b 4c3d c307 453d
00000160: a683 1e3c 9059 b8bc 26b1 c23d be8e f53c
00000170: b75c 0fbd 2a01 babb aa96 c13c fc45 aabd
00000180: ed7c 113e efdb aa3c b761 2b3c bf29 163d
00000190: 13ac bd3d 2829 293d 4356 1c3e 7bdf 42bd
000001a0: 62ce c83d 0a64 1439 3081 1abd 88e7 00bc
000001b0: c06a af3d 4a52 603d 3642 013e 625c fe3d
000001c0: ca5e c9bb 3ecf 63bc 5d45 bfbb 0876 c8ba
000001d0: 4c4d 23bc 5038 3fbd a204 a43d 1bf5 ea3d
000001e0: e050 703d 4428 7ebd c110 95bd f16c a5bc
000001f0: f4a0 ae3d 05ed 5d3d feaf a63d d48d 243e
00000200: f120 023d 99d9 323b c5ed 45bd befa 0c3d
00000210: d096 a93c 8f7a 0bbe b273 c7bd 9f54 b9bc
00000220: 9bcf c63c 523c 0d3d 3f69 cebd d5b4 14be
00000230: 5671 edbc b636 27bd c634 403c a00e 71bd
00000240: 8ced 923d dcb8 61bc 1970 8f3d cd42 e5bd
00000250: fb46 dc3c 49d3 2fbc 52de b2bd 8e79 0b3d
00000260: 713b 16be a7b0 983d eda4 57bc 94df 1ebc
00000270: ad1d f23c faf9 6fbc 4731 c73c d272 573d
00000280: 2298 fcbd 3d6a 743d 593b 26bd 855a 54bd
00000290: 359d 843b 9b08 973d dccf bbbd ca18 debd
000002a0: f03f 4c3d bfd5 a6bd a240 743c c1aa 32bd
000002b0: 1c50 e73b 5686 8f3d 5122 b4bd 5c18 afbd
000002c0: 61b5 263d 32c6 a5bc 246d 0cbd 353c 05be
000002d0: 0388 973d 2170 f9bc a37e 32bd 9314 a3bd
000002e0: 0353 52bd 1fc3 043d 8f62 01bd 79a9 a13d
000002f0: 59ee 0abd e9d6 32bd fbe6 343d 0243 ecbc
00000300: 2333 043d 4b3f 583d 6dec 123e 9d12 873d
00000310: f059 113e 02a1 e43d 6736 9e3d bd8e c53d
00000320: f044 853d b6fb 733d ab34 233e ff2a 273e
00000330: 6d6b b53d 1322 2b3d 6a28 213e 1032 1ebd
00000340: 5c98 1a3e b34b d43d ab30 e93d 400f c63c
00000350: 0be2 79bd 2725 0f3e 1f2a 4f3a 7cfe 853d
00000360: 5464 bf3d 097b b4bd 8ae6 713d d233 f53b
00000370: 5b2e 003e d63d 45bc 7924 003e fd05 ed3d
00000380: 1966 e33d d8d5 393e f650 933d 0b70 a6bd
00000390: cad7 0f3e 47d0 773d 4cd7 683d 5aea b8bd
000003a0: c324 b33c 8280 20bd 2e99 333e 5faf 073e
000003b0: 287e 0f3e 44f0 f03d 4503 20bd 7361 5dbc
000003c0: c515 4b3b f01c 19bc 77bb fa3d 22b7 e03d
000003d0: 2157 053e ab9e 343d 2ab0 9dbd 8e13 123a
000003e0: 10e3 083e 2e79 df3d a12c 8d3d 5afa f9ba
000003f0: 0ae2 8ebd 4264 9abc aacd f03d 09ca 66bb

net.2.bias f4 [32]
-0.021763062 0.09272966 0.007781521 0.12522493 -0.05107393 0.06974331 -0.039184418 0.14589806
0.14009497 0.03521579 0.036662385 0.13542603 0.08146709 0.018880295 0.09702691 0.09931394
-0.007273077 0.006846951 0.09555006 -0.122519456 0.021464087 0.0008741476 -0.10164281 0.14538363
0.07500141 0.04148264 0.10008589 0.04282264 -7.379837e-05 0.04037998 -0.07896948 0.0088808825
00000000: 7348 b2bc 0ce9 bd3d 21fc fe3b f73a 003e
00000010: e632 51bd 95d5 8e3d d77f 20bd 4d66 153e
00000020: 0e75 0f3e 6f3e 103d 4c2b 163d 1fad 0a3e
00000030: 38d8 a63d d9aa 9a3c 0bb6 c63d 1b65 cb3d
00000040: fe52 eebb 635c e03b c0af c33d 7beb fabd
00000050: 74d5 af3c 0d27 653a 1b2a d0bd 72df 143e
00000060: 579a 993d b3e9 293d d5f9 cc3d cb66 2f3d
00000070: 33c4 9ab8 7a65 253d c0ba a1bd 1f81 113c

head.weight f4 [1, 32]
0.21561843 0.083453625 -0.0745288 0.067023806 -0.17422645 0.06877631 0.18184336 0.07279109
0.08665372 -0.14693648 -0.0077004544 0.15572196 -0.100573316 -0.063802294 0.16403873 0.101291716
0.12735668 -0.14450523 0.16059929 -0.018673552 0.08582864 0.18534805 -0.14394185 0.10567849
-0.13880844 0.1784038 0.0995646 0.07106242 -0.049475778 0.10971913 -0.07896902 0.08315207
00000000: 14cb 5c3e bce9 aa3d 8ea2 98bd c743 893d
00000010: 6b68 32be 98da 8c3d 2535 3a3e 7f13 953d
00000020: 8177 b13d 8476 16be 1854 fcbb 9475 1f3e
00000030: 62f9 cdbd c7aa 82bd c5f9 273e 0872 cf3d
00000040: ca69 023e 2ef9 13be 2474 243e 47f9 98bc
00000050: edc6 af3d e1cb 3d3e 7e65 13be f76d d83d
00000060: cd23 0ebe 7caf 363e 86e8 cb3d 2d89 913d
00000070: 1da7 4abd 6cb4 e03d 82ba a1bd a24b aa3d
