artifacts/model_exp-05_bn_20251104T051226Z.pt (torch, 58073 bytes, 13 tensors)

net.0.weight f4 [128, 29]
0	0x3e2ad49a	0.16682664
1	0x3e27221a	0.16321602
2	0xbcf847f6	-0.030307751
3	0x3e33e426	0.175675
4	0xbd2e0830	-0.042488277
5	0x3d2928e1	0.04129875
6	0xbdc3d30b	-0.095617376
7	0x3df9f323	0.12204578
8	0x3e1ddb1a	0.15415612
9	0xbe005c13	-0.12535124
10	0x3e2cd31b	0.16877405
11	0x3d0fb059	0.035080288
12	0x3e09348c	0.13398951
13	0x3cd8f0ae	0.026481953
14	0x3d8812cc	0.0664421
15	0xbd1357bc	-0.035972342
16	0x3e094cdf	0.1340823
17	0x3d09296c	0.03348677
18	0xbdad5f6b	-0.08465465
19	0x3d5c2f18	0.05375585
20	0xbdac6307	-0.084173255
21	0xbc926ea2	-0.01787502
22	0xbd8602e3	-0.06543519
23	0x3dfc485d	0.1231849
24	0xbe1619b0	-0.14658237
25	0xbdaf52f8	-0.08560747
26	0xbd56c6ca	-0.052435674
27	0xbde4aa96	-0.11165349
28	0x3c8f93bf	0.017526506
29	0xbe31b738	-0.17355049
30	0x3e2e6232	0.17029646
31	0xbe2a97bc	-0.16659445
32	0x3e11450a	0.14186493
33	0x3cbcf1c0	0.023064494
34	0xbd98a909	-0.07454116
35	0x3def8f15	0.116972126
36	0x3d46ebac	0.048564598
37	0x3e29486d	0.16531534
38	0x3ccac176	0.024750452
39	0xbd623fba	-0.055236556
40	0x3d0eef23	0.034896027
41	0xbd4c8b7a	-0.049937703
42	0x3d8a3804	0.067489654
43	0x3e2e3da5	0.17015703
44	0x3de99b2b	0.11406549
45	0xbd853dfc	-0.06505963
46	0x3dcdbfbb	0.10046335
47	0x3ca96082	0.020675901
48	0x3dba0aff	0.090841286
49	0xbdd3cf3a	-0.1034226
50	0xbe3b5ae2	-0.18296388
51	0xbda2efbb	-0.07955881
52	0xbe11d9d8	-0.14243257
53	0x3e1c06f2	0.15237024
54	0x3d5b1437	0.053486075
55	0x3d9d86ef	0.07691752
56	0x3d708d02	0.058728226
57	0xbb53b44c	-0.003230351
58	0x3e407ecd	0.1879837
59	0xbdcb544f	-0.0992819
60	0xbbc7be9d	-0.006095721
61	0xbe01c0bc	-0.12671179
62	0x3d47276a	0.048621573
63	0xbd5a64bc	-0.053318724
64	0x3d78d207	0.060747173
65	0xbcf4b7cd	-0.0298728
66	0x3e1c46c1	0.15261365
67	0xbdd9bb68	-0.10631448
68	0xbdc24588	-0.09485918
69	0xbdd22f2f	-0.10262906
70	0x3e3b4013	0.18286161
71	0x3d3ad3a7	0.045612004
72	0x3e2c6d1b	0.16838495
73	0xbe05b8de	-0.13058802
74	0xbe2bc001	-0.16772462
75	0xbe1d6b15	-0.1537288
76	0xbe105364	-0.14094311
77	0x3db5a80c	0.08869943
78	0x3db32ab4	0.08748379
79	0x3e27229b	0.16321795
80	0xbdd17869	-0.102280445
81	0xbe01a0fe	-0.1265907
82	0x3dc9c7f0	0.09852588
83	0xbd99b879	-0.075058885
84	0x3de6d0ca	0.11270292
85	0xbd347e27	-0.04406562
86	0x3dd98d27	0.10622626
87	0xbe1693a0	-0.14704752
88	0xbd812b7e	-0.063071236
89	0x3d95cf2c	0.073149055
90	0x3cc5d07f	0.02414727
91	0xbd452741	-0.04813314
92	0x3ddcef16	0.107877895
93	0x3e0f214c	0.13977545
94	0xbdf1f771	-0.11814774
95	0xbdfe32ae	-0.1241201
96	0x3e18fd5f	0.14940403
97	0xbdb1a048	-0.08673149
98	0xbd93134c	-0.07181415
99	0xbe3c67d1	-0.18398978
100	0xbdc112be	-0.09427403
101	0x3d0e274b	0.03470544
102	0xbd359f73	-0.044341516
103	0xbe1701f0	-0.14746833
104	0x3cb7795a	0.022396732
105	0xbdeb49c6	-0.114886805
106	0xbe279bec	-0.16368073
107	0xbde80978	-0.11329931
108	0xbe1f4d43	-0.15556817
109	0xbdffcd62	-0.124903455
110	0x3e3e13e1	0.1856227
111	0x3d0fa8ea	0.0350732
112	0x3d6a6386	0.05722382
113	0xbe315a10	-0.17319512
114	0xbdf9c614	-0.121959835
115	0xbd7d2c3f	-0.061809774
116	0x3d491398	0.04909095
117	0xbe20bf10	-0.15697885
118	0xbda36f74	-0.07980242
119	0xbdd8b940	-0.10582209
120	0x3b9c5429	0.004770775
121	0xbdcc8cbd	-0.09987781
122	0xbd0adb29	-0.033900414
123	0xbdbdf57f	-0.0927534
124	0xbe1058fb	-0.14096443
125	0xbdccaf17	-0.09994333
126	0xbd6c0d53	-0.057629894
127	0xbe0550ae	-0.13019058
128	0x3e22d177	0.15900217
129	0xbd1702c4	-0.036867872
130	0x3e29f13a	0.16595927
131	0x3dacf57d	0.08445261
132	0xbe126219	-0.14295234
133	0x3e165038	0.14679039
134	0xbd37a3b0	-0.04483384
135	0xbd4bf54c	-0.04979448
136	0xbe1002be	-0.14063546
137	0xbe58eeea	-0.21184888
138	0x3d8de1aa	0.06927808
139	0xbd262672	-0.040564008
140	0x3d940fa8	0.07229549
141	0xbe1c0d02	-0.15239337
142	0x3e0d2ca6	0.13786563
143	0xbe0b94f1	-0.13631035
144	0xbd035635	-0.032064635
145	0x3d78b3de	0.06071841
146	0x3dc8f3b4	0.09812108
147	0x3e0c64a8	0.13710272
148	0x3e2c63e8	0.16834986
149	0xbe1ca7c6	-0.15298375
150	0x3cb6d33f	0.022317527
151	0xbdc2991f	-0.09501862
152	0xbac3f8e0	-0.001495149
153	0xbe0fcb34	-0.1404236
154	0x3e363070	0.17791915
155	0xbddb7649	-0.107159205
156	0x3db81d51	0.08989967
157	0x3d8346bc	0.06409976
158	0x3d47aab3	0.048746776
159	0xbdb27802	-0.08714296
160	0x3e3d9378	0.18513286
161	0x3d8912a4	0.066930085
162	0x3cd95221	0.02652842
163	0xbe2d4f74	-0.1692484
164	0x3da12492	0.07868303
165	0xbc8b13a6	-0.016977143
166	0xbdd52d36	-0.10409014
167	0x3e1f2c13	0.15544157
168	0x3d2993a0	0.04140055
169	0xbdd269cb	-0.10274085
170	0xbdc07c97	-0.093987636
171	0xbc114b26	-0.008868014
172	0x3dd458d9	0.10368509
173	0xbd425c70	-0.047451437
174	0xbdfc6f71	-0.12325943
175	0xbd8faa27	-0.07014876
176	0xbe0e7d0c	-0.13914889
177	0x3dbd326b	0.09238132
178	0x3e1bdb00	0.1522026
179	0xbe2e8807	-0.17044078
180	0x3d21dd7e	0.039517872
181	0x3da2d5b4	0.07950917
182	0x3cad2a7a	0.021138418
183	0xbd5dc6e2	-0.054144748
184	0x3d9e63f1	0.07733906
185	0x3de5e2a1	0.11224867
186	0x3d95929b	0.073033534
187	0xbd0ee576	-0.0348868
188	0xbd29ccda	-0.041455127
189	0xbba5ef50	-0.0050639287
190	0xbd2f7043	-0.04283167
191	0xbd9c2734	-0.07624665
192	0x3de265e7	0.110545926
193	0x3e2170e1	0.15765716
194	0xbce4055e	-0.02783459
195	0xbd257a3a	-0.040399767
196	0xbccfd6bc	-0.025370948
197	0xbc35a885	-0.0110875415
198	0x3d36dbd8	0.044643253
199	0x3d5525e1	0.052038077
200	0xbe2cb4f5	-0.16865905
201	0xbd8c58b7	-0.068528585
202	0x3e2021f4	0.15637952
203	0x3db4c486	0.08826546
204	0xbc169d79	-0.009192818
205	0xbe16bd4f	-0.14720653
206	0xbe11c868	-0.14236605
207	0xbe467199	-0.19379272
208	0xbd477b24	-0.04870142
209	0x3d8e8803	0.06959536
210	0x3de1f7e0	0.110336065
211	0x3d8d40b5	0.068971075
212	0xbe139731	-0.14413144
213	0xbdb32f10	-0.08749211
214	0xbd38ed61	-0.045148257
215	0x3e4e9f71	0.2017801
216	0xbafa38d8	-0.0019090427
217	0xbd032d07	-0.032025363
218	0x3dbb871f	0.09156632
219	0xbd81ec97	-0.06343954
220	0xbe109377	-0.14118753
221	0x3ddf511e	0.10904144
222	0xbdc5e084	-0.096619636
223	0xbccfaa86	-0.025349867
224	0xbe31b89d	-0.1735558
225	0x3dc1ac05	0.09456638
226	0x3e1010d6	0.14068922
227	0x3d8a99e3	0.06767633
228	0xbe04968e	-0.12948057
229	0xbe3bab2b	-0.18327014
230	0xbe1a6ffe	-0.15081784
231	0x3e0dcbe1	0.13847305
232	0x3d957ce5	0.07299212
233	0x3e1bc770	0.15212798
234	0x3dccf530	0.10007703
235	0x3d86e533	0.06586685
236	0x3bee2ac9	0.007268284
237	0xbe1d7832	-0.15377882
238	0xbe30cc16	-0.17265353
239	0xbe1c7123	-0.15277533
240	0x3dcfad35	0.101404585
241	0xbdfe4ebe	-0.12417363
242	0xbd5b60b2	-0.053559013
243	0xbdb8fdf6	-0.09032814
244	0xbcd5d53d	-0.026102656
245	0xbe0f7912	-0.14011028
246	0xbdd3d072	-0.10342492
247	0x3d938fbb	0.07205149
248	0xbd81c0b3	-0.063355826
249	0x3df5d7ef	0.12004077
250	0xbd7fe898	-0.062477678
251	0xbdf9e10f	-0.1220113
252	0xbcab60d6	-0.020920198
253	0xbdb830ad	-0.08993659
254	0xbd32308f	-0.04350334
255	0xbe35061e	-0.17678115

net.0.bias f4 [128]
0	0xbd9cc7c0	-0.07655287
1	0x3d0cf53e	0.03441357
2	0x3e18417f	0.14868735
3	0xbc3a4e17	-0.011371157
4	0x3ca218af	0.01978716
5	0x3c547670	0.012967691
6	0xbb382048	-0.0028095413
7	0x3deab83e	0.11460923
8	0x3dd004eb	0.10157188
9	0xbdcea699	-0.1009037
10	0x3e362c3d	0.17790313
11	0x3dd86069	0.10565264
12	0xbceda193	-0.029007709
13	0x3e27cc60	0.16386557
14	0x3c0bd920	0.008535653
15	0x3df7d396	0.12100904
16	0xbe232a49	-0.159341
17	0x3e2c6139	0.16833963
18	0x3e327b52	0.17429855
19	0xbe0da0aa	-0.1383082
20	0xbe29ea05	-0.16593178
21	0xbd5e17a8	-0.05422178
22	0xbde2bbf9	-0.11071009
23	0x3d51c5cd	0.05121403
24	0x3daf10bb	0.08548113
25	0xbcc4944d	-0.023996497
26	0x3e03e130	0.12878871
27	0x3bf643f3	0.0075154244
28	0xbd5e768a	-0.054312266
29	0xbe23341a	-0.15937844
30	0x3d6da06c	0.05801432
31	0xbe2e0095	-0.1699241
32	0x3a345452	0.000687902
33	0x3cd6f3ce	0.026239302
34	0xbdd4c420	-0.103889704
35	0x3d632f8a	0.05546526
36	0x3d15732e	0.036486797
37	0x3dff8eef	0.12478434
38	0x3deebc33	0.1165699
39	0xbe1844fd	-0.14870067
40	0xbe0aa0cc	-0.13537902
41	0xbd8448aa	-0.06459172
42	0xbe0a5404	-0.13508612
43	0x3d636107	0.055512454
44	0xbdf8f188	-0.121554434
45	0xbe0fedb5	-0.14055522
46	0x3d5179e6	0.051141642
47	0x3de4b232	0.111668006
48	0xbd652e72	-0.055952497
49	0xbe3ce378	-0.18446147
50	0x3ce255b5	0.027628759
51	0x3dbd026c	0.092289776
52	0x3e157351	0.14594771
53	0x3c8eb92a	0.017422277
54	0x3e031ab9	0.12803163
55	0xbe2a256c	-0.16615838
56	0x3e36b534	0.17842561
57	0xbdf3c659	-0.11903066
58	0xbdfeb072	-0.12435998
59	0x3e0680a1	0.13135006
60	0xbd2f0511	-0.04272944
61	0x3de7360c	0.112896055
62	0xbe03cb3e	-0.128705
63	0x3e0fc5b4	0.14040262
64	0x3e33486f	0.175081
65	0x3d6c2605	0.057653446
66	0x3e197cdb	0.14989035
67	0xbe06fe69	-0.13182987
68	0xbd26b044	-0.040695444
69	0x3d610d76	0.054944478
70	0x3dd4913f	0.10379266
71	0xbdc8865f	-0.09791254
72	0x3df028a8	0.117265046
73	0xbd7ccaab	-0.061716717
74	0xbdcaf003	-0.0990906
75	0x3d13d11c	0.036088094
76	0xbe1760f0	-0.14783072
77	0xbe2d7eee	-0.16942951
78	0x3d7d1a7c	0.061792836
79	0x3d8220a8	0.06353885
80	0x3d8eb463	0.06968
81	0xbcba6cb7	-0.022756917
82	0xbe0ba1d1	-0.13635947
83	0xbe184e01	-0.14873506
84	0x3e35eddd	0.17766519
85	0xbe2390cc	-0.15973204
86	0x3d62b220	0.055345654
87	0x3e1bf485	0.15229996
88	0x3e113269	0.14179386
89	0xbdf2b9fc	-0.1185188
90	0xbd80fe10	-0.062984586
91	0xbe165122	-0.14679387
92	0x3df27601	0.11838914
93	0xbe339976	-0.1753901
94	0xbe2e8247	-0.17041884
95	0xbdf7fcab	-0.121087395
96	0x3e195c64	0.1497665
97	0x3dfc02f2	0.12305249
98	0x3dfdf9d4	0.124011666
99	0x3e0fafff	0.14031981
100	0xbdad79ce	-0.08470498
101	0xbdd67607	-0.10471731
102	0xbde57061	-0.11203075
103	0x3d7994dc	0.06093298
104	0x3d94b881	0.07261754
105	0x3d1eb25d	0.03874432
106	0xbe12dde9	-0.14342465
107	0x3c85bd42	0.016325597
108	0xbdc81c73	-0.09771051
109	0xbd1d5a9e	-0.038416497
110	0xbcf66e93	-0.030082023
111	0x3c1853d5	0.009297331
112	0xbe278676	-0.16359887
113	0x3e252593	0.16127615
114	0xbda2f55d	-0.079569556
115	0x3d67eefe	0.056624405
116	0x3e01cfe4	0.1267696
117	0x3d97f561	0.07419849
118	0x3e0786f1	0.1323507
119	0x3dd8affd	0.10580442
120	0x3e06787c	0.13131899
121	0x3d1b4608	0.037908584
122	0x3df32ac0	0.11873388
123	0xbda1bf83	-0.07897856
124	0xbdc822e5	-0.097722806
125	0x3db72835	0.08943216
126	0x3d4c2ef6	0.049849473
127	0xbbd27a7a	-0.0064232918

net.1.weight f4 [128]
0	0x3f815786	1.0104835
1	0x3f7aca7a	0.97965205
2	0x3f819fff	1.0126952
3	0x3f81493a	1.0100472
4	0x3f7a1f46	0.9770397
5	0x3f7f2a78	0.9967418
6	0x3f82d9f8	1.0222769
7	0x3f7d109b	0.9885346
8	0x3f7a032e	0.976611
9	0x3f824ebd	1.0180279
10	0x3f7d1320	0.9885731
11	0x3f7d70dd	0.9900034
12	0x3f83133d	1.0240246
13	0x3f81722d	1.0112969
14	0x3f7f9b74	0.9984658
15	0x3f7b703e	0.98218143
16	0x3f80c46c	1.0059943
17	0x3f7cbaf2	0.98722756
18	0x3f82f4ad	1.0230919
19	0x3f787a85	0.9706195
20	0x3f7cd304	0.98759484
21	0x3f80dfbd	1.006828
22	0x3f7bc541	0.9834786
23	0x3f76c5d0	0.9639559
24	0x3f82bf65	1.0214659
25	0x3f7ac34a	0.9795424
26	0x3f78af04	0.9714205
27	0x3f82fa9a	1.0232728
28	0x3f7bcbfc	0.9835813
29	0x3f80b2d2	1.0054572
30	0x3f806f8c	1.0034041
31	0x3f7f62cf	0.99760145
32	0x3f81a2a6	1.0127761
33	0x3f7df5d1	0.9920321
34	0x3f83663f	1.0265578
35	0x3f80f1b0	1.0073757
36	0x3f7d5e06	0.98971593
37	0x3f7f10ae	0.99634826
38	0x3f83837b	1.02745
39	0x3f7d923f	0.9905128
40	0x3f7b55bb	0.9817769
41	0x3f7d42bf	0.9892997
42	0x3f806001	1.0029298
43	0x3f8057ef	1.0026835
44	0x3f80535a	1.0025437
45	0x3f7bd2fe	0.98368824
46	0x3f7fc82f	0.9991483
47	0x3f806c5a	1.0033066
48	0x3f835922	1.0261576
49	0x3f847a46	1.0349815
50	0x3f819ef7	1.0126637
51	0x3f7f48a1	0.997202
52	0x3f820e65	1.0160643
53	0x3f803ad1	1.0017949
54	0x3f81702b	1.0112356
55	0x3f7faf90	0.9987726
56	0x3f7e42c4	0.99320626
57	0x3f81df34	1.0146241
58	0x3f84c71c	1.0373263
59	0x3f81832b	1.0118154
60	0x3f81d450	1.0142918
61	0x3f7e25e0	0.9927654
62	0x3f8060d1	1.0029546
63	0x3f7b3be8	0.98138285
64	0x3f78fbe0	0.9725933
65	0x3f7b2429	0.9810205
66	0x3f797ef0	0.97459316
67	0x3f7fc5df	0.999113
68	0x3f8200d0	1.0156498
69	0x3f7ef4d2	0.99592316
70	0x3f79e9f8	0.97622633
71	0x3f7ee16e	0.9956273
72	0x3f7e295a	0.9928185
73	0x3f7cb42d	0.98712426
74	0x3f807755	1.0036417
75	0x3f7e17dc	0.99255157
76	0x3f829f7c	1.0204921
77	0x3f820f00	1.0160828
78	0x3f807b1d	1.0037571
79	0x3f832625	1.0246016
80	0x3f8185ec	1.0118995
81	0x3f812007	1.0087899
82	0x3f81ae8a	1.013139
83	0x3f83cc6e	1.0296762
84	0x3f81f8b1	1.015402
85	0x3f7c940a	0.9866339
86	0x3f802c99	1.001361
87	0x3f815380	1.0103607
88	0x3f7e35d1	0.9930087
89	0x3f837908	1.0271311
90	0x3f7a5a6b	0.97794217
91	0x3f846060	1.0341911
92	0x3f8051be	1.0024946
93	0x3f808b9c	1.0042605
94	0x3f7b065c	0.9805658
95	0x3f7f0949	0.99623543
96	0x3f7c614b	0.9858596
97	0x3f7c60d7	0.98585266
98	0x3f83a59e	1.0284917
99	0x3f7c83a7	0.98638386
100	0x3f82909c	1.0200381
101	0x3f79e461	0.97614104
102	0x3f7c8e87	0.9865498
103	0x3f7c9a45	0.98672897
104	0x3f7f68e0	0.997694
105	0x3f806a92	1.0032523
106	0x3f8396cb	1.0280393
107	0x3f8028fd	1.0012509
108	0x3f7c8b45	0.9865001
109	0x3f800e3f	1.0004348
110	0x3f80700b	1.0034193
111	0x3f7c41e7	0.9853806
112	0x3f7cf824	0.9881613
113	0x3f7a9553	0.978841
114	0x3f7f9d81	0.99849707
115	0x3f809506	1.0045478
116	0x3f809d94	1.0048089
117	0x3f804043	1.0019611
118	0x3f7da115	0.99073917
119	0x3f7fc037	0.9990267
120	0x3f774589	0.9659048
121	0x3f7c2cde	0.9850596
122	0x3f80b414	1.0054955
123	0x3f7a5d01	0.9779816
124	0x3f818823	1.0119671
125	0x3f81a297	1.0127743
126	0x3f778816	0.96692026
127	0x3f806444	1.0030599

net.1.bias f4 [128]
0	0x3bd4ca3c	0.006493835
1	0xbd13e3ed	-0.03610604
2	0x3d09a9b9	0.033609126
3	0x3d01ca41	0.031687025
4	0xbd0234b1	-0.03178853
5	0xbc0c7270	-0.008572206
6	0x3a3b8791	0.0007153685
7	0x3c9db1ae	0.019249763
8	0xbcef206d	-0.029190267
9	0x3c942407	0.018083585
10	0xbbe33ddd	-0.006934865
11	0xbc6e0de7	-0.014529682
12	0x3cea1a78	0.028577074
13	0xbc77d6bd	-0.015126881
14	0x3c02b38c	0.007977378
15	0x3b1fbd0e	0.002437416
16	0xbc6cdc22	-0.014456781
17	0x3b6571a3	0.003501036
18	0x3c2f79e4	0.010710213
19	0xbc8235c6	-0.015894782
20	0xba89d791	-0.0010516514
21	0x3a498fb2	0.0007688954
22	0x3c302474	0.010750879
23	0xbd18d492	-0.037312098
24	0x3be2a781	0.0069169407
25	0xbcdde1f9	-0.027085291
26	0xbc6e82fd	-0.014557597
27	0x3c2dc3e5	0.010605787
28	0xbaae8dd8	-0.0013317419
29	0x3c10339a	0.008801365
30	0x3cc1ad15	0.023642102
31	0xbc54c3bc	-0.01298612
32	0xbb98200e	-0.004642493
33	0xbb8f8ea6	-0.0043810187
34	0x3ce76046	0.028244149
35	0x3c71c311	0.01475598
36	0x3c159d0f	0.009131684
37	0xbc4fe8ad	-0.012689752
38	0xbbc619b2	-0.0060455436
39	0x3cb6abfa	0.022298802
40	0x3b33938e	0.0027401182
41	0x3cdd78ed	0.027035201
42	0xba846bfb	-0.0010102981
43	0xbc8d12f4	-0.017220952
44	0xba0c3a92	-0.0005349304
45	0x3c95004c	0.018188618
46	0xbd517f4f	-0.0511468
47	0x3ba34ee0	0.004983768
48	0x3c871643	0.016490107
49	0x3cb024ca	0.021501917
50	0xbc931008	-0.01795198
51	0x3c19c32c	0.0093849115
52	0x3bf4f9d3	0.0074760704
53	0x3c8755a7	0.016520334
54	0x3c98b3aa	0.018640358
55	0x3b9865d8	0.0046508126
56	0x3c4d23ab	0.012520711
57	0x3bdebc9d	0.006797387
58	0x3d6da00f	0.058013972
59	0x3be50f1c	0.0069903266
60	0x3ccc2915	0.024921933
61	0x3c38b612	0.011273878
62	0x3c38cccb	0.011279295
63	0xbbc677f9	-0.0060567823
64	0x3ac5671d	0.0015060637
65	0xbca63bd7	-0.020292206
66	0x3cb00e3b	0.02149116
67	0x3ccf0fa0	0.025276005
68	0x3cb329df	0.021870552
69	0x3c863c55	0.01638619
70	0x3c1d024e	0.009583069
71	0x3b8207e3	0.0039682253
72	0xbb5a4c8e	-0.003330979
73	0xb99fe952	-0.0003050068
74	0xbb3ffad7	-0.00292938
75	0xbaa0cf58	-0.0012268825
76	0xbcb8e61c	-0.022570662
77	0xbd57473d	-0.052558172
78	0x3ba63a3d	0.0050728605
79	0xbb9d2f8c	-0.004796928
80	0xbd645007	-0.055740383
81	0x3ca1358b	0.019678852
82	0x3c62edc5	0.013850634
83	0x3ce40c55	0.027837912
84	0x3d0ec404	0.034854904
85	0x3aa14e47	0.0012306654
86	0x3c17bd55	0.009261449
87	0xbbff4af9	-0.00779092
88	0x3b5a2a8f	0.0033289527
89	0x3ca64299	0.020295428
90	0x3829bc2c	4.046799e-05
91	0x3d1b41a3	0.037904393
92	0x3c0e37f2	0.008680331
93	0xbc9bcd84	-0.019018896
94	0xbc18fd87	-0.009337789
95	0x3c935d29	0.017988758
96	0x3c0c1bb2	0.008551525
97	0xb8c2d2f7	-9.289936e-05
98	0x3c9ab255	0.018883863
99	0xbc933e10	-0.01797393
100	0xbca1437c	-0.0196855
101	0xbcdf15ce	-0.027232077
102	0xbca1b1c4	-0.019738086
103	0xbd14972a	-0.036276974
104	0x3b70b891	0.0036731104
105	0xbc28e3fd	-0.010308263
106	0x3c5d882a	0.013521234
107	0x3ca8c01a	0.020599414
108	0x3c5e4233	0.013565588
109	0x3a1d38b8	0.00059975265
110	0xbc623e8a	-0.013808856
111	0xbc110383	-0.008850935
112	0x3bda6f8b	0.006666129
113	0xbcbf7718	-0.023372218
114	0x3c853c0b	0.016263982
115	0x3c93c12b	0.018036446
116	0x3c8c4dfc	0.01712703
117	0xbca5ab2f	-0.020223228
118	0x3b729651	0.0037015865
119	0x3c24b7c0	0.010053575
120	0x3baac4a0	0.005211428
121	0xbc9f7c10	-0.019468337
122	0x3ca3d5d0	0.019999415
123	0xbae4f732	-0.001746869
124	0x3cd22eb3	0.025657034
125	0xbbe6268f	-0.0070236395
126	0xbcbc09f3	-0.022953963
127	0x3c36bcd4	0.011153419

net.1.running_mean f4 [128]
0	0xbd8928fa	-0.06697269
1	0x3d1f9c8e	0.03896766
2	0x3e388958	0.18021142
3	0xbc250837	-0.010072759
4	0x3d1af2d3	0.03782923
5	0xbc1df8bc	-0.009641822
6	0xbaad3072	-0.001321329
7	0x3e123635	0.14278491
8	0x3db07c21	0.08617426
9	0xbde6c01b	-0.1126711
10	0x3e3614d8	0.17781389
11	0x3dc89d05	0.09795574
12	0xbd426cc7	-0.04746702
13	0x3e25f065	0.16204984
14	0x3b51dbf8	0.003202198
15	0x3dfe0dd5	0.12404982
16	0xbe2758d6	-0.16342482
17	0x3e2a199f	0.16611336
18	0x3e3161d9	0.17322482
19	0xbe049192	-0.12946156
20	0xbe32cd33	-0.1746109
21	0xbd25bb24	-0.040461674
22	0xbdbd8bf3	-0.09255209
23	0x3d7b9014	0.0614167
24	0x3d628f82	0.05531264
25	0xbbe5e4f5	-0.007015819
26	0x3df6d888	0.12053019
27	0xbc34ea15	-0.011042138
28	0xbd2138cf	-0.039360818
29	0xbe0b972d	-0.13631888
30	0x3d86bb9e	0.06578754
31	0xbe26b56f	-0.16280149
32	0x3b16dead	0.0023020909
33	0x3c9369f6	0.017994862
34	0xbdbe56fb	-0.09293934
35	0x3d079ba9	0.033107433
36	0x3d206619	0.039159868
37	0x3e003500	0.12520218
38	0x3dcdd57d	0.10050485
39	0xbe28b5fa	-0.16475669
40	0xbe07c721	-0.13259555
41	0xbd9a4530	-0.07532728
42	0xbe00576c	-0.12533349
43	0x3d820bca	0.06349905
44	0xbdfe35e5	-0.12412623
45	0xbe03c533	-0.12868194
46	0x3d0b5626	0.034017704
47	0x3df84470	0.121224284
48	0xbd8e66b6	-0.06953184
49	0xbe2b0589	-0.1670133
50	0x3ba92708	0.0051621236
51	0x3db85ac2	0.09001686
52	0x3e1e266d	0.15444346
53	0x3d09f019	0.03367624
54	0x3df0a3e1	0.117500074
55	0xbe1a1db2	-0.1505039
56	0x3e29f1ef	0.16596197
57	0xbdd4c5d4	-0.10389295
58	0xbe1067bb	-0.1410207
59	0x3e0928a1	0.13394405
60	0xbd127fea	-0.03576652
61	0x3e079d5b	0.1324362
62	0xbdf597da	-0.11991854
63	0x3e174f01	0.14776231
64	0x3e441567	0.1914879
65	0x3d2383b4	0.039920524
66	0x3e2473f3	0.16059856
67	0xbdf16920	-0.11787629
68	0xbce98914	-0.028507747
69	0x3d6f781e	0.058464162
70	0x3db89324	0.0901244
71	0xbdbe0572	-0.09278382
72	0x3de37127	0.111055665
73	0xbd67b725	-0.056571145
74	0xbdfef860	-0.124497175
75	0x3d062695	0.03275164
76	0xbe2b8163	-0.16748576
77	0xbe3d26ba	-0.18471804
78	0x3d9ab3ef	0.07553851
79	0x3d2a5477	0.04158446
80	0x3d542501	0.051793102
81	0xbd18c008	-0.03729251
82	0xbe0acc27	-0.1355444
83	0xbe1a77de	-0.15084788
84	0x3e2e076f	0.16995023
85	0xbe2e4368	-0.17017901
86	0x3cfd4734	0.030917741
87	0x3e256413	0.16151457
88	0x3e17c4cf	0.1482117
89	0xbde3aec2	-0.11117317
90	0xbd843d3c	-0.06456992
91	0xbe23a2ca	-0.15980068
92	0x3dfb4b1d	0.12270186
93	0xbe651170	-0.22369933
94	0xbe15e388	-0.14637578
95	0xbe069360	-0.13142157
96	0x3e23513a	0.15948954
97	0x3e0e8c54	0.13920718
98	0x3e0d67e7	0.13809167
99	0x3e1d5ba7	0.15366994
100	0xbdc46526	-0.09589605
101	0xbda428a4	-0.08015564
102	0xbde58a20	-0.11207986
103	0x3db0ab13	0.0862638
104	0x3d8f5abf	0.0699973
105	0x3d81ab78	0.06331533
106	0xbe178827	-0.14798032
107	0x3ce844bc	0.028353088
108	0xbd999f23	-0.07501056
109	0xbd15e0e9	-0.036591444
110	0xbd21273c	-0.039344057
111	0x3bcc0c9e	0.00622709
112	0xbe07e0f4	-0.13269407
113	0x3e2c6b1a	0.16837731
114	0xbd9b9355	-0.07596461
115	0x3d5ed967	0.05440655
116	0x3df4a27f	0.11945056
117	0x3db0e9ec	0.08638367
118	0x3e2108c9	0.15726008
119	0x3dc663bd	0.09686992
120	0x3e256a26	0.16153774
121	0x3cd65385	0.026162872
122	0x3ddbbf87	0.1072989
123	0xbd9ac9bb	-0.07558008
124	0xbdc5724f	-0.09640943
125	0x3dd01b68	0.10161477
126	0x3d7e39f0	0.062066972
127	0x3b24b397	0.0025131458

net.1.running_var f4 [128]
0	0x3e33d6b2	0.17562369
1	0x3e381159	0.17975368
2	0x3ec155d7	0.37760803
3	0x3eb8fc42	0.36129957
4	0x3ec5d58a	0.3863948
5	0x3ebf6468	0.3738129
6	0x3e0acce3	0.1355472
7	0x3ee2a67e	0.44267648
8	0x3e8026b5	0.2502953
9	0x3e4b5ef7	0.19860445
10	0x3ebca5fb	0.36845383
11	0x3e244309	0.16041197
12	0x3eb793f5	0.3585507
13	0x3e8d2983	0.27570733
14	0x3e61cf10	0.22051644
15	0x3e16523b	0.14679806
16	0x3e10e727	0.14150678
17	0x3e1d49b3	0.15360145
18	0x3eba1e07	0.36351034
19	0x3eac15c1	0.33610347
20	0x3e951a7d	0.2912177
21	0x3ea75ba3	0.326871
22	0x3e08f3e2	0.13374284
23	0x3ea6976c	0.325374
24	0x3ec8f0e0	0.39246273
25	0x3f139170	0.57643795
26	0x3e6d5dcf	0.23180316
27	0x3e3062bc	0.17225164
28	0x3e56dfd6	0.20983824
29	0x3e494ce5	0.19658239
30	0x3e0b38ea	0.1359593
31	0x3e3ba697	0.18325268
32	0x3e90e5aa	0.2830022
33	0x3e3c70dc	0.18402427
34	0x3e5c07b6	0.21487316
35	0x3e73129a	0.23737565
36	0x3edafc44	0.42770588
37	0x3ef414fc	0.4767226
38	0x3e596ca2	0.21232846
39	0x3e370238	0.1787194
40	0x3da31dab	0.07964643
41	0x3d8f6785	0.07002167
42	0x3ebfb4cf	0.37442634
43	0x3eab79d3	0.33491382
44	0x3ea43a8e	0.32075924
45	0x3eaf27ea	0.3421014
46	0x3e4aed0f	0.19816993
47	0x3ea39b3d	0.31954375
48	0x3e05b88a	0.13058677
49	0x3f2255e4	0.6341231
50	0x3f1c9867	0.6117005
51	0x3dfb6bda	0.122764304
52	0x3e45a816	0.19302401
53	0x3e20bc0f	0.15696739
54	0x3e00ac0a	0.12565628
55	0x3e8e14ee	0.27750343
56	0x3dd667fc	0.10469052
57	0x3ea50d31	0.32236627
58	0x3eab4eed	0.33458653
59	0x3e9b82fa	0.30373365
60	0x3e2fd1ab	0.17169826
61	0x3f16d8e4	0.589247
62	0x3e567752	0.20943955
63	0x3d9e61c0	0.07733488
64	0x3e9c2aef	0.30501506
65	0x3e81e1f2	0.25367695
66	0x3e3a3628	0.18184721
67	0x3ed8b2a4	0.42323792
68	0x3e362068	0.177858
69	0x3ec143dd	0.37747088
70	0x3e1f7149	0.15570559
71	0x3e7d9b9b	0.2476639
72	0x3e954ce8	0.29160237
73	0x3ec416ac	0.38298547
74	0x3ee4b20e	0.44667095
75	0x3df5fcbe	0.12011097
76	0x3e75500f	0.23956321
77	0x3e5fcc54	0.21855289
78	0x3e95d40c	0.2926334
79	0x3ec0708f	0.37585875
80	0x3e6eee14	0.23333007
81	0x3ea12377	0.3147237
82	0x3e67563e	0.22591493
83	0x3e91dadd	0.28487292
84	0x3e9b4845	0.30328575
85	0x3e5d1f05	0.21593864
86	0x3ea26e0b	0.3172458
87	0x3eb4e119	0.35327986
88	0x3e380498	0.17970502
89	0x3e193a2b	0.14963596
90	0x3e214083	0.15747266
91	0x3e0ef37b	0.13960068
92	0x3e42dd81	0.1902981
93	0x3f823475	1.0172259
94	0x3f04686d	0.5172184
95	0x3e6be5f1	0.23036934
96	0x3e7eee36	0.24895558
97	0x3ed1e34e	0.40993732
98	0x3e5b7574	0.21431524
99	0x3e98102a	0.29699832
100	0x3e6536cc	0.22384185
101	0x3eae16ed	0.34001866
102	0x3e27b5ca	0.16377941
103	0x3eff1b5e	0.49825567
104	0x3e0a19be	0.13486382
105	0x3f441ac2	0.7660333
106	0x3de5de7e	0.11224078
107	0x3d782c67	0.06058922
108	0x3ec78117	0.38965675
109	0x3e807cb2	0.25095135
110	0x3edbabf2	0.4290462
111	0x3e55b41e	0.2086949
112	0x3ef797aa	0.48357898
113	0x3e165553	0.14680986
114	0x3e1b2ae2	0.15153077
115	0x3eab1ea5	0.33421817
116	0x3eaff023	0.34362897
117	0x3ee27a66	0.44234008
118	0x3ec66fdd	0.3875722
119	0x3e03baf5	0.12864287
120	0x3eaee3ed	0.3415827
121	0x3e66b81a	0.22531167
122	0x3eee241f	0.46511933
123	0x3e985e9a	0.29759675
124	0x3dfa9088	0.122345984
125	0x3e403d93	0.18773489
126	0x3e539167	0.20660935
127	0x3e330d43	0.17485528

net.3.weight f4 [64, 128]
0	0xbd955898	-0.072922885
1	0xbbe3a872	-0.0069475705
2	0x3d62f0a1	0.055405263
3	0xbc3a4c14	-0.0113706775
4	0x3ab46c37	0.0013765161
5	0x3d4e11a9	0.05030981
6	0xbddf2a8c	-0.10896787
7	0xbc59ef93	-0.013301748
8	0xbcc5a8dd	-0.024128372
9	0xbd0d1d3c	-0.03445171
10	0x3c46c84e	0.012132717
11	0x3dadcdae	0.08486496
12	0x3b921602	0.00445819
13	0x3d539f76	0.051665746
14	0xbdd69e16	-0.10479371
15	0x3d30b725	0.04314341
16	0xbadcfc9c	-0.0016859951
17	0xbd906bdb	-0.07051822
18	0xbb90eac5	-0.004422518
19	0x3ceb711b	0.028740456
20	0xbabdd813	-0.0014483951
21	0x3d31b01e	0.04338085
22	0x3cb034de	0.021509584
23	0x3d9e7967	0.077379994
24	0xbba040bf	-0.004890531
25	0x3bb904f1	0.005646341
26	0x3cc177aa	0.02361663
27	0x3d4839f6	0.0488834
28	0xbd7d036b	-0.061770838
29	0xbd38ba35	-0.045099456
30	0xbdd7bee1	-0.10534454
31	0xbd7e55ae	-0.06209343
32	0xbda7e430	-0.0819782
33	0x3d0f3220	0.034959912
34	0xbd8c2411	-0.068428166
35	0xb97142e5	-0.00023008471
36	0xbbdb5ac8	-0.0066941716
37	0x3d3bdd89	0.04586557
38	0x3b10ddcb	0.0022104855
39	0xbd29741e	-0.041370504
40	0x3d56953b	0.05238841
41	0xbdb599a9	-0.08867199
42	0x3caed51c	0.021341853
43	0x3d810477	0.0629968
44	0x3d9e7d9e	0.07738803
45	0x3a00002c	0.0004882838
46	0xbdbf5147	-0.09341674
47	0x3d8c1586	0.06840043
48	0x3d410e7c	0.047132954
49	0xbd2ab4f7	-0.041676488
50	0xbce88ff5	-0.028388957
51	0xbdbfb2ce	-0.09360276
52	0x3cec5127	0.02884729
53	0x3bc5005d	0.006012006
54	0x3d25a233	0.04043789
55	0xbd5711db	-0.052507263
56	0xbd91cd38	-0.071192205
57	0xbd861896	-0.06547658
58	0xbdb103b1	-0.08643282
59	0xbd33602a	-0.04379288
60	0x3c1a59da	0.009420836
61	0xbd86623c	-0.065617055
62	0x3c08000d	0.008300793
63	0xbdd0e1b8	-0.101993024
64	0xbdbe4ea8	-0.09292346
65	0xbd8cf771	-0.06883133
66	0xbd505e8c	-0.050871417
67	0xbcc43476	-0.023950797
68	0xbd0bb7ab	-0.034110706
69	0xb8e202e6	-0.0001077706
70	0x3db546f4	0.08851424
71	0xbd09f029	-0.0336763
72	0x3c16b9fd	0.0091996165
73	0x3c977c62	0.018491928
74	0x3d36f2b0	0.04466504
75	0xbd7c593d	-0.06160854
76	0x3d5d6fcd	0.0540617
77	0xbdbfa6a2	-0.093579546
78	0xbd8aa2f4	-0.06769362
79	0x3c0a4d5e	0.008441297
80	0xbd734a5f	-0.059397098
81	0xbc408910	-0.011751428
82	0x3d290a21	0.041269425
83	0x3c6e8e2f	0.014560266
84	0x3da78399	0.08179397
85	0xbd8cc770	-0.06873977
86	0xbd6ea41b	-0.058261972
87	0xbb4c6a71	-0.0031191374
88	0xb9f96258	-0.00047566253
89	0xbd9ddf38	-0.07708591
90	0xbb8ba6b4	-0.004261816
91	0x3db700af	0.08935677
92	0xbd7b787c	-0.0613942
93	0x3d30333a	0.043017603
94	0x3ca6fd6c	0.020384513
95	0x3ca6ce44	0.020362027
96	0xbc7365c0	-0.014855802
97	0xbd6fe585	-0.058568496
98	0x3d137746	0.03600242
99	0xbc8f94b9	-0.017526971
100	0xbd6ae54f	-0.057347592
101	0x3d869924	0.06572178
102	0x3d6bb179	0.057542298
103	0xbd9cc837	-0.076553755
104	0x3db6b386	0.0892096
105	0x3ca73eb5	0.020415643
106	0x3c1b2769	0.009469845
107	0x3dad3440	0.084572315
108	0xbc15ac6f	-0.00913535
109	0xbd1dcdf9	-0.03852651
110	0x3d5ec7ce	0.054389767
111	0xbd6500aa	-0.055908836
112	0xbca48fce	-0.020088103
113	0xba37ba3f	-0.0007008649
114	0x3d9b7ee5	0.075925626
115	0x39568909	0.0002045968
116	0xbd3d0bf7	-0.04615399
117	0x3c65eda0	0.014033705
118	0x3b683482	0.0035431688
119	0xbdb3561a	-0.08756657
120	0x3d17ec34	0.037090495
121	0xbd5dc34d	-0.05414133
122	0xbc6e3b65	-0.014540528
123	0x3b9f6b3e	0.004865079
124	0xbd789aea	-0.060694613
125	0x3dbaeb02	0.091268554
126	0x3d19f701	0.037589077
127	0x3cb6c708	0.022311702
128	0xbd2ed936	-0.042687617
129	0x3cf024d1	0.02931443
130	0x3d4df95f	0.050286647
131	0x3d038479	0.032108758
132	0xbca0cf4a	-0.019630093
133	0xbb457670	-0.0030130409
134	0xbd2b1213	-0.041765284
135	0x3d87ae29	0.06625015
136	0x3d164cac	0.036694214
137	0x3d5d01ec	0.05395691
138	0x3cd421ff	0.025895117
139	0x3d8ca24b	0.068668924
140	0x3dd827b1	0.105544455
141	0x3d012092	0.031525202
142	0x3d73f112	0.059556074
143	0x3ced10a9	0.028938608
144	0xbd306a06	-0.04306986
145	0x3d4677e7	0.04845419
146	0x3d080880	0.03321123
147	0xbd3ccb1c	-0.046092138
148	0xbc7fc9fd	-0.015612123
149	0xbcc34e9f	-0.0238412
150	0xbd76d83a	-0.060264803
151	0x3d70154c	0.05861406
152	0x3d8f6e48	0.07003456
153	0xbc1dbe88	-0.009627946
154	0x3c9a95d6	0.018870275
155	0xbd26484d	-0.040596295
156	0x3c3ac790	0.0114001185
157	0xbcccbf4e	-0.024993565
158	0xbd4b6597	-0.04965743
159	0xbd1c7b3c	-0.038203463
160	0x3da3ab85	0.07991699
161	0x3b5a124c	0.0033275066
162	0xbd5c5738	-0.053794116
163	0x3cd32075	0.025772313
164	0xbd830fed	-0.06399522
165	0x3b8bb192	0.0042631114
166	0x3dba13af	0.090857856
167	0x3cf10363	0.02942056
168	0x3c87946e	0.016550269
169	0xbd9f6676	-0.07783215
170	0xbc215a43	-0.00984818
171	0x3d60f3f6	0.05492016
172	0xbd843d5c	-0.06457016
173	0xbcbb724f	-0.022881655
174	0x3d91e030	0.071228385
175	0x3cef4b1d	0.029210621
176	0x3d0b8ff4	0.03407283
177	0xbd6669fe	-0.056253426
178	0x3d92e646	0.071728274
179	0xbb4f1f40	-0.003160432
180	0x3d5e54a3	0.054279935
181	0x3d9d6376	0.07684986
182	0xbd89a5ef	-0.067211024
183	0x3cf414f4	0.029795147
184	0xbdbeb808	-0.09312445
185	0x3d8a3bb8	0.06749672
186	0x3d14d614	0.036336973
187	0x3cf16f97	0.029472155
188	0xbb89fd3d	-0.0042110966
189	0x3cfc0560	0.030764282
190	0xbb724ca6	-0.0036971956
191	0x3cebc0b6	0.028778415
192	0x3dd6842d	0.10474429
193	0xbd4a0345	-0.049319524
194	0xbb91b334	-0.0044464115
195	0x3ca29693	0.01984719
196	0x3cdcfd50	0.026976258
197	0xbc8ca38f	-0.017167835
198	0x3d4390f6	0.047745667
199	0xbbb98d1c	-0.0056625735
200	0x3c958473	0.018251633
201	0x3d35f628	0.044424206
202	0xbc6316e3	-0.013860437
203	0x3d918433	0.07105293
204	0x3da3fe4e	0.08007489
205	0x3d83c578	0.064341486
206	0x3c6dc6d1	0.014512734
207	0x3dcada5b	0.09904929
208	0xbcb92eaf	-0.022605268
209	0x3d45239a	0.048129655
210	0x3c89627f	0.0167706
211	0x3d8c5a5f	0.068531744
212	0xbd9e4ef8	-0.07729906
213	0x3bfc72a2	0.007704095
214	0xbcbc772a	-0.02300604
215	0x3d513135	0.051072318
216	0x3d56bd8b	0.052426856
217	0xbda18b89	-0.07887942
218	0x3bfa0fb3	0.007631266
219	0x3d27c108	0.040955573
220	0x3d47042b	0.04858796
221	0x3dc7baf0	0.097524524
222	0x3d9de1ca	0.077090815
223	0x3b5483e6	0.003242725
224	0x3d224310	0.039614737
225	0xbd7379b0	-0.059442222
226	0x3d8e782c	0.06956515
227	0xbbce7a89	-0.0063012284
228	0x3d865d95	0.06560818
229	0x3cb37f92	0.021911416
230	0x3bd09938	0.0063659213
231	0x3d8efc37	0.069817
232	0xbd7452a6	-0.059649132
233	0x3d790081	0.060791496
234	0x3d4d68e7	0.05014887
235	0xbc98109f	-0.018562613
236	0x3d489f96	0.048980318
237	0xbd718a7f	-0.05896997
238	0xbd69f780	-0.0571208
239	0x3cbceb8f	0.023061542
240	0x3d82b53d	0.06382225
241	0xbd44e448	-0.04806927
242	0x3d87e91c	0.06636259
243	0xbaa55445	-0.0012613615
244	0x3da66200	0.08124161
245	0xbdafc597	-0.08582609
246	0x3c49bc5c	0.012312975
247	0xbd3978a0	-0.045281053
248	0xbcce3af2	-0.025174592
249	0xbc2aa168	-0.010414459
250	0xbd941ab4	-0.07231656
251	0x3d94d319	0.07266826
252	0xbd17bb32	-0.037043758
253	0x3d0b268a	0.0339723
254	0xbd1a8db0	-0.03773278
255	0x3c7314bc	0.014836486

net.3.bias f4 [64]
0	0x3d97b2a8	0.07407123
1	0xbd092b96	-0.033488832
2	0xbdb14013	-0.08654799
3	0xbcdf9056	-0.027290504
4	0x3d7e699c	0.062112436
5	0x3cc8566c	0.024455272
6	0x3d9154bf	0.07096242
7	0x3d40497b	0.046945076
8	0xbdaeee4a	-0.08541544
9	0xbdb18e44	-0.08669713
10	0xbc106df8	-0.008815281
11	0xbd80e96c	-0.06294522
12	0xbd6a45b7	-0.05719539
13	0x3c0344ed	0.008012039
14	0xbc923913	-0.01784948
15	0x3d90858f	0.07056724
16	0xbd712ce2	-0.058880694
17	0x3d1d2fad	0.038375545
18	0xbd3dccfe	-0.046338074
19	0xbd3e4c03	-0.04645921
20	0x3d9ac2db	0.07556697
21	0x3c13898b	0.009004961
22	0x3dade5f9	0.084911294
23	0xbda29104	-0.07937816
24	0xbd0b39ee	-0.033990793
25	0xbd947295	-0.07248417
26	0x3d959f7a	0.07305808
27	0x3d499dd2	0.049222775
28	0x3a9da437	0.0012027089
29	0x3da6781e	0.08128379
30	0xbd704b17	-0.05866536
31	0xbd83c48e	-0.06433974
32	0x3d9db94f	0.077013604
33	0xbcbaa25e	-0.0227825
34	0x3d4c7935	0.04992028
35	0x3d1ef252	0.038805313
36	0x3cad7ed7	0.021178646
37	0xbd6aff6c	-0.057372496
38	0xbce8304d	-0.028343344
39	0x3d976124	0.07391575
40	0x3d141699	0.036154363
41	0xbca58e77	-0.020209534
42	0x3cf5a8db	0.029987743
43	0xbcabb905	-0.020962248
44	0xbc0e4373	-0.008683073
45	0x3c0de971	0.008661614
46	0x3d743fff	0.059631344
47	0x3da16d67	0.07882195
48	0x3d9ebe83	0.07751181
49	0xbca03256	-0.019555252
50	0x3c226923	0.009912762
51	0xbdab446a	-0.08362658
52	0xbc8d304a	-0.01723494
53	0x3b9d0b0a	0.0047925757
54	0xbd59a891	-0.053139273
55	0x3da04e3b	0.07827421
56	0xbd1203a7	-0.035648014
57	0xbd954dcf	-0.072902314
58	0xbd2f972d	-0.04286878
59	0xbc3d01fc	-0.011536118
60	0xbd8bf56f	-0.06833922
61	0x3d78753d	0.060658682
62	0x3c5b8dd9	0.013400518
63	0xbd582539	-0.052769873

net.4.weight f4 [64]
0	0x3f8b0105	1.0859686
1	0x3f732b92	0.9498836
2	0x3f8973db	1.0738481
3	0x3f8a768d	1.0817429
4	0x3f892c25	1.0716597
5	0x3f8b1e16	1.0868556
6	0x3f75ab75	0.9596475
7	0x3f8881d7	1.0664624
8	0x3f7426b9	0.95371586
9	0x3f8b53df	1.088497
10	0x3f88496b	1.0647405
11	0x3f89ba9b	1.0760072
12	0x3f737598	0.9510131
13	0x3f87ef9d	1.0619999
14	0x3f748b12	0.95524704
15	0x3f761816	0.961305
16	0x3f888169	1.0664493
17	0x3f747fdb	0.9550759
18	0x3f8c0bc2	1.0941088
19	0x3f891bd9	1.0711623
20	0x3f88760e	1.0661027
21	0x3f747cf9	0.95503193
22	0x3f8835ef	1.0641459
23	0x3f887932	1.0661986
24	0x3f766d94	0.9626095
25	0x3f8c1331	1.0943357
26	0x3f777e35	0.9667695
27	0x3f751082	0.95728314
28	0x3f8878b8	1.066184
29	0x3f885750	1.0651646
30	0x3f8992f9	1.0747977
31	0x3f88868e	1.0666063
32	0x3f72a3bd	0.94781095
33	0x3f8b2798	1.0871458
34	0x3f755882	0.9583818
35	0x3f88fcd1	1.0702153
36	0x3f8b35b8	1.0875769
37	0x3f73638b	0.95073766
38	0x3f8bb6f3	1.0915207
39	0x3f88f4a8	1.0699663
40	0x3f78b072	0.97144234
41	0x3f86dfc6	1.053704
42	0x3f73649d	0.950754
43	0x3f885af3	1.0652755
44	0x3f735157	0.9504599
45	0x3f74af1f	0.95579714
46	0x3f738199	0.95119625
47	0x3f75db52	0.9603778
48	0x3f74c1ad	0.95608026
49	0x3f896da4	1.0736585
50	0x3f885eb6	1.0653903
51	0x3f8bcd23	1.0921978
52	0x3f89c27d	1.0762478
53	0x3f886b29	1.0657703
54	0x3f72cf56	0.9484762
55	0x3f8b08bc	1.086204
56	0x3f891f2e	1.071264
57	0x3f8a02ac	1.0782065
58	0x3f7668e9	0.9625383
59	0x3f77e0ec	0.9682758
60	0x3f752f2a	0.9577509
61	0x3f880891	1.0627614
62	0x3f75b2bb	0.95975846
63	0x3f813881	1.0095369

net.4.bias f4 [64]
0	0x3dbd9066	0.092560574
1	0xbd422017	-0.047393885
2	0x3da306ae	0.079602584
3	0x3db1e528	0.08686286
4	0x3d9012a8	0.070348084
5	0x3db64f52	0.08901848
6	0xbd33864b	-0.043829244
7	0x3d92c59a	0.07166596
8	0xbd35c2ea	-0.044375338
9	0x3dc1add2	0.09456982
10	0x3d91178e	0.07084571
11	0x3da717c5	0.081588306
12	0xbd451f47	-0.04812553
13	0x3d8ce73a	0.068800405
14	0xbd4f20ab	-0.050568264
15	0xbd1e9e77	-0.038725343
16	0x3d8ef90e	0.06981097
17	0xbd4e1f66	-0.050322913
18	0x3dcc094c	0.09962711
19	0x3d9f98ee	0.07792841
20	0x3d96b8af	0.07359444
21	0xbd368299	-0.04455814
22	0x3d91313d	0.070894696
23	0x3d8db7db	0.06919833
24	0xbd190e86	-0.037367366
25	0x3dcd6e35	0.10030786
26	0xbd07107d	-0.03297471
27	0xbd2c7713	-0.042105746
28	0x3d8c7423	0.06858089
29	0x3d91315f	0.07089495
30	0x3da56f4a	0.08077867
31	0x3d8d8fac	0.06912169
32	0xbd6d3ff5	-0.057922322
33	0x3db70830	0.089371085
34	0xbd2ea396	-0.042636476
35	0x3d96afe9	0.07357771
36	0x3dbe6b36	0.092977926
37	0xbd4a9f42	-0.049468286
38	0x3dc5129b	0.09622689
39	0x3d9a5ce5	0.075372495
40	0xbce264e5	-0.027636
41	0x3d829f50	0.06378043
42	0xbd4fff14	-0.05078037
43	0x3d8c687e	0.06855868
44	0xbd67d454	-0.056598976
45	0xbd29e0fd	-0.04147433
46	0xbd4ba27d	-0.049715508
47	0xbd3505a5	-0.044194836
48	0xbd2babcc	-0.041911885
49	0x3da0e5fd	0.07856367
50	0x3d8d2d6e	0.06893431
51	0x3dc6041b	0.09668752
52	0x3d9fc831	0.07801855
53	0x3d8e130b	0.06937226
54	0xbd67f40d	-0.05662923
55	0x3dbc5dda	0.09197588
56	0x3d986393	0.07440867
57	0x3dac9fc1	0.08428908
58	0xbd15d3cb	-0.036578935
59	0xbd01f7d7	-0.0317305
60	0xbd2950cf	-0.04133683
61	0x3d8c48a5	0.06849793
62	0xbd26dc19	-0.040737245
63	0x3c8e070b	0.017337343

net.4.running_mean f4 [64]
0	0xbe997420	-0.2997141
1	0x3f21a7ee	0.63146865
2	0xbed1432e	-0.40871567
3	0xbe7276f4	-0.2367819
4	0xbf4fe44c	-0.8120773
5	0xbe929d05	-0.2863542
6	0x3e8d5503	0.2760392
7	0xbe78eb69	-0.24308552
8	0x3eb3562a	0.35026675
9	0xbe0104f6	-0.12599549
10	0xbda28514	-0.07935539
11	0xbead895c	-0.3389386
12	0xbdd41162	-0.10354878
13	0x3e4ea965	0.20181806
14	0xbe7f2ba2	-0.24918988
15	0x3ec093e6	0.37612838
16	0xbf51008f	-0.8164148
17	0xbe14a494	-0.14515907
18	0xbf41156f	-0.7542333
19	0xbefa2469	-0.48855904
20	0x3d392f10	0.045210898
21	0x3ed8236e	0.4221453
22	0x3dee99e2	0.116504446
23	0xbf1c193f	-0.6097602
24	0xbcdf5903	-0.027264124
25	0xbef56ded	-0.4793543
26	0xbd50d09c	-0.050980195
27	0x3e84a4ff	0.25907132
28	0x3df4d947	0.11955505
29	0xbe65c7d2	-0.22439507
30	0xbf27ffd5	-0.65624744
31	0xbec2090a	-0.3789752
32	0xbe78285e	-0.24234149
33	0xbec6843b	-0.3877276
34	0x3eb83199	0.3597534
35	0xbd7e072d	-0.062018562
36	0xbf0ae0e0	-0.5424938
37	0xbce5e55a	-0.028063465
38	0xbeea49bb	-0.45759377
39	0xbead8453	-0.33890018
40	0x3da3f2c5	0.08005289
41	0xbea8a64d	-0.32939377
42	0x3d50aa73	0.050943803
43	0xbf0bbefc	-0.54588294
44	0x3e352553	0.1769002
45	0x3eb07de7	0.34471056
46	0x3e903397	0.2816436
47	0xbeabd5cd	-0.33561555
48	0x3dc758f4	0.09733763
49	0xbeefa5d4	-0.46806204
50	0xbf1125b3	-0.5669815
51	0xbeff47cc	-0.49859464
52	0xbe57e4e1	-0.21083404
53	0xbe918475	-0.2842137
54	0xbe2140ce	-0.15747377
55	0xbe883d6c	-0.2660936
56	0xbde80c9f	-0.11330532
57	0xbf0bebed	-0.5465687
58	0x3d8e6ce9	0.06954367
59	0x3db61883	0.08891394
60	0x3e96032c	0.29299295
61	0xbe89d07e	-0.2691688
62	0xbd2344dc	-0.03986059
63	0xbe8a647a	-0.27029783

net.4.running_var f4 [64]
0	0x3e818adc	0.25301254
1	0x3e8ef640	0.2792225
2	0x3eb2911a	0.3487633
3	0x3e2ddd11	0.16978861
4	0x3e2579f1	0.16159798
5	0x3e8a2c9e	0.26987165
6	0x3e988600	0.29789734
7	0x3e4ac6af	0.19802354
8	0x3e233d19	0.15941276
9	0x3ebd00cd	0.36914673
10	0x3e4e52a2	0.2014871
11	0x3e79c9e2	0.24393418
12	0x3e52d05d	0.20587297
13	0x3e84f92b	0.2597135
14	0x3e9ac1c5	0.3022596
15	0x3e476907	0.19473659
16	0x3e64fafb	0.22361366
17	0x3e1dcd44	0.15410334
18	0x3e02ed34	0.12785798
19	0x3e6ce556	0.2313436
20	0x3e7f18fd	0.24911876
21	0x3e25af93	0.16180257
22	0x3e4801cc	0.19531935
23	0x3ea64f5e	0.32482427
24	0x3e052e71	0.13005997
25	0x3e5eacb1	0.21745564
26	0x3d9dbc25	0.07701901
27	0x3ebb2fe1	0.36559966
28	0x3ef20511	0.4726949
29	0x3e337d61	0.17528297
30	0x3e826768	0.25469518
31	0x3e5602bf	0.20899485
32	0x3f13a8c7	0.5767941
33	0x3eb4f97f	0.353466
34	0x3db84033	0.0899662
35	0x3ea126a7	0.31474802
36	0x3e973d28	0.29538846
37	0x3e644438	0.22291648
38	0x3e7c2677	0.24624048
39	0x3ef36ad2	0.47542435
40	0x3df818f8	0.121141374
41	0x3e54cbb7	0.20780836
42	0x3e056ae6	0.1302906
43	0x3e80c986	0.2515375
44	0x3e47379d	0.19454809
45	0x3e2b66d9	0.16738452
46	0x3e144d5f	0.1448264
47	0x3e9e8ebb	0.3096827
48	0x3e0dc749	0.13845553
49	0x3e8649e8	0.2622826
50	0x3ec49a8b	0.38399157
51	0x3f043935	0.5164979
52	0x3e449bf0	0.1920011
53	0x3e67f921	0.22653629
54	0x3e8d4d04	0.2759782
55	0x3e2eae75	0.17058738
56	0x3eb70c0a	0.35751373
57	0x3e19ee22	0.15032247
58	0x3e8e11c6	0.27747935
59	0x3eae1aa0	0.34004688
60	0x3e51d481	0.2049122
61	0x3e7220f6	0.23645386
62	0x3dc5b9b1	0.096545584
63	0x3ec18e4b	0.37803873

head.weight f4 [1, 64]
0	0x3d96de0e	0.07366572
1	0xbd508a84	-0.05091335
2	0x3dd1a8ac	0.1023725
3	0x3d6f4936	0.05841943
4	0x3d5ecf30	0.05439681
5	0x3d967d95	0.073481716
6	0xbb0f819a	-0.0021897317
7	0x3e1425ca	0.1446754
8	0xbd16ffee	-0.036865167
9	0x3d7ae3af	0.061252292
10	0x3e28077f	0.1640911
11	0x3db3a3ab	0.087714516
12	0xbd025328	-0.031817585
13	0x3e3bb99b	0.18332522
14	0xbc9e7963	-0.019344991
15	0x3b22af1c	0.0024823612
16	0x3e0d19c1	0.13779356
17	0xbca66d64	-0.020315833
18	0x3d8fce66	0.07021789
19	0x3ddd4dd8	0.10805863
20	0x3e0450d1	0.12921454
21	0xbcb9cfed	-0.022682155
22	0x3e388396	0.18018946
23	0x3e1e4acf	0.15458225
24	0x3bd15dc3	0.006389351
25	0x3d828ac6	0.06374125
26	0x3c4ea572	0.012612687
27	0xbc0a9660	-0.008458704
28	0x3e2e76db	0.17037527
29	0x3e1d5005	0.15362556
30	0x3dc274b4	0.094949156
31	0x3e332ea8	0.17498267
32	0xbd836aa6	-0.06416826
33	0x3d93f417	0.07224291
34	0xbbf2ac23	-0.007405774
35	0x3e05eb9d	0.1307816
36	0x3d9674e6	0.07346515
37	0xbd2a69c9	-0.04160479
38	0x3d8abd2c	0.06774363
39	0x3de72ee7	0.11288243
40	0x3c8f6c2c	0.017507635
41	0x3d469bb2	0.048488326
42	0xbcf82f4b	-0.030295989
43	0x3e2d153a	0.16902629
44	0xbd88bd69	-0.06676752
45	0xbca1bd7b	-0.019743672
46	0xbd2ea2fd	-0.042635906
47	0x3a6d8b22	0.0009061565
48	0xbc3e722a	-0.0116238985
49	0x3dd10693	0.10206332
50	0x3e2d97c5	0.16952427
51	0x3d900b42	0.07033397
52	0x3dba531b	0.09097882
53	0x3e1f6493	0.1556571
54	0xbd8c4137	-0.06848376
55	0x3d911eb3	0.070859335
56	0x3df42724	0.11921528
57	0x3dae1712	0.08500494
58	0x3b219d1d	0.0024660297
59	0x3c598520	0.013276368
60	0xbc30fb3b	-0.0108020855
61	0x3e3c2125	0.18372019
62	0x3b713790	0.00368068
63	0x3d141a99	0.036158178
