artifacts/model_exp-08_bn_do-0.1_20251104T051227Z.pt (torch, 58291 bytes, 13 tensors)

net.0.weight f4 [128, 29]
000000 c4 90 1d 3e 24 66 1c 3e 4d 89 13 bd 12 03 3e 3e
       0.15387255 0.15273339 -0.036019612 0.18555859
000010 e5 6b 2b bd d5 d3 9d 3c 1f 5b d7 bd 71 e9 fc 3d
       -0.041850943 0.019266048 -0.10515427 0.12349213
000020 a7 f0 19 3e 83 81 e6 bd d4 9e 24 3e 28 ce e4 3c
       0.15033208 -0.11255171 0.16076213 0.027930334
000030 0e 40 1b 3e 28 16 1d 3c 81 85 90 3d 8f 86 a8 bc
       0.15161154 0.009587802 0.07056714 -0.020571975
000040 9e 5a 12 3e 30 26 d0 3c eb 7b d2 bd 81 61 59 3d
       0.1429238 0.025408834 -0.10277542 0.053071503
000050 27 0e a9 bd 6d 38 15 bd 1e 8b 8e bd 5d 48 fc 3d
       -0.082546525 -0.036430765 -0.06960128 0.1231849
000060 b0 19 16 be f8 52 af bd ca c6 56 bd 96 aa e4 bd
       -0.14658237 -0.08560747 -0.052435674 -0.11165349
000070 bf 93 8f 3c b0 39 28 be e0 03 3e 3e b8 5f 3b be
       0.017526506 -0.16428256 0.18556166 -0.18298233
000080 34 d4 05 3e 38 76 46 3c 27 78 82 bd 39 cf ff 3d
       0.1306923 0.0121131465 -0.063705735 0.124906965
000090 34 0f 3a 3d ab e7 1b 3e d1 5b 45 3d dd 07 37 bd
       0.045424655 0.15225093 0.048183266 -0.044685233
0000a0 63 c1 f1 3c af d1 3b bd 29 17 82 3d 2f b9 33 3e
       0.02951116 -0.045854267 0.06352074 0.1755111
0000b0 5f 78 f7 3d 20 d0 95 bd e6 01 be 3d 89 d8 7c 3c
       0.12083506 -0.07315087 0.09277706 0.015432485
0000c0 bb 35 b7 3d c8 76 d7 bd ed 41 3b be a3 86 ac bd
       0.08945795 -0.105207026 -0.18286867 -0.084241174
0000d0 d8 d9 11 be f2 06 1c 3e 37 14 5b 3d ef 86 9d 3d
       -0.14243257 0.15237024 0.053486075 0.07691752
0000e0 02 8d 70 3d 4c b4 53 bb 32 94 38 3e a6 ab f9 bd
       0.058728226 -0.003230351 0.18025282 -0.121909425
0000f0 ba 17 c8 bb 86 dd 03 be e5 9c 4e 3d 5f bf 97 bd
       -0.006106344 -0.12877473 0.050442595 -0.07409548
000100 44 e4 84 3d b3 37 d3 bc 50 e1 1c 3e 2f 55 fe bd
       0.06488851 -0.025783395 0.15320325 -0.12418591
000110 3d 8e 99 bd e2 c1 f1 bd ff d9 30 3e ef 0b 2a 3d
       -0.07497833 -0.11804558 0.17270659 0.041515287
000120 e1 e6 36 3e d9 f7 05 be b2 19 24 be 5f a2 11 be
       0.17861511 -0.13082828 -0.16025427 -0.14222096
000130 18 ae 0b be 23 f4 c8 3d e7 e0 b2 3d 97 de 20 3e
       -0.1364063 0.098121904 0.08734303 0.15709911
000140 83 64 c9 bd fe a0 01 be f0 c7 c9 3d 79 b8 99 bd
       -0.09833624 -0.1265907 0.09852588 -0.075058885
000150 ca d0 e6 3d 27 7e 34 bd 27 8d d9 3d e5 e5 12 be
       0.11270292 -0.04406562 0.10622626 -0.1434551
000160 aa c1 27 bd 4e d4 7a 3d 54 41 20 3c 23 77 38 bd
       -0.040956177 0.061237626 0.0097812 -0.045035493
000170 79 08 da 3d 9a eb 07 3e 03 55 cf bd 65 d1 f9 bd
       0.10646147 0.13273469 -0.101236366 -0.12198142
000180 b1 ae 39 3e 87 fb 9e bd 7b e3 98 bd b0 3a 39 be
       0.18133046 -0.07762819 -0.074652635 -0.18088794
000190 0a 6c c8 bd 6f 15 7a 3d be 88 e3 bc 06 1c 0f be
       -0.09786232 0.061055597 -0.027775165 -0.13975534
0001a0 7c e2 e0 3b 24 d0 f0 bd cc c8 33 be a8 69 f1 bd
       0.0068629365 -0.1175845 -0.17557067 -0.117877305
0001b0 21 47 26 be 84 3b 01 be e1 13 3e 3e ea a8 0f 3d
       -0.16238071 -0.1262036 0.1856227 0.0350732
0001c0 86 63 6a 3d 10 5a 31 be 14 c6 f9 bd 3f 2c 7d bd
       0.05722382 -0.17319512 -0.121959835 -0.061809774
0001d0 f0 70 58 3d a0 09 27 be c6 ab aa bd 64 d4 f4 bd
       0.05284208 -0.16312265 -0.083335444 -0.11954573
0001e0 62 5f 6f bc 69 0f 99 bd 42 2c f5 bc bb da db bd
       -0.014610143 -0.074736424 -0.02992833 -0.10735079
0001f0 c1 f5 15 be 35 6a 8a bd 43 a2 42 bd e5 ad 14 be
       -0.14644529 -0.06758539 -0.047518026 -0.1451946
000200 9d 0e 21 3e a4 73 27 bd a2 54 1c 3e 21 a7 5e 3d
       0.15728231 -0.040881768 0.1526666 0.054358605
000210 16 86 1e be e1 34 f4 3d f8 63 55 bd a3 df 99 bd
       -0.15480837 0.11924148 -0.05209729 -0.075133584
000220 c8 46 1d be de 94 4c be 0c 55 15 3d 72 26 26 bd
       -0.15359032 -0.19978663 0.03645806 -0.040564008
000230 a8 0f 94 3d 02 0d 1c be a6 2c 0d 3e f1 94 0b be
       0.07229549 -0.15239337 0.13786563 -0.13631035
000240 35 56 03 bd 89 c7 f3 3c 2c d1 97 3d 34 27 16 3e
       -0.032064635 0.029758232 0.07412943 0.14663392
000250 aa 3d 42 3e 11 d0 05 be 71 6d 05 3d 54 ba 9d bd
       0.18968835 -0.13067652 0.032575075 -0.07701555
000260 6b e8 d6 bc 88 17 1c be 75 b2 23 3e fc 4f e9 bd
       -0.026233872 -0.15243351 0.15986045 -0.11392209
000270 e7 ff 98 3d d4 3c 4e 3d 70 44 70 3d 51 a5 d6 bd
       0.074706845 0.05035098 0.058659017 -0.1048075
000280 ea 0e 37 3e ff 7d ad 3d 0f 5c 44 3d ae d1 30 be
       0.17876783 0.084712975 0.047939356 -0.17267486
000290 e0 9f e7 3d 5c 58 0c 3c a6 c4 ac bd 9a 07 2c 3e
       0.113097906 0.008565988 -0.08435945 0.16799775
0002a0 a0 93 29 3d cb 69 d2 bd 97 7c c0 bd 26 4b 11 bc
       0.04140055 -0.10274085 -0.093987636 -0.008868014
0002b0 d9 58 d4 3d 70 5c 42 bd b4 dd ff bd ac 15 74 bd
       0.10368509 -0.047451437 -0.124934584 -0.05959098
0002c0 9b b8 24 be 33 91 af 3d 82 f4 1d 3e 69 81 38 be
       -0.16086046 0.085726164 0.15425304 -0.18018116
0002d0 e1 1a 27 3d 05 5c c0 3d 5f 2e 00 3d 5e 3f 2b bd
       0.040797118 0.09392551 0.031294223 -0.04180848
0002e0 38 59 92 3d 78 4a c4 3d 4d f0 3c 3d 93 86 4c bd
       0.071459234 0.09584516 0.046127606 -0.049933027
0002f0 04 c0 31 bd 26 42 0a 3d 4c 59 82 bc 94 59 8c bd
       -0.04339601 0.03375449 -0.01591172 -0.06853023
000300 6a 04 d3 3d 65 8c 27 3e 91 1c 08 bc 87 1c 4e bd
       0.10303576 0.1636215 -0.008307592 -0.050320175
000310 a9 a1 87 bc 85 a8 35 bc d8 db 36 3d e1 25 55 3d
       -0.016556578 -0.0110875415 0.044643253 0.052038077
000320 f5 b4 2c be b7 58 8c bd f4 21 20 3e f5 ce cf 3d
       -0.16865905 -0.068528585 0.15637952 0.10146896
000330 67 97 93 ba db ed fd bd b3 a2 02 be 2c d2 31 be
       -0.0011260331 -0.12398883 -0.12757377 -0.1736533
000340 f8 6a 52 bd 10 d8 9b 3d 81 eb f4 3d 70 6e b9 3d
       -0.051371545 0.0760957 0.11958981 0.090542674
000350 2c 49 0d be 12 27 b7 bd be fb 54 bd 48 3c 4b 3e
       -0.13797444 -0.08942999 -0.051997893 0.19847214
000360 69 a1 b1 3c 4d 0b e7 bc 41 2c 9f 3d 33 50 86 bd
       0.021683412 -0.02820363 0.07772113 -0.065582655
000370 54 f6 f4 bd b7 96 08 3e 7f 3d bd bd 50 98 21 bd
       -0.11961046 0.13338743 -0.09240245 -0.039451897
000380 0d 6e 2f be 60 80 e7 3d d6 10 10 3e e3 99 8a 3d
       -0.17131825 0.113037825 0.14068922 0.06767633
000390 8e 96 04 be 2b ab 3b be fe 6f 1a be e1 cb 0d 3e
       -0.12948057 -0.18327014 -0.15081784 0.13847305
0003a0 22 8d 90 3d 48 0c 17 3e ec 0f c9 3d c2 2d 64 3d
       0.07058169 0.14750779 0.0981749 0.0557077
0003b0 6d 72 b7 3b e3 04 33 be 0b cf 21 be 72 d6 11 be
       0.0055983574 -0.17482333 -0.15801637 -0.1424196
0003c0 a2 64 c0 3d 26 9d cc bd e8 bc 45 bd 2a e9 d8 bd
       0.09394194 -0.09990911 -0.04827586 -0.105913475
0003d0 bc 46 de bb 7d 1b 14 be ca a3 c4 bd 9c 10 ae 3d
       -0.0067833345 -0.14463611 -0.09601553 0.08499262
0003e0 7f d8 63 bd e4 0f f5 3d b6 65 7e bd 92 49 03 be
       -0.05562639 0.119659215 -0.062108718 -0.12821034
0003f0 4c b9 a2 bc 3c d1 df bd 98 db 53 bd 1e 06 35 be
       -0.019863747 -0.1092858 -0.051723093 -0.17678115

net.0.bias f4 [128]
000000 3a 10 9f bd b6 d5 13 3d b0 34 18 3e b2 24 3c bc
       -0.07766767 0.036092483 0.14863849 -0.011483358
000010 79 43 a0 3c 1f fc 64 3c 04 76 0d bb 48 04 e9 3d
       0.019563423 0.013976126 -0.0021585235 0.1137777
000020 d0 7e cd 3d 5e 52 ce bd 2b 06 35 3e 3b 87 dd 3d
       0.10033953 -0.10074304 0.17678134 0.10816809
000030 1d 9d f2 bc ea 94 25 3e 76 35 fb 3b a7 14 f7 3d
       -0.029615933 0.16170087 0.007666285 0.12064486
000040 63 30 20 be 55 5f 2d 3e 7b 95 31 3e a2 9d 0e be
       -0.15643458 0.16930898 0.17342179 -0.1392732
000050 e8 8e 2a be 22 9c 49 bd 26 55 e5 bd 7b 79 48 3d
       -0.16656077 -0.049221165 -0.111978814 0.048943978
000060 b8 b2 a8 3d fd 1d bd bc 1b 95 05 3e 7c 1a f5 3b
       0.08237213 -0.023085589 0.1304516 0.007479964
000070 26 36 5f bd 6f 9a 20 be 09 e2 7a 3d 33 b1 31 be
       -0.054495 -0.15683912 0.06125072 -0.17352752
000080 82 51 c2 b9 1c a2 d0 3c 4b 34 d9 bd 97 98 74 3d
       -0.00037063292 0.025467925 -0.10605677 0.059715834
000090 d3 86 17 3d 26 4a fd 3d 67 44 e8 3d 76 47 15 be
       0.036993813 0.12367658 0.11341172 -0.14578041
0000a0 d9 7e 0e be 88 3e 8e bd 58 4f 05 be 6d b0 6b 3d
       -0.13915576 -0.06945521 -0.13018548 0.0575413
0000b0 3e ce fe bd 6e df 11 be 38 43 5c 3d a4 31 e7 3d
       -0.12441681 -0.14245388 0.053775042 0.11288765
0000c0 56 3f 52 bd 94 72 3e be dd 37 da 3c 2d 05 c0 3d
       -0.051329933 -0.18598396 0.026637966 0.09375987
0000d0 c8 4f 15 3e 4f c2 a4 3c ca 59 05 3e 47 4b 27 be
       0.14581215 0.020112185 0.13022533 -0.1633731
0000e0 d9 e2 34 3e d8 c7 f4 bd e3 a2 fc bd 28 d4 09 3e
       0.1766466 -0.1195218 -0.12335756 0.13459837
0000f0 af f2 23 bd f4 32 ee 3d b5 c3 01 be 82 47 0c 3e
       -0.040026363 0.11630812 -0.12672313 0.13699153
000100 a4 32 33 3e e8 22 68 3d cf 25 18 3e d0 7f 09 be
       0.17499787 0.056673914 0.14858173 -0.13427663
000110 27 94 15 bd 02 40 5e 3d 80 20 dd 3d 5e 03 cf bd
       -0.036518242 0.05426026 0.107972145 -0.10108064
000120 61 b6 ed 3d 72 39 75 bd 94 52 c8 bd 7e b1 27 3d
       0.11607052 -0.059869237 -0.097813755 0.040940754
000130 8a f5 14 be 8e 3f 2e be ae bb 72 3d 94 9d 7f 3d
       -0.1454679 -0.17016432 0.059261017 0.062406138
000140 e2 d7 97 3d 8d 90 af bc 40 87 0a be 4c 1a 15 be
       0.07414223 -0.021431232 -0.13528156 -0.14560813
000150 0c 50 36 3e 55 91 23 be 40 f2 63 3d 5e 6c 1b 3e
       0.17803973 -0.15973409 0.05565095 0.15178058
000160 b7 8a 0f 3e e7 6d ef bd 93 c1 6c bd 38 92 17 be
       0.1401776 -0.11690884 -0.057801794 -0.14801872
000170 9f bd ef 3d 59 47 31 be 09 78 2d be 0e 93 fa bd
       0.11706089 -0.17312373 -0.16940321 -0.1223508
000180 6c bb 1a 3e 55 e6 f3 3d 58 57 01 3e c2 c0 10 3e
       0.15110558 0.11909167 0.12630975 0.14136031
000190 92 3b ae bd b3 7d d4 bd f9 6e e5 bd 01 d2 77 3d
       -0.08507456 -0.10375538 -0.11202807 0.06050301
0001a0 45 ea 8f 3d 5d 69 1d 3d a5 61 11 be 07 a1 85 3c
       0.07027105 0.03843056 -0.14197405 0.016312135
0001b0 d8 f1 c5 bd 50 5f 11 bd 42 5c f4 bc bb 51 19 3c
       -0.09665269 -0.035491288 -0.029829148 0.009357865
0001c0 89 58 25 be 63 f6 23 3e 7b 74 a5 bd 03 80 65 3d
       -0.16147055 0.16011958 -0.080788575 0.056030285
0001d0 3c d1 05 3e 2b 08 99 3d 09 1e 07 3e 81 93 d7 3d
       0.13068098 0.07472261 0.13195051 0.10526181
0001e0 0f 83 0d 3e 2a c3 24 3d 91 3f f3 3d c2 fd a6 bd
       0.13819526 0.040225185 0.11877359 -0.08153869
0001f0 cf 4e d6 bd e9 65 b8 3d 73 0a 3f 3d 27 12 f3 bb
       -0.1046425 0.09003813 0.046640825 -0.0074179354

net.1.weight f4 [128]
000000 a3 7e 81 3f 97 4b 7b 3f 92 d9 7e 3f 03 31 81 3f
       1.0116771 0.98162216 0.99550736 1.0093082
000010 b4 0f 75 3f 81 a3 80 3f d0 76 83 3f 23 34 78 3f
       0.95727086 1.0049897 1.0270634 0.96954554
000020 25 b6 75 3f c0 8b 83 3f dc 06 78 3f 57 dc 80 3f
       0.95981055 1.0277023 0.96885467 1.0067242
000030 1b fc 83 3f 3a 40 7c 3f ce 25 7c 3f 68 61 81 3f
       1.0311311 0.985355 0.98495185 1.0107851
000040 10 85 7d 3f da 34 79 3f f7 75 85 3f 1d df 78 3f
       0.9903116 0.9734627 1.0426625 0.97215444
000050 3f 30 81 3f 61 84 7f 3f 24 80 7e 3f 7c a7 7c 3f
       1.0092849 0.9981137 0.9941428 0.9869306
000060 e0 e8 81 3f 72 ea 80 3f 79 da 81 3f ce af 83 3f
       1.0149193 1.0071547 1.0144798 1.0288026
000070 e3 22 7d 3f 89 79 82 3f b3 2d 80 3f 7b 6d 7a 3f
       0.9888136 1.019334 1.0013946 0.97823304
000080 ea 0a 81 3f 49 a2 7d 3f b8 e1 7e 3f 87 5d 81 3f
       1.0081456 0.9907575 0.9956317 1.0106667
000090 07 6d 79 3f 70 90 7e 3f ff 3f 82 3f 32 2a 7d 3f
       0.9743199 0.99439144 1.017578 0.9889251
0000a0 c2 76 7f 3f 15 2b 80 3f ce 27 81 3f 00 c4 7f 3f
       0.99790585 1.0013148 1.0090272 0.9990845
0000b0 aa a3 81 3f 90 83 7f 3f 36 18 7d 3f c5 d1 7e 3f
       1.0128071 0.99810123 0.9886507 0.9953883
0000c0 3d 4e 83 3f b8 bb 83 3f 3d 30 85 3f 41 a7 78 3f
       1.0258251 1.0291662 1.0405346 0.9713021
0000d0 a6 68 82 3f 34 8b 82 3f 8a 26 81 3f 65 e0 7d 3f
       1.0188186 1.0198731 1.0089886 0.99170524
0000e0 0f 12 7d 3f aa cc 82 3f 7f 2f 84 3f ce 8b 82 3f
       0.9885568 1.0218709 1.0326995 1.0198915
0000f0 f7 50 7f 3f 29 6e 7c 3f 36 93 80 3f 38 ae 7b 3f
       0.9973292 0.9860559 1.0044925 0.9831271
000100 17 5c 76 3f e8 64 7c 3f a6 72 7d 3f b3 6f 80 3f
       0.9623427 0.9859147 0.99003065 1.0034088
000110 02 0a 7c 3f f5 4c 78 3f 6b 32 80 3f 61 da 7d 3f
       0.9845277 0.9699243 1.0015386 0.99161345
000120 8a 5f 80 3f 38 8b 77 3f b2 37 80 3f ff 18 84 3f
       1.0029156 0.96696806 1.0016997 1.0320128
000130 ba 4b 81 3f 57 9b 81 3f 09 f9 79 3f 66 3a 84 3f
       1.0101235 1.0125531 0.9764562 1.0330322
000140 d9 6a 7e 3f dd 64 81 3f 56 bd 7e 3f 73 d5 82 3f
       0.99381787 1.0108906 0.99507654 1.022139
000150 eb e5 80 3f b6 49 7c 3f 99 90 7c 3f 87 9e 80 3f
       1.0070165 0.98549974 0.9865814 1.0048379
000160 71 e6 7d 3f 6e 64 80 3f ba 70 7e 3f 47 e1 84 3f
       0.9917975 1.0030649 0.9939076 1.0381249
000170 20 18 7c 3f 78 13 82 3f 27 29 7f 3f 39 73 80 3f
       0.9847431 1.0162191 0.9967217 1.0035163
000180 ae 57 7e 3f 72 59 7d 3f b7 73 83 3f 5b 44 7f 3f
       0.9935254 0.9896461 1.0269688 0.9971368
000190 3b 65 81 3f 9a f8 78 3f 73 b7 7b 3f 67 50 82 3f
       1.0109018 0.97254336 0.98326796 1.0180787
0001a0 19 cf 7a 3f d2 8b 7f 3f de e9 81 3f 80 e4 79 3f
       0.97972256 0.99822724 1.0149496 0.9761429
0001b0 d7 2a 80 3f eb 1e 7e 3f fb 77 80 3f 0a 3e 7f 3f
       1.0013074 0.9926593 1.0036615 0.9970404
0001c0 2d fb 7a 3f cd 61 7b 3f 72 17 81 3f b0 e8 82 3f
       0.98039514 0.9819611 1.008528 1.022726
0001d0 ae 0a 81 3f fd 11 7d 3f 64 4e 7c 3f 1a 1d 82 3f
       1.0081384 0.9885557 0.98557115 1.0165131
0001e0 05 29 77 3f 24 01 7c 3f 74 67 7e 3f 9d 24 7d 3f
       0.96546966 0.9843924 0.99376607 0.9888399
0001f0 44 07 83 3f c7 32 7d 3f 24 f1 7e 3f 5d 3e 7d 3f
       1.0236592 0.98905605 0.995867 0.98923284

net.1.bias f4 [128]
000000 be 92 0c 3c fc 63 c7 bc 0b 0a 0c 3c 8c a4 b9 3b
       0.008579908 -0.024339668 0.008547316 0.0056653675
000010 b6 c4 5e bd 2d 70 13 3c 4c e6 9d bc da f6 b9 bc
       -0.054386817 0.008998913 -0.019274853 -0.022700716
000020 58 50 2d bd c5 8a e4 3c 12 33 1e bc 3d 96 b4 bc
       -0.04231295 0.027898202 -0.009655731 -0.022044295
000030 64 e5 06 bc df fe 96 bc 69 4a a4 bc fd 0a 98 3c
       -0.008233402 -0.018432079 -0.020055013 0.018559927
000040 af 1e 72 bc b0 51 b5 bc db e1 17 3d eb ab 8f bb
       -0.014777823 -0.022133678 0.037080627 -0.004384508
000050 59 a1 9d 3b 71 19 ae bc ec 55 76 3b d6 9f ec bb
       0.004810494 -0.021252366 0.0037587835 -0.0072212024
000060 29 27 aa ba 3f 8a 58 3b e6 37 89 bc 4e e6 da 3c
       -0.0012981641 0.0033041385 -0.016750287 0.026721146
000070 59 06 c3 3b 8c 15 ab ba b0 ba 8d 3c 93 37 1b bc
       0.0059516844 -0.0013052686 0.017300934 -0.009473699
000080 c9 13 0e 3b 2f ef ae 3a 8a 7d f4 3b dc be 8b 3b
       0.0021679273 0.0013346429 0.0074612545 0.0042646956
000090 49 b3 3c bc 90 fb 98 bc ce 8a 53 3b 28 d9 9c 3a
       -0.011517354 -0.018674642 0.003227878 0.0011966573
0000a0 a5 d2 29 bc c0 ac 97 3c 16 6d d1 bb a0 09 80 bc
       -0.010365163 0.01851499 -0.006391178 -0.01562959
0000b0 34 d7 fa bb 83 8e 01 3c d8 00 52 bd f2 81 b5 3a
       -0.0076550487 0.007907513 -0.051270336 0.0013847931
0000c0 a0 c2 af 3c ba 1b e4 3b 8e 20 8c 3c 41 55 9e bb
       0.02145511 0.006961313 0.017105367 -0.0048319404
0000d0 b4 5a 78 b9 08 df 45 3c 24 e4 c4 3c f9 06 bf bc
       -0.00023684913 0.012077101 0.024034567 -0.023318755
0000e0 09 01 2f 3c 48 96 e2 bb c4 57 2c 3d b7 89 80 3c
       0.010681399 -0.0069148876 0.042075887 0.015690668
0000f0 24 74 5a 3c 83 ec 48 3b 32 a4 bb 3c b6 8f 57 bc
       0.013333354 0.003065855 0.022905443 -0.013156822
000100 8e ac 96 bc f7 2d b4 bc 7d 6d 8e 3b b2 fa 42 3b
       -0.018392827 -0.021994574 0.004346548 0.0029751477
000110 a6 5c d9 3b 01 6d ee bc 5c ae b0 3c 2e 48 4f 3b
       0.006633359 -0.029104711 0.021567516 0.0031628716
000120 3b 27 f4 ba 74 82 b1 bc 62 7e 2b bc 94 37 ad 3c
       -0.0018627414 -0.02166865 -0.010467144 0.021144666
000130 9f 04 da 3b 55 c4 3f bd 3b 17 86 bb 78 91 d1 3b
       0.006653383 -0.046818096 -0.0040921248 0.006395515
000140 3a 3d 88 bd ae ad 7f 3c cf 37 95 3c 63 7c 02 3c
       -0.06652303 0.015605373 0.018215088 0.007964226
000150 f8 dd 12 3c 90 ba 2c bc f0 6f b7 3b 5b 24 88 bc
       0.008964054 -0.010542527 0.005598061 -0.016618898
000160 85 ff 08 3c da 85 b3 3b 3f 19 8d 3c 78 62 24 bc
       0.008361702 0.005478603 0.017223952 -0.010033242
000170 27 e3 6f bb 7e ae 3a 3c c4 8a fd bb 45 ad c2 3c
       -0.00366039 0.011394141 -0.0077374894 0.023764262
000180 ad 06 59 bc 9e 07 06 bc 56 b7 b9 bb 1e d5 16 bc
       -0.013246221 -0.008180527 -0.0056676073 -0.009206085
000190 b3 08 2d bc df 65 d7 bc be d0 84 bb e8 eb 9c bc
       -0.010561156 -0.026293693 -0.0040532043 -0.019155458
0001a0 89 db 37 bc 98 16 80 3c b9 72 cb 3b 91 df a3 bb
       -0.011221775 0.015635774 0.0062087444 -0.0050010164
0001b0 84 5a f5 bb a5 97 59 3a 18 79 90 bb ec 70 9a bc
       -0.007487597 0.000830049 -0.0044089667 -0.018852673
0001c0 60 de 09 3c 1f fb 04 bc 78 14 9c 3b 27 cd 7e 3c
       0.008414835 -0.008116513 0.0047631823 0.015551842
0001d0 fd 71 27 3d 04 bc 98 bc 45 e7 5e 3c fd 4b 78 3c
       0.040880192 -0.01864434 0.013604944 0.015154836
0001e0 24 9a 36 3a 1c 13 1f bc b6 8c dd 3b f5 95 e9 3b
       0.0006965718 -0.009709146 0.006761159 0.007128472
0001f0 f8 a7 1c 3c 5e 24 5a bc 14 9e 42 3c 34 f9 60 bc
       0.009561531 -0.013314335 0.011878509 -0.01373129

net.1.running_mean f4 [128]
000000 16 67 b8 bd ba 15 45 3d e2 d7 18 3e 5c e5 9e bb
       -0.09004037 0.048116423 0.14926103 -0.004849119
000010 63 e7 c6 3c dc a2 37 ba dd 1e 26 3c a7 22 f8 3d
       0.024280256 -0.0007005164 0.010139194 0.121159844
000020 35 b0 c9 3d e6 eb c3 bd d9 65 2c 3e 23 44 f0 3d
       0.09848062 -0.095664784 0.16835727 0.11731746
000030 da 2b 97 bc 83 2d 24 3e 60 92 1b 3d b4 4c f2 3d
       -0.018453527 0.16032986 0.03798139 0.11831036
000040 f0 92 21 be 9f a0 2b 3e 9c 8f 3a 3e f6 dc 0b be
       -0.15778708 0.16760491 0.18218845 -0.13658509
000050 68 33 24 be e4 68 82 bd f0 27 dc bd 4a 95 48 3d
       -0.16035235 -0.063676625 -0.10749805 0.0489705
000060 aa 8b 94 3d 80 68 0c bd 24 8a f0 3d b7 21 89 3b
       0.07253201 -0.034279346 0.11745098 0.0041849273
000070 b4 6b 81 bd 5f b8 16 be 3b 84 57 3d 71 57 2f be
       -0.06319371 -0.1471877 0.05261634 -0.171232
000080 0a 0b 13 3c e1 c5 04 3d 3f fd bc bd 96 ae 50 3d
       0.0089748 0.032415275 -0.0922799 0.050947748
000090 4f a8 72 3d 4a 15 10 3e 4c f3 f2 3d ce 07 11 be
       0.059242543 0.14070621 0.118628114 -0.14163134
0000a0 0b af 17 be 96 1f 92 bd cb 6c 16 be 18 21 99 3d
       -0.14812867 -0.07134931 -0.14689939 0.07477015
0000b0 73 fe 15 be 1f ef 1b be 38 2f 5e 3d b4 07 db 3d
       -0.14647846 -0.15227936 0.05424425 0.10694829
0000c0 a6 37 40 bd c2 02 51 be f8 1f fb 3c d0 d1 d0 3d
       -0.04692807 -0.20411208 0.030654892 0.101962686
0000d0 7e 67 03 3e c9 48 55 3c 2f 30 0b 3e 4b 6a 2a be
       0.12832448 0.013017842 0.135926 -0.1664211
0000e0 61 64 25 3e 0d 44 fe bd 8f 34 0c be 51 50 f1 3d
       0.16151573 -0.124153234 -0.13691925 0.11782897
0000f0 68 94 41 bd f3 65 ea 3d 77 f6 14 be 6a 89 16 3e
       -0.04726067 0.114452265 -0.14547144 0.14700857
000100 2e 96 31 3e ed 1d 8c 3d 4b 8d 20 3e f0 00 16 be
       0.17342445 0.068416454 0.15678899 -0.14648795
000110 77 bc fb bc ed de 52 3d 43 32 bf 3d 12 e6 d8 bd
       -0.030729515 0.05148213 0.093357585 -0.105907574
000120 25 e8 e1 3d ca 9f 80 bd ee ea bc bd 9c 5d 21 3d
       0.11030606 -0.06280477 -0.09224497 0.039395913
000130 92 d0 15 be 34 b6 25 be 5a 50 49 3d 61 50 9b 3d
       -0.14630345 -0.16182786 0.049148895 0.075836904
000140 30 d0 8f 3d 21 24 e7 bc 1e 6f db bd e5 19 0e be
       0.070221305 -0.02821547 -0.10714553 -0.13877065
000150 d8 05 31 3e 44 d6 0d be 82 3e 84 3d ff 20 18 3e
       0.17287385 -0.13851267 0.06457235 0.14856337
000160 d4 7f f3 3d 4d fd f7 bd 6b 64 7c bd ad 3e 1a be
       0.11889616 -0.1210886 -0.061619204 -0.15062971
000170 4a c9 fd 3d 34 d5 2f be 65 0d 20 be 78 f9 f3 bd
       0.123919085 -0.17171174 -0.1563011 -0.11912817
000180 d1 df 21 3e 3b 9e e9 3d f2 86 ec 3d d1 f8 0a 3e
       0.15808035 0.11407133 0.11549176 0.13571478
000190 b9 c7 a0 bd e7 af ee bd 04 0a e3 bd 69 1c 74 3d
       -0.07850594 -0.116546445 -0.11085895 0.059597407
0001a0 e0 00 96 3d 6c 49 9a 3c 93 67 10 be b3 2f 8a 3c
       0.07324386 0.018833838 -0.1410201 0.016868448
0001b0 aa 4c c3 bd e9 09 0d bd 10 40 d4 bc 5a 56 63 3c
       -0.09536107 -0.03443328 -0.025909454 0.013875568
0001c0 5b bb 21 be 27 e2 1b 3e 86 85 85 bd aa 82 1e 3d
       -0.15794127 0.15222989 -0.06519608 0.03869883
0001d0 13 a4 13 3e de 2d be 3d 32 7e 12 3e f2 0c f1 3d
       0.14418058 0.09286092 0.14305952 0.11770047
0001e0 88 03 07 3e 68 30 10 3d 79 62 ff 3d 2e c0 bd bd
       0.13184941 0.035202414 0.12469954 -0.09265171
0001f0 39 2e c3 bd c1 93 9c 3d 5c d5 27 3d 30 44 ed 3a
       -0.09530301 0.07645369 0.04097496 0.0018101986

net.1.running_var f4 [128]
000000 ef fd 33 3e a3 34 45 3e 4d 4f bc 3e 71 47 dc 3e
       0.17577337 0.1925836 0.36779252 0.43023255
000010 9d 68 e8 3e b8 95 06 3f d2 a9 2f 3e 38 6b ab 3e
       0.45392314 0.525722 0.17154625 0.3348024
000020 ad 0f 90 3e d7 3c 6a 3e 4e ba da 3e e1 2c 34 3e
       0.2813696 0.22874771 0.42720264 0.17595245
000030 74 ec ac 3e e9 5e 8a 3e e8 4f 2f 3e cc fa f5 3d
       0.3377415 0.27025536 0.17120326 0.12010726
000040 4b e4 ff 3d 08 39 15 3e cf f8 b1 3e 90 89 d1 3e
       0.12494715 0.14572537 0.34760138 0.40925264
000050 14 b1 a7 3e 67 ca a7 3e 9e 0e 49 3e 4c af af 3e
       0.32752287 0.32771608 0.19634482 0.34313428
000060 b4 2a c0 3e e4 77 07 3f 49 5a 91 3e 11 6c 74 3e
       0.3753258 0.52917314 0.28389195 0.23869349
000070 64 ee 7e 3e 5e aa 62 3e ee 3f 08 3e 15 6f 31 3e
       0.24895626 0.22135302 0.13305637 0.1732753
000080 a3 c6 6a 3e 53 d6 d9 3d 91 51 70 3e e0 a9 88 3e
       0.22927336 0.10636582 0.23468615 0.26692104
000090 fb 28 d8 3e 1d eb c7 3e 51 8e be 3e 43 8a 60 3e
       0.42218766 0.39046565 0.37217954 0.21927743
0000a0 d7 04 a1 3d e9 1f bd 3d d0 3a 98 3e 53 1b 89 3e
       0.07862251 0.09234602 0.2973237 0.2677866
0000b0 ca d3 9d 3e 94 14 b2 3e c7 49 40 3e 87 13 ab 3e
       0.30825645 0.34781325 0.18778144 0.33413336
0000c0 85 59 73 3e 0d 73 31 3f 32 8f 21 3f 5b 87 0a 3e
       0.23764618 0.6931618 0.63109124 0.13528197
0000d0 95 17 81 3e c1 3e 03 3e 9d b0 24 3e 36 78 60 3e
       0.25213304 0.12816907 0.16082998 0.21920857
0000e0 88 d9 e8 3d a5 7e 99 3e 7a 80 ad 3e 43 dc a8 3e
       0.11369616 0.29979435 0.33887082 0.32980546
0000f0 f3 42 36 3e 73 16 0d 3f 91 66 32 3e c4 df e6 3d
       0.17798977 0.5511238 0.17421938 0.11273149
000100 2c d2 90 3e 5d 21 84 3e 4e 7c 75 3e e8 9e 81 3e
       0.28285348 0.25806704 0.239732 0.25316548
000110 d6 93 3b 3e c0 d5 a2 3e 10 42 21 3e a2 c9 86 3e
       0.18318114 0.31803703 0.15747857 0.2632571
000120 27 a3 69 3e 71 55 c9 3e 75 1a ba 3e 8b 64 d6 3d
       0.22816144 0.39323 0.3634831 0.10468396
000130 3b 51 5e 3e 48 3b 81 3e 9e 40 b9 3e 69 08 c6 3e
       0.21710674 0.2524054 0.36182112 0.3867829
000140 0e 67 75 3e ad 54 9f 3e 61 2f 62 3e d8 a3 97 3e
       0.23965093 0.3111929 0.22088386 0.2961719
000150 49 e9 a5 3e 46 28 6b 3e 7e 44 7d 3e be 5b 9e 3e
       0.32404545 0.22964582 0.24733159 0.3092937
000160 1e 44 3c 3e 99 20 21 3e 4c ae 2d 3e a2 83 3e 3e
       0.1838536 0.15735091 0.1696102 0.18604901
000170 b7 c1 21 3e 09 e4 61 3f 4a 22 11 3f 2a 4b 5f 3e
       0.15796553 0.8823858 0.56692946 0.21806017
000180 a5 5d 87 3e a0 84 c1 3e a9 32 95 3e e2 e4 c5 3e
       0.26438633 0.37796497 0.29140213 0.38651186
000190 fd 08 4b 3e 5f ab bb 3e c1 92 3e 3e 86 9f dc 3e
       0.19827648 0.36654183 0.1861067 0.43090457
0001a0 03 e8 53 3e f3 9a 36 3f 22 7b 39 3e cb 9f aa 3d
       0.20693974 0.71330184 0.18113378 0.08331259
0001b0 2e 13 ea 3e 7f 21 75 3e dc 16 03 3f 8e fb 5a 3e
       0.45717758 0.23938559 0.51206756 0.21385023
0001c0 48 33 00 3f ec de 1d 3e 70 b8 09 3e 6b 4d a0 3e
       0.5007825 0.15417069 0.13449264 0.31309065
0001d0 4d b1 9c 3e 61 aa f5 3e a1 27 e0 3e d7 00 17 3e
       0.3060402 0.4798155 0.43780234 0.14746414
0001e0 7c 97 9e 3e 3c a9 b6 3e a1 69 c9 3e d0 39 a5 3e
       0.30974948 0.3567599 0.393384 0.3227067
0001f0 5b 51 f4 3d 6c 0e 28 3e 12 95 89 3e f3 78 23 3e
       0.1192958 0.16411752 0.26871544 0.15964107

net.4.weight f4 [64, 128]
000000 45 f6 27 bd f3 dd ef 3c 46 ce 9a 3d 6e dd 20 bd
       -0.041006345 0.029280638 0.07558875 -0.03927367
000010 16 e3 05 bb c2 4b 14 3d f3 ed 98 bd ee b0 72 bc
       -0.0020429543 0.03620506 -0.0746726 -0.014812691
000020 c6 79 9a 3c 3c 03 17 bd fb 58 25 3d 27 54 d7 3d
       0.018856894 -0.03686832 0.04036806 0.10514098
000030 91 25 76 3c 11 88 65 3d 72 b4 94 bd 9a 2e 7b 3c
       0.015023605 0.056037966 -0.0726098 0.015330935
000040 fa f5 95 bc 19 90 20 bd ee 03 f8 3c 5a 5e 48 3c
       -0.018305767 -0.039199922 0.030275311 0.012229526
000050 3d 6b af bb 4f 07 ba 3c 8c 07 1e 3c f4 d1 96 3d
       -0.00535336 0.022708563 0.009645354 0.07364264
000060 5b cf c9 3c 5d 67 30 bc 7d 6a e5 bb 37 5c cf 3c
       0.024635008 -0.010766831 -0.00700122 0.025312526
000070 67 dc bd bd cc cc 06 bd 22 13 b2 bd 51 e7 7c bd
       -0.09270554 -0.032910153 -0.086950555 -0.061744038
000080 d4 b8 d9 bd 4b 92 82 3d a7 46 8e bd d9 3a 47 bc
       -0.10630956 0.063755594 -0.069470696 -0.0121600265
000090 23 8c 11 3c d9 42 79 3d 12 5d 39 3d d6 8c 94 bd
       0.008883509 0.060854767 0.045254774 -0.07253425
0000a0 c7 cb a1 3d b6 90 94 bd 67 af 21 3b 31 56 8c 3d
       0.079001956 -0.07254164 0.0024671198 0.06852377
0000b0 a5 05 82 3d 48 22 c8 bc 1b 49 83 bd 9e 47 42 3d
       0.06348733 -0.02443041 -0.06410428 0.04743158
0000c0 51 94 94 3d ec 77 d0 bd b0 33 7c bb a9 a4 b4 bd
       0.072548516 -0.10179123 -0.0038482957 -0.08820469
0000d0 a4 c6 0f 3d 48 4c 74 3d 75 c1 1d 3d bb 1d 7b bd
       0.035101548 0.05964306 0.038514573 -0.06130765
0000e0 1b ca c6 bd 16 12 be bd f9 d4 8e bd bb 46 88 bc
       -0.09706517 -0.09280793 -0.06974215 -0.01663529
0000f0 76 97 47 3d f3 c6 b0 bd 75 fe 16 bd 36 0b cf bd
       0.04872843 -0.086316966 -0.036863763 -0.1010956
000100 be cb a6 bd b4 3d 2d bd 94 dd fc bc bb 25 86 bd
       -0.081443295 -0.042295173 -0.030867375 -0.06550165
000110 a1 91 93 bc e5 41 f9 3b d1 f1 a9 3d 81 e4 88 3b
       -0.018013777 0.007606732 0.08298076 0.0041776304
000120 87 21 c6 3c 42 f6 ed ba 3a f1 c1 3d b9 98 aa bd
       0.024185909 -0.0018155056 0.094698384 -0.08329911
000130 53 9a a1 3d 38 7d 7c bd b1 53 b3 bd 5f 45 f8 3c
       0.07890763 -0.061642855 -0.08756197 0.030306516
000140 3b c6 f3 bc 7d 2e a7 ba bb 7b 6c 3d 6b 51 bb 3c
       -0.02975761 -0.0012754943 0.057735186 0.022865972
000150 19 2b 91 3d 01 1d 22 bd 39 04 0d bd ba 69 61 bc
       0.07088298 -0.03957844 -0.034427855 -0.013758117
000160 da 76 00 bd d3 b4 74 bd 09 e8 d6 bc 93 2b c9 3d
       -0.031363346 -0.05974276 -0.02623369 0.09822764
000170 69 20 d1 bc f4 47 98 3d b5 e0 1e 3d 13 ae bf 3c
       -0.02552815 0.07435599 0.038788516 0.023398435
000180 88 df 5b 3b 88 6b 5c bd 82 b5 b7 3c 5b ea 28 bd
       0.0033549983 -0.053813487 0.022425417 -0.041239124
000190 f9 5e ef bc e2 ac 83 3d fb b7 7f 3d b3 fa be bd
       -0.029220091 0.06429459 0.062431317 -0.09325161
0001a0 92 75 84 3d 62 d1 b5 bb b0 af df 3c d8 42 a6 3d
       0.06467737 -0.005548642 0.027305454 0.08118218
0001b0 a5 03 e6 bc a1 58 9d ba b8 17 51 3d d7 03 0a bd
       -0.02807791 -0.0012004563 0.05104801 -0.03369507
0001c0 78 ab c0 3a 38 8c 49 bd c2 52 b9 3d 1f 74 21 3d
       0.0014699539 -0.04920599 0.09048988 0.039417382
0001d0 16 a0 10 bd b9 a4 b7 bc 58 18 1e bd 45 8a e3 bc
       -0.03530892 -0.022417413 -0.038597435 -0.027775893
0001e0 d4 3d 40 bb a9 48 fe bc d4 6a 1e 3c 21 e1 0d bd
       -0.0029333727 -0.031040506 0.0096690245 -0.034638528
0001f0 ed 44 5b bd 1a b2 7c 3d 38 c6 59 3c ed fb 4b 3d
       -0.05353253 0.06169329 0.013291888 0.049800802
000200 3a ec 70 bd 5f a9 f4 3c 74 88 47 3d 73 8f 0e 3d
       -0.058819033 0.029865919 0.048714116 0.034804773
000210 3a fc cd bc 4f 73 e4 3b b2 a7 55 bd 1e b6 65 3d
       -0.025144685 0.0069717537 -0.05216188 0.056081884
000220 86 85 f5 3c bf ca 33 3d 4e 57 d0 3c 1d 89 9e 3d
       0.029970895 0.043894526 0.025432255 0.07740996
000230 34 fc ea 3d a4 cd b8 3c 66 77 8d 3d 03 dc 2d 3d
       0.11473885 0.022558995 0.06907539 0.042446148
000240 0d 25 3f bd 67 a1 3c 3d 87 dd e1 3c 50 97 59 bd
       -0.046666194 0.046052363 0.027571453 -0.05312282
000250 be c2 4b bb e6 a7 9c bc 8c dc 28 bd fb de 71 3d
       -0.0031091417 -0.019123029 -0.041225955 0.05905054
000260 bc 8f 8c 3d f2 67 d7 ba d5 c0 d5 3c 45 45 df bc
       0.06863353 -0.0016434176 0.026092926 -0.02725471
000270 f0 12 9d 3c 18 3c 31 bc d8 9a 7a bd 0d 20 08 bd
       0.01917407 -0.01081755 -0.061182827 -0.03323369
000280 ee 3f a7 3d b6 52 1c bc ac 3a 31 bd b6 63 f4 3c
       0.081664905 -0.009541204 -0.043268844 0.029832702
000290 03 ce 67 bd c5 55 fe 3b 08 7c b1 3d 58 ef 06 3d
       -0.056592952 0.0077616894 0.08666235 0.0329431
0002a0 d9 d8 fc 3c 10 9b 73 bd 26 44 9e bb be af 5e 3d
       0.03086512 -0.05947405 -0.0048299013 0.05436682
0002b0 1f 00 88 bd 8d a0 f8 bc 3a 48 65 3d 26 25 17 3d
       -0.06640648 -0.030349994 0.055977084 0.036900662
0002c0 2f 24 03 3d ab 09 4e bd 9d 41 9d 3d c7 f2 b7 bc
       0.03201693 -0.05030219 0.0767853 -0.022454632
0002d0 f5 29 0c 3d 7e 04 85 3d ad db 6c bd 58 f9 cd 3c
       0.0342197 0.064949974 -0.057826687 0.02514331
0002e0 37 12 b8 bd f9 b5 90 3d 2f 67 d0 3c 1e f1 dd 3c
       -0.08987849 0.070659585 0.025439827 0.027092513
0002f0 1d 2d 8f bc d8 da 35 3d 3a df be bc 7e 00 fe 3c
       -0.017477566 0.04439816 -0.023299802 0.031006094
000300 4f f5 ce 3d 3c c1 27 bd b5 fd 8b bc 87 3a e6 3c
       0.10105383 -0.040955767 -0.01708875 0.02810408
000310 6d 07 56 3c eb 9f 60 bc 6b 4c 5a 3d 2e 50 97 bb
       0.013063294 -0.013710002 0.053295534 -0.0046177125
000320 56 6e b0 3c 50 2c 6e 3d ab 1a 9e bc c6 81 8f 3d
       0.021536987 0.05814773 -0.019299826 0.07007174
000330 4f ab af 3d cd 0c 7d 3d ba 40 a6 3b ce 71 cf 3d
       0.085775964 0.061779786 0.005073634 0.101291284
000340 08 50 97 bc 90 fc f9 3c ad 8e 37 3c d8 93 6e 3d
       -0.018470779 0.030515939 0.01120345 0.058246464
000350 70 5e 9a bd e0 e9 22 3c d8 b5 ea bc 81 6f 94 3d
       -0.07537544 0.009943455 -0.028651163 0.0724783
000360 a0 c7 4a 3d 23 80 9c bd b5 61 cd 3b 85 55 62 3d
       0.049506783 -0.07641628 0.006267751 0.05525734
000370 51 a4 fe 3c 91 64 b5 3d b9 a3 8d 3d 05 ab 09 3c
       0.031084212 0.08857072 0.06915993 0.008402591
000380 b8 9d 24 3d 1a ed 89 bd f2 c3 90 3d 42 f7 46 bb
       0.040189475 -0.06734677 0.070686236 -0.003035978
000390 42 b3 8d 3d ae 34 f3 3c bf fe 10 3d a3 81 92 3d
       0.06918956 0.029688206 0.035399195 0.071536325
0003a0 ff 20 5b bd 76 b0 39 3d c6 44 50 3d 47 42 b9 bc
       -0.053498264 0.045334302 0.050846837 -0.022614611
0003b0 f8 18 74 3d 8c e3 93 bd bc bc 3d bd b9 f9 ce 3c
       0.059594125 -0.072211355 -0.04632257 0.025265561
0003c0 86 18 79 3d 0e f1 42 bd ba 32 77 3d fa cc 52 bc
       0.060814403 -0.04759317 0.06035111 -0.012866253
0003d0 45 11 a0 3d 86 36 98 bd 78 94 95 3c 89 7b 2f bd
       0.07815794 -0.074322745 0.018259272 -0.04284242
0003e0 1d 7b 4e bc 06 01 d1 3b 6b 70 76 bd 1a 44 ad 3d
       -0.012602595 0.006378296 -0.060165804 0.08460255
0003f0 a9 a4 48 bd 62 5d 0b 3d 28 fc 00 bd b8 6d c8 3c
       -0.048985157 0.034024604 -0.031490475 0.02446638

net.4.bias f4 [64]
000000 69 54 92 3d 87 02 e9 bc bb 58 b0 bd af cb ff bc
       0.07145006 -0.028443588 -0.08610674 -0.031225054
000010 18 8a 71 3d df 77 dd 3c 07 16 9c 3d e5 8c 49 3d
       0.058969587 0.027034698 0.07621389 0.049206633
000020 31 83 b6 bd 72 de ad bd 9d bd bb bc a9 de 70 bd
       -0.089117415 -0.08489694 -0.022917563 -0.058806095
000030 fb 3a 6c bd 58 86 b8 3b 15 db cc bc a8 6a 93 3d
       -0.057673436 0.0056312494 -0.02500681 0.071980774
000040 3a d6 57 bd 5b 28 30 3d 1a 95 2d bd 85 ab 2e bd
       -0.052694537 0.043007236 -0.042378522 -0.042644043
000050 5b a0 9c 3d 8e c9 15 3c 51 ab af 3d 42 77 84 bd
       0.07647773 0.009142293 0.08577598 -0.06468059
000060 a0 15 f3 bc 00 2f 9f bd fd 94 8f 3d 62 14 3d 3d
       -0.029673398 -0.077726364 0.07010839 0.046162017
000070 fe e8 09 3b a1 f3 b6 3d b3 be 63 bd 03 29 96 bd
       0.0021043415 0.08933187 -0.055601787 -0.07332041
000080 aa c2 9f 3d 13 47 c9 bc 20 e5 72 3d de 72 34 3d
       0.07800801 -0.024570024 0.059300542 0.04405486
000090 ce 9d cf 3c e6 28 5c bd d0 0c 02 bd c9 30 a0 3d
       0.025343802 -0.05374994 -0.0317505 0.07821805
0000a0 6f 71 14 3d a7 99 bc bc e0 8d f1 3c d6 1b d1 bc
       0.03624099 -0.023022486 0.029486597 -0.025525969
0000b0 3c e2 6e bc 5d b2 1e 3c 3e 23 60 3d 35 07 b5 3d
       -0.014580306 0.00968608 0.05472111 0.08839265
0000c0 49 0e ab 3d 1e 78 97 bc ae 64 9f 3b 36 b2 b0 bd
       0.08352334 -0.018489894 0.004864297 -0.08627741
0000d0 bb db 4e bc 16 d1 f4 3b 84 13 6e bd 8a 8b 9a 3d
       -0.01262563 0.007471214 -0.05812408 0.07546146
0000e0 9c 94 23 bd 55 c2 94 bd 3d 30 27 bd 1d e6 7e bc
       -0.039936647 -0.072636284 -0.040817488 -0.015557793
0000f0 40 74 98 bd bc 57 6b 3d 9f 35 29 3c 95 ca 61 bd
       -0.07444048 0.057456717 0.010327726 -0.055124838

net.5.weight f4 [64]
000000 4b 11 8b 3f 0b b5 71 3f 7f 8b 88 3f 33 5e 8a 3f
       1.0864652 0.94416875 1.0667571 1.0809997
000010 53 63 8a 3f e2 c0 8b 3f 76 98 75 3f 24 ba 87 3f
       1.0811561 1.0918238 0.9593576 1.0603681
000020 c6 1e 72 3f 40 6c 8a 3f ec 3a 87 3f 49 70 89 3f
       0.94578207 1.0814285 1.0564857 1.0737392
000030 f3 3e 72 3f 40 57 87 3f 70 a3 73 3f 32 4c 76 3f
       0.946273 1.0573502 0.9517126 0.96210015
000040 b4 ae 87 3f 2c 00 74 3f 7f 99 8c 3f 23 7e 88 3f
       1.060019 0.9531276 1.0984343 1.0663494
000050 52 56 87 3f 70 97 73 3f c4 35 86 3f 9f 44 87 3f
       1.0573218 0.9515295 1.0485158 1.0567816
000060 e1 ef 76 3f 5e bd 8c 3f 7f e5 77 3f 97 a6 74 3f
       0.96459776 1.099529 0.9683456 0.95566696
000070 31 35 87 3f 9d a5 87 3f e4 b3 89 3f 68 e9 86 3f
       1.0563108 1.0597416 1.0758023 1.053998
000080 0f 37 71 3f c7 78 8b 3f a0 e7 74 3f 46 1d 88 3f
       0.9422464 1.0896233 0.9566593 1.0633934
000090 8f 32 8b 3f 5f 0d 72 3f 3e 97 8c 3f 51 c2 88 3f
       1.0874804 0.9455165 1.0983655 1.0684301
0000a0 19 50 7a 3f 5d 12 88 3f 06 59 72 3f 41 2f 87 3f
       0.9777847 1.0630604 0.9466709 1.0561296
0000b0 48 ae 71 3f ab f3 73 3f 29 e8 71 3f ff d4 75 3f
       0.9440656 0.9529368 0.94494873 0.9602813
0000c0 a8 20 74 3f 58 39 89 3f 5f 01 87 3f bb 1e 8c 3f
       0.9536233 1.0720625 1.0547293 1.0946878
0000d0 fa ab 89 3f a9 46 87 3f cd 83 71 3f 20 17 8b 3f
       1.0755608 1.0568439 0.9434174 1.0866432
0000e0 81 8b 88 3f 9c 7d 89 3f 9a 68 76 3f d9 8d 78 3f
       1.0667573 1.0741458 0.9625336 0.9709144
0000f0 fe ba 74 3f c0 39 87 3f 4c de 75 3f fb 94 82 3f
       0.9559783 1.0564499 0.96042323 1.0201715

net.5.bias f4 [64]
000000 bd 60 d5 3d 12 59 60 bd 48 f4 ad 3d 6e 40 cd 3d
       0.10418842 -0.054772444 0.084938586 0.100220546
000010 f6 58 b3 3d 9a e3 ca 3d 1e 16 31 bd 1d bd 98 3d
       0.08757202 0.09906693 -0.043233983 0.074579455
000020 8d 7c 63 bd 56 48 dc 3d e1 ac 8f 3d 6c 64 ae 3d
       -0.055538703 0.107559845 0.07015396 0.08515248
000030 0e 19 5c bd 75 b7 8e 3d 95 d0 59 bd dc b3 1b bd
       -0.05373483 0.069685854 -0.053177435 -0.038013324
000040 00 32 97 3d 73 0a 54 bd 0b 16 e3 3d 2f 88 a7 3d
       0.073825836 -0.051767778 0.11088189 0.08180272
000050 f1 9e 9a 3d c1 34 3c bd cf 60 8d 3d 1b b1 8a 3d
       0.07549847 -0.045948748 0.069032304 0.067720614
000060 f0 40 0c bd ac 6d ec 3d fd a1 f4 bc bb 36 33 bd
       -0.034241617 0.11544356 -0.029862398 -0.043753367
000070 72 ab 92 3d d1 c8 94 3d 5a 20 b6 3d 28 80 8c 3d
       0.07161607 0.07264865 0.08892889 0.06860381
000080 57 fe 83 bd 29 dc cb 3d a9 7c 34 bd 99 69 95 3d
       -0.06444996 0.099541016 -0.044064198 0.07295532
000090 d9 94 db 3d 5d d6 68 bd 6f b2 dc 3d e9 e8 a0 3d
       0.1072175 -0.056845058 0.10776221 0.07856924
0000a0 37 5d bb bc 02 ed af 3d fd 85 59 bd da 4e 8b 3d
       -0.022871597 0.085901275 -0.053106297 0.06802149
0000b0 e5 0f 81 bd 0d 24 3d bd b7 f7 63 bd ff e4 32 bd
       -0.0630186 -0.04617696 -0.05565616 -0.04367542
0000c0 1b 53 32 bd 1c f8 a9 3d d4 db 92 3d ae 42 da 3d
       -0.043536287 0.08299276 0.07170835 0.106572494
0000d0 b3 81 b5 3d d4 2f 8d 3d 59 0e 81 bd f7 dc cc 3d
       0.08862629 0.06893888 -0.06301565 0.10003083
0000e0 bc db 9c 3d 32 71 b9 3d ec 70 13 bd 4a 54 e5 bc
       0.076590985 0.090547934 -0.035996363 -0.027994294
0000f0 29 7f 34 bd 0b 13 88 3d 3a 88 27 bd 11 1e 20 3d
       -0.044066582 0.06644257 -0.0409014 0.039091174

net.5.running_mean f4 [64]
000000 0a 88 fa bd f2 7f 28 3f ac f9 cc be 6a 96 b7 be
       -0.12232979 0.6582023 -0.40034235 -0.35856944
000010 ac 4a 66 bf f7 75 bf be e3 1e 84 3e a2 8b 93 be
       -0.8995769 -0.37394688 0.25804815 -0.2881747
000020 81 0f 1e 3c 32 de 20 3b 0e 68 11 bd 58 a3 81 be
       0.009647251 0.0024546501 -0.035499625 -0.25319934
000030 88 22 21 be b8 1b 3a 3e e0 ec 76 be 70 00 fc 3e
       -0.15735829 0.18174636 -0.24113798 0.49219084
000040 ea 29 5c bf 6c b1 23 be 1a dc 33 bf 70 6c e8 be
       -0.86001456 -0.1598565 -0.70257723 -0.4539523
000050 da e5 4d 3d 0f 32 f0 3e ac 0e 1d bb 0e f5 0b bf
       0.05026803 0.46913192 -0.0023965044 -0.546708
000060 04 c6 c0 bb 4b f8 1e bf 3b ac e9 bd d8 68 b5 3e
       -0.0058829803 -0.62097615 -0.114098035 0.35431552
000070 18 dc 22 be 7c a1 c3 be c6 ff 55 bf f5 d3 e0 be
       -0.15904272 -0.3820914 -0.83593404 -0.4391171
000080 91 09 78 be f9 f0 7c be 27 37 cf 3e 41 9c 78 bd
       -0.242224 -0.24701299 0.40471765 -0.06069589
000090 68 fa d7 be eb 0b ed bd 5c a1 08 bf 68 7d b3 be
       -0.42183232 -0.11574539 -0.53371215 -0.35056615
0000a0 26 3f 3e 3e 80 0d d3 be f6 ca d8 3d 7b ea 2e bf
       0.18578777 -0.41221237 0.10585587 -0.6832654
0000b0 ec 4f f3 3c 76 59 b8 3e bd ef 41 3e c2 69 b3 be
       0.029701196 0.36005753 0.18939109 -0.35041624
0000c0 32 22 4d 3d e4 0e 02 bf c2 d6 3f bf 19 8d 52 bf
       0.05008144 -0.5080397 -0.7493707 -0.8224655
0000d0 cd 48 f2 be 34 86 cc be 3e c6 38 be f4 04 a7 be
       -0.47321168 -0.3994614 -0.18044373 -0.32620966
0000e0 2d f1 66 be 34 32 11 bf 05 95 59 3d 16 7a 13 be
       -0.22552939 -0.5671723 0.05312063 -0.14402041
0000f0 90 71 b9 3e 70 27 7e be c9 cb cc bd a2 96 03 bf
       0.36219454 -0.24819732 -0.099998064 -0.5140172

net.5.running_var f4 [64]
000000 24 53 99 3e 0b 7f a6 3e 32 08 09 3f 18 f9 77 3e
       0.29946244 0.325188 0.5352813 0.24216115
000010 2d e0 41 3e 51 13 a6 3e 4e a2 5e 3e da 25 94 3e
       0.18933173 0.32436612 0.21741602 0.28935128
000020 b6 b6 17 3e c3 18 74 3e c0 be d7 3e b8 a3 95 3e
       0.14815792 0.23837571 0.42137718 0.2922647
000030 55 ed 88 3e f0 35 23 3f ff f4 ee 3e 18 86 45 3e
       0.2674357 0.6375418 0.46671292 0.19289434
000040 7a 70 a9 3e d6 2e 7b 3e a8 b1 3d 3e 31 d5 8d 3e
       0.33093625 0.24529585 0.18524802 0.27701715
000050 63 7a b4 3e de 2e 2c 3e 4d d6 95 3e 0c f2 c4 3e
       0.35249624 0.16814753 0.2926506 0.38465917
000060 58 3c 2d 3e 6e a1 9f 3e 5d 08 32 3e 0a 0a fa 3e
       0.1691755 0.3117785 0.17386003 0.48835784
000070 63 01 2d 3f 5b 07 af 3e bd e8 8f 3e 30 3e 95 3e
       0.6758024 0.341853 0.28107253 0.29149008
000080 aa 55 4f 3f 0a 06 ec 3e b3 d2 c2 3d 58 f5 ae 3e
       0.8099009 0.46098357 0.09512844 0.34171557
000090 a9 a3 9e 3e 75 0b b2 3e 7c d6 ce 3e be 57 3b 3f
       0.30984238 0.34774366 0.40398014 0.7318076
0000a0 4f e1 21 3e 8a 27 bf 3e 6c 5f 28 3e f3 57 e6 3e
       0.15808605 0.37334853 0.1644265 0.44988975
0000b0 f4 4f c1 3e 88 ec 8d 3e a0 16 36 3e 22 44 b4 3e
       0.37756312 0.27719522 0.17782068 0.3520823
0000c0 8e 25 27 3e 0e 5b 86 3e e8 19 a4 3e 90 eb b6 3e
       0.1632292 0.26241344 0.32051015 0.35726595
0000d0 e8 d1 3f 3e ad fd c9 3e 38 27 e5 3e a2 d2 51 3e
       0.18732417 0.39451352 0.44756484 0.20490506
0000e0 3f 1a 11 3f 97 15 a5 3e fb 69 a8 3e 0f 46 8c 3e
       0.56680673 0.32243034 0.32893357 0.273972
0000f0 c0 c9 70 3e 64 88 0a 3f 49 0a 37 3e 41 c6 bb 3e
       0.23514462 0.54114366 0.17875017 0.36674693

head.weight f4 [1, 64]
000000 df 4e 99 3d 3a 30 29 bd fa 59 c9 3d 0b 0b 6f 3d
       0.074857466 -0.041305758 0.09831615 0.05836014
000010 57 ed 6f 3d 54 24 9d 3d cc 59 8d 3b 28 d9 0f 3e
       0.058575954 0.07672945 0.004313683 0.14047682
000020 1f ab ae bc b6 64 72 3d b3 8d 21 3e bc 1c b2 3d
       -0.021321831 0.059178077 0.1577671 0.08696887
000030 34 8c b1 bc b1 15 38 3e 9d 27 23 bc 4b 72 37 3c
       -0.0216733 0.17977025 -0.009958175 0.011196683
000040 5a 94 08 3e 75 a4 72 bc f2 f0 96 3d 01 13 d8 3d
       0.13337842 -0.014809717 0.073701754 0.105505
000050 c3 6f fc 3d 7e 17 59 bc 60 b5 2b 3e eb d9 16 3e
       0.12326004 -0.01325023 0.16768408 0.14731567
000060 26 eb 80 3c 25 b3 89 3d 31 1d 86 3c f0 74 cb 35
       0.015737128 0.06723622 0.016371341 1.5158712e-06
000070 b1 e8 26 3e 4d 7f 19 3e ca f7 c4 3d 16 12 29 3e
       0.16299702 0.14989968 0.096175745 0.16510805
000080 41 ec 64 bd c5 59 99 3d bb 64 41 ba 14 f8 00 3e
       -0.05588937 0.07487825 -0.0007377376 0.12594634
000090 f0 b9 98 3d 96 a9 fe bc 65 11 91 3d 94 fe e5 3d
       0.0745734 -0.031086724 0.07083396 0.112301975
0000a0 70 25 d6 3c ff ed 54 3d cd 00 ab bc 6c bd 25 3e
       0.026140898 0.051984783 -0.020874405 0.1618554
0000b0 fe df 6a bd a2 04 3a bc 7f 2b fe bc f0 2b b2 3b
       -0.05734252 -0.011353644 -0.0310266 0.0054373667
0000c0 ef 24 96 39 3b 03 d0 3d 75 52 25 3e 78 be 93 3d
       0.00028637747 0.10156866 0.16144736 0.072140634
0000d0 01 35 bb 3d ad 98 18 3e e3 f3 7a bd d3 01 94 3d
       0.09140969 0.14901991 -0.061267745 0.072269104
0000e0 3d 5b ee 3d 77 95 ab 3d 5d 4b 18 3c 43 4e 9b 3c
       0.11638496 0.083781175 0.009295312 0.018958217
0000f0 ec a1 74 bb 5d e9 36 3e 32 6b 22 3c af 4d 27 3d
       -0.0037327958 0.17862459 0.009913253 0.04084557
