artifacts/model_exp-02_wd-1e-5_20251104T051224Z.pt (torch, 52157 bytes, 5 tensors)

net.0.weight f4 [128, 29]
00000000: 2e3e 1d3e a9a5 183e 65c7 5ebd 8b1b 0d3e
00000010: 9637 98bd 4bca 5b3d b0be d8bd 635a 1c3e
00000020: d2ad 483e 6053 0fbe 12ea 2b3e bb93 8a3d
00000030: 6d07 2e3e 45ca fd3b 7749 813d efc6 2cbd
00000040: cc03 463e ee89 763d 68fc 7dbd acfd 9f3d
00000050: d2b4 3fbd ff8a e5bc 5752 50bd 6edf cc37
00000060: fdc7 adb9 b5aa fbb1 32bf 8e2e 101a 1db6
00000070: 51d8 4a2d 4f1f 4abe ecfc 293e 4c75 32be
00000080: 0a74 e93d f824 283c 3854 99bb 268b 033e
00000090: 4cd7 5e3d 185d 363e 428e 0c3d 3bc9 1dbd
000000a0: f9eb 633d 4c3f d7bc 0c11 853d 06cf 213e
000000b0: 4af1 ff3d a191 d2bd 76bc e73d 5e79 273d
000000c0: a5a5 cb3d 1894 f0bd 81d2 0dbe 1e02 82bd
000000d0: ecd4 73b9 6f67 073a 9422 e72c 1e67 fcb0
000000e0: eeb2 6c2e 7dbb e6ab 2742 253e 5cf3 0dbe
000000f0: c472 aebc 5658 17be 3790 4f3d 972a 82bd
00000100: 4e61 513d fb9e 89bd 07f8 333e dec6 e6bd
00000110: a0ca c5bd 6e42 b4bd 5b8d 2e3e 1819 573d
00000120: bd2d 3b3e 2da8 23be 161e 48be 9c0e e7bd
00000130: 0527 bebd 18fc ac3d 1bbe 643d f41c 183e
00000140: 9cb5 babd 9fb1 28b8 9e21 bcb3 0c1c 8630
00000150: 5af3 4f36 85c2 dead 8bb4 a134 7bae 4fbe
00000160: d6b0 87bd 3d9c 643d 45bb b73c b9b8 31bd
00000170: 7c27 b13d 9ebb af3d f66b 04be ca65 0fbe
00000180: 47b4 413e 3449 7cbd 3168 61bd 2900 00be
00000190: b18e e4bd 4b37 403d 2789 f0ba f724 14be
000001a0: a903 d13c 06ca d2bd 14a8 18be 08e1 e5bd
000001b0: cd6c 50be 7801 f3bd 11d5 4c3b 6038 bfad
000001c0: 7666 2e2f f369 eaba 4d9b a8b7 cfdc 952f
000001d0: e866 eb3a 1761 0cbe f780 e2bd 462f 1cbe
000001e0: 51c7 d7bc 336e 5cbd efb5 9e3b 5986 41be
000001f0: 32fe 28be 3625 0cbe 767c edbd 53c2 20be
00000200: e3ab 213e 3de5 22bd e07e 263e 851c 9c3d
00000210: 8440 36be ae49 133e b0c1 fabc e548 95bd
00000220: 7f9b 2cbe cc2d 29be 7f48 e33c 19ec 432e
00000230: 92a9 af2f 29a1 07ba dc41 1e39 6205 07b9
00000240: 32e7 49ad b4af a13c e079 a43d 9982 093e
00000250: 15a1 173e 984e 2abe 6647 853d 9b0a 84bd
00000260: cb91 a6bc 628e f8bd ff8d 193e 1766 fcbd
00000270: 45ae b03d 27da 793d 0ca3 713d 65d9 a2bd
00000280: 25a8 213e 7c6b ab3c 57fa 993b 04c9 28be
00000290: 4c9d 673d 0ba2 49bd 03ec 88bd f57c 113e
000002a0: 5779 80ae cc20 4133 e643 d832 9bf4 abab
000002b0: fd91 0132 fe0c 2cae e4c4 f6bd b0ef 93bd
000002c0: 36c6 1fbe bc81 483d 30dc 063e cb2f 2bbe
000002d0: acc8 3a3d 3162 de3d 52dd 303d cd1d a8bd
000002e0: 77bf dc3d 61cd bb3d 8867 a73d b80b 57bd
000002f0: d60c 89bd 735d 6b3d 3852 053d 6688 1fbd
00000300: 6d95 023e c98c 2f3e a26f b63c fb81 15bd
00000310: 6d04 7f3c 57c6 c72c c4f0 5c2e 5d10 baae
00000320: aab7 b9ba b030 1bb0 fbc2 323a b346 983d
00000330: 2aec 0cbc 5d3e 0ebe 3a41 0cbe 7c08 3ebe
00000340: 6132 2fbd 72bd 573d 383c e33d 8c66 9f3d
00000350: 6b03 34be bf5a 1abe 7965 38bc 1e5d 453e
00000360: 713e aabb b206 80bd 6cc8 c43d 65a4 9dbd
00000370: fa69 c9bd dc44 183e 4f74 8fbd b825 0dbd
00000380: 7486 43be 3613 ed3d 63e8 4f39 9d3f e02f
00000390: 7d07 77b8 7ac2 39bb 7bb1 f1b9 1719 2839
000003a0: 88c5 b43d 585a 153e a7a6 e23d 892b 1b3d
000003b0: 5dfa 08bc f11a fabd 9442 11be ad75 1bbe
000003c0: c96f 6e3d f0f1 99bd ed57 a6bc d2c8 b3bd
000003d0: e04d abbc 41fe e0bd a46f d2bd 540d 263d
000003e0: 0a87 9cbd b858 cb3d f49f 1ebd d69c 1dbe
000003f0: 32da 60bd 1632 93bd 995c 82bd d23d 0bbb
0.15355751 0.14906944 -0.054389376 0.13780038 -0.07432477 0.05365972 -0.10583246 0.15268855
0.19597557 -0.13996649 0.1678851 0.067664586 0.1699502 0.0077450597 0.063128404 -0.042181905
0.19337386 0.060190134 -0.06200829 0.07812056 -0.046803303 -0.02802038 -0.050859775 2.4422738e-05
-0.00033146134 -7.3244686e-09 6.4913755e-11 -2.3409993e-06 1.15304025e-11 -0.19738506 0.16600388 -0.17427558
0.11399086 0.01026272 -0.004679229 0.1284605 0.05440454 0.1780895 0.034315355 -0.038521986
0.055644963 -0.0262753 0.06497392 0.1580163 0.12497194 -0.10281683 0.11315243 0.04088723
0.099437036 -0.11746997 -0.13849832 -0.0634806 -0.00023253605 0.0005165254 6.569254e-12 -1.8364721e-09
5.381911e-11 -1.6394521e-12 0.16138516 -0.13862365 -0.021294959 -0.14779791 0.050674643 -0.063557796
0.051118188 -0.06719776 0.17575084 -0.112684 -0.09657788 -0.08801733 0.1704611 0.052514166
0.18279167 -0.15982123 -0.19542727 -0.112820834 -0.09284786 0.084465206 0.05584536 0.14854795
-0.091166705 -4.0219744e-05 -8.760547e-08 9.757755e-10 3.0987053e-06 -2.5324862e-11 3.011995e-07 -0.20281403
-0.06625526 0.055813063 0.022428164 -0.043389056 0.08650109 0.08580707 -0.12931809 -0.14003673
0.18916427 -0.06159325 -0.055031005 -0.12500061 -0.11160029 0.04692773 -0.0018351421 -0.14467226
0.02551444 -0.10292439 -0.14907867 -0.11224562 -0.20354004 -0.118655145 0.0031254927 -2.1739222e-11
1.5861609e-10 -0.0017884359 -2.0099478e-05 2.7259836e-10 0.0017959746 -0.13708912 -0.11059754 -0.15252408
-0.026340159 -0.05381603 0.0048434655 -0.18898906 -0.16503218 -0.1368607 -0.11596005 -0.15699129
0.15788226 -0.0397694 0.16259336 0.07622627 -0.17798048 0.14383575 -0.030609936 -0.07289294
-0.16856192 -0.16521376 0.02774453 4.4547564e-11 3.1952802e-10 -0.0005173856 0.00015092589 -0.00012876609
-1.1476863e-11 0.019737102 0.08031058 0.13428725 0.14807542 -0.16631544 0.06507759 -0.06447335
-0.020333191 -0.12136532 0.14995573 -0.123241596 0.08626989 0.060999062 0.058993384 -0.07951621
0.15786798 0.020925276 0.0046990323 -0.16482931 0.056546494 -0.0492268 -0.06685641 0.14207824
-5.8423204e-11 4.4966143e-08 2.5176586e-08 -1.2218172e-12 7.541982e-09 -3.911981e-11 -0.12049273 -0.07223451
-0.15602955 0.04895185 0.13169932 -0.1671745 0.045601532 0.10858572 0.043179817 -0.08208809
0.107787065 0.09170032 0.08174044 -0.05250141 -0.066919014 0.057462167 0.032549113 -0.03894844
0.12752314 0.17143549 0.022270028 -0.036500912 0.01556502 5.6779403e-12 5.023605e-11 -8.4612074e-11
-0.0014169116 -5.645786e-10 0.00068192155 0.0743536 -0.008601228 -0.13890977 -0.13696757 -0.18557924
-0.042772654 0.052670904 0.1109547 0.07783231 -0.17579429 -0.1507368 -0.011254662 0.19273803
-0.005195432 -0.06251277 0.0960854 -0.076973714 -0.098346666 0.14870018 -0.07004606 -0.0344598
-0.19094259 0.1157593 0.00019827629 4.0790563e-10 -5.8896363e-05 -0.0028344677 -0.00046099335 0.00016031075
0.088267386 0.14585245 0.11066943 0.037883315 -0.0083604725 -0.1221217 -0.14185554 -0.15181608
0.058212075 -0.07516849 -0.020305598 -0.08778538 -0.020911157 -0.10985995 -0.102752 0.040540054
-0.07642944 0.09929031 -0.038726762 -0.1539186 -0.054895587 -0.071872875 -0.06365318 -0.0021246565

net.0.bias f4 [128]
00000000: 4461 3cbd d82a 943d 54f8 343e bdda c13b
00000010: 1e9d 963d bbba 1dbc bc85 1e3d 8cdb 213e
00000020: 13c9 9b3d cdc2 dfbd 3314 6b3e f799 db3d
00000030: 1df8 febb 6137 523e 3d5e 283d 1c85 313e
00000040: 8a9b e3bd 8973 593e 1d70 5a3e 54ee f1bd
00000050: 736f 0ebe 2484 cbbc 50ce 59bd fae3 343d
00000060: bca0 f73d 3fe4 7dbc cf81 f93d 5a66 283d
00000070: 67bd 9dbc 2b4f e8bd ffd9 d73d 9b57 43be
00000080: 2dbd 453c f56b 9c3d 06a4 89bd a6d9 ca3d
00000090: 4791 a13d f9e2 253e cacb 2f3e 9e13 18be
000000a0: d9b8 0fbe 14fc 2dbd fa09 cbbd b165 c63d
000000b0: 69c4 bebd 46de e5bd cac4 ce3d 5603 f93d
000000c0: 45ab 70bd 9385 48be 1de5 893d ddfd 143e
000000d0: 2536 403e 9cea c93c b00d 323e d0c3 13be
000000e0: f303 613e d6a6 0ebe 4ef1 afbd b7dd 003e
000000f0: c4ab 4ebc cdb3 0e3e c1ad c4bd 3dae 383e
00000100: 3e15 5c3e 6f64 b73d a0dd 453e 7267 cfbd
00000110: 202c 97bc 2c0f cf3d 844b 3d3e a3f6 69bd
00000120: 6653 2a3e e41f d6bc cb20 63bd 81c9 2e3d
00000130: 33f6 0fbe f355 16be 1b57 dc3d 6d9a 803d
00000140: f5bb d23d 161b 853c e61f d9bd bab6 dfbd
00000150: 414b 6d3e 3cfc fbbd bcc2 ad3d 2193 373e
00000160: 4ce1 483e 7217 1fbd dcae 44bc aa7b 32be
00000170: ddec 323e 90dd 38be 6702 13be a48d b3bd
00000180: b41c 5c3e 3de5 1b3e b571 df3d f97d e73d
00000190: fbc3 00bd eb35 89bd c011 8cbd 2393 4e3d
000001a0: 505b 313d 53dc 7d3d 4040 e2bd 87d6 5d3c
000001b0: 4351 8dbd 255a d6bb c0bc 233c 2352 723d
000001c0: 504a 36be de41 353e aa8a 70bd 2055 c03d
000001d0: bf46 353e 4538 a33d d1d4 283e 4ccf 393e
000001e0: bfd3 2f3e 96a5 273c dea0 273e ecf6 3ebd
000001f0: 824c 72bd eea1 0f3e 2bb2 a43d f7a6 db3c
-0.045991197 0.07234734 0.17672855 0.005915968 0.073541865 -0.00962704 0.038701758 0.15806407
0.07606711 -0.10925827 0.22956924 0.10722726 -0.0077810423 0.20528938 0.041105498 0.17335933
-0.11113651 0.2123548 0.2133183 -0.118130356 -0.13909702 -0.024843283 -0.05317527 0.044162728
0.120912045 -0.015496313 0.12182962 0.041113235 -0.019255353 -0.11343225 0.10539626 -0.19076388
0.012069029 0.07637779 -0.06720738 0.099047944 0.078890376 0.16199864 0.17167583 -0.14851233
-0.14035358 -0.04247673 -0.09914012 0.09687365 -0.09314806 -0.11224036 0.10096128 0.121588394
-0.058757085 -0.19582205 0.06733153 0.14549966 0.18770654 0.024648003 0.17388034 -0.14430165
0.21974163 -0.1393083 -0.08590947 0.12584578 -0.012614194 0.13935776 -0.096034534 0.18035217
0.21492478 0.08954703 0.19322824 -0.101271525 -0.018453658 0.10110316 0.18485838 -0.057119977
0.16633376 -0.026138254 -0.055451196 0.042672638 -0.14058761 -0.14681225 0.107588015 0.062794544
0.10289756 0.016248267 -0.10601787 -0.10923524 0.23173238 -0.12303969 0.08484408 0.17927219
0.19617194 -0.03884072 -0.01200458 -0.17429987 0.17473169 -0.1805327 -0.14356385 -0.0876725
0.21495324 0.15224166 0.1091036 0.11303324 -0.0314369 -0.06699737 -0.06839323 0.05043329
0.043299973 0.061977696 -0.11047411 0.013539917 -0.06900265 -0.006541508 0.009993732 0.059160363
-0.17801785 0.17700908 -0.05872599 0.09391236 0.17702769 0.07969717 0.16487433 0.18145484
0.17170618 0.01023235 0.1636996 -0.0466222 -0.059154995 0.14026615 0.08041795 0.026813013

net.2.weight f4 [64, 128]
00000000: a46f 4fbd b575 153d 19ab 943d bee9 023c
00000010: 8185 2c3d 56d9 513d 8b6f a6bd 46b2 163c
00000020: 4be3 9ebc 5045 aabb 8415 b13d d57c f23d
00000030: ce2a 0f3d 83f3 ac3d d74e 3cbd 6631 473d
00000040: a902 623c 80c1 dbbc 51c2 563d 40b7 113d
00000050: 9666 2d3b e3fa 683d e286 893d ad2e c83d
00000060: 46f7 a13c 53cd c93c e122 ea3c 03f1 4e3d
00000070: 8cef 35bd 4639 c63c b6d0 41bd e19f 93bd
00000080: cc0a 66bd 5374 ba3d 470c 01bd 1cf0 103b
00000090: e450 973c dc1b be3d c365 913d 89c9 27bd
000000a0: d106 eb3d 8c76 a2bd 8bae 0e3d 3f75 e03d
000000b0: f6b7 d03d 8442 59bb 3a90 2dbd 781a 873d
000000c0: 8e3c 923d ce8d fabc 8e7c ee3a 1f68 f0bc
000000d0: 385e 773d dcad 4b3d b86a 8b3d 58e5 2abc
000000e0: 6328 56bd e27c b2bc 615f 6bbd 5d71 95bb
000000f0: 508d 6d3d 4e28 23bd d1b8 0d3c eb72 70bd
00000100: cf23 13bd a9ed 5bbd 550a 8abc 353a 05bd
00000110: 26db 513d 5303 9a3d 94f5 e73d 5e0b 7f3d
00000120: ca8f 1c3d 3c7a 333a af25 a23d aa3d 58b9
00000130: 0e42 993d ea1c c0bd f404 34bd a917 5d3d
00000140: ec1d 15bd d0c1 233d abdc b63d 1116 8e3d
00000150: e33b f23d 7e06 0ebd fe5e 11bd 5dab 3a3c
00000160: 04ff 8c3c 170a 4c3c 1dec 3b3c c682 c83d
00000170: ef94 49bc 8fba 8c3d fbc0 6d3d 44d2 803d
00000180: b938 463d 2300 3fbc 8fd0 873d 3717 ccbc
00000190: e757 e1bc 2a12 de3d ea44 b93d 062f 1dbd
000001a0: 429a a53d f7bc 253d 74fa 233d 0354 e13d
000001b0: 8069 8b3b a13d 01bb 76e6 ac3d cee3 293c
000001c0: de05 5cba c344 383c 9ca8 cd3d 914f 913d
000001d0: fcec 283c ffde a73c cff7 d83c 442c 90bb
000001e0: cf29 203d 0e61 45bd 77fc c53c 43df a13b
000001f0: c1c6 b13b 887f eb3d 6f77 3d3d f097 6a3d
00000200: 9cfc 96bd e1a2 90bb 173e 1b3c b591 f13c
00000210: 895f 2dbd c0aa 13bd 567c babd e1d8 183d
00000220: 7252 263d 54dc bd3c 8f36 d43c 6112 103d
00000230: ed68 853d c2fb 483c 2493 663c af58 573c
00000240: cd7b 8abd 8a4e 843b 3861 213c 3ef6 acbd
00000250: 0151 26bd c9e6 8ebd e978 94bd 3fe1 3a3d
00000260: 1595 4f3d 6cac e1bc 399b 1c3c 4f18 1dbd
00000270: 5c5b 0e3b 8c33 ffbc 2f75 82bd 3b69 58bd
00000280: e160 933d d2e7 84bb 76db 83bd 812e 1cbc
00000290: 47c8 d2bd 363c 6bbc c158 433d 99b0 95bb
000002a0: 72f0 a23b cab2 d1bd 9d0e fdbc 93d6 173d
000002b0: 6f70 a3bd 311d 69bd d8b9 223d fa20 203c
000002c0: 6534 c53c 8cf1 c4bd 2ebc 1a3d a859 12bd
000002d0: fbb5 df3a 092a 633d 3a71 cabd ff17 0f3c
000002e0: a10d c8bd 7be9 4e3d ef00 bf3b f746 c6bb
000002f0: b321 54bd 4fac 8e3c fc23 70bd 38b6 d9b9
00000300: 6f10 693d a977 abbd a3a8 31bd 93f9 943b
00000310: dba6 5cbb 5eeb 8bbc bb71 6d3d b7d4 2cbd
00000320: 9ca6 d93b 2189 033d a96d 0fbd 3b9d 223d
00000330: 2243 1d3d 552e 983c de91 0fbd faa8 763d
00000340: 1d39 8fbd 057c 113c 2c29 f53a 4e73 3b3d
00000350: 57bc b7bd c380 5abb 8bba 90bd 0c5d 033d
00000360: 788f 7e3c 01d3 afbd 1e9f b3bc 2523 073c
00000370: 116e a63c df36 733d 795e d33c dbb9 7cba
00000380: fcc2 f33c 4c32 cdbd e10c 303d 445c d8bc
00000390: 3e10 f33c df59 0b3c 1800 97bc 9413 3e3d
000003a0: eb54 8abd 0c50 2c3c c841 993c d37c 43bd
000003b0: 581f 8a3c 69bf d3bd abd0 7cbd d5d3 d93c
000003c0: e7cb fa3c 2545 c2bd 5db5 563c b596 26bc
000003d0: cbd6 8f3d 0134 d0bd 2743 12bd c89a 89bd
000003e0: 2992 8bbd d495 00bd 29dc c5bd 9fa6 5e3d
000003f0: bb4d 49bd bacd 703c 372b 8abd 8420 81bc
-0.05064358 0.036489207 0.07259197 0.007990299 0.042119507 0.05123266 -0.08126744 0.009197777
-0.019395491 -0.005196251 0.08646682 0.11840216 0.03495293 0.08444884 -0.045973625 0.048631094
0.01379458 -0.026825666 0.05243141 0.03557515 0.002645885 0.05687989 0.0671518 0.09774528
0.01977123 0.024634039 0.028581085 0.050522815 -0.044417903 0.024197232 -0.047318183 -0.07208229
-0.05616264 0.09104218 -0.03150585 0.0022115773 0.018471189 0.092826575 0.07099488 -0.040963683
0.114759095 -0.07932767 0.034834426 0.10959863 0.10191338 -0.0033151219 -0.042373873 0.065968454
0.07140456 -0.030585196 0.0018195079 -0.029346524 0.06039259 0.049726352 0.06807464 -0.010430656
-0.05228461 -0.021788064 -0.057464007 -0.004560633 0.057996094 -0.03983336 0.008650021 -0.058703344
-0.03592282 -0.053693447 -0.01685063 -0.032526214 0.051234387 0.07520165 0.11326137 0.0622667
0.038223065 0.00068465224 0.07917344 -0.00020622337 0.07483302 -0.09380515 -0.043950036 0.053977642
-0.03640549 0.039979756 0.08928808 0.069378026 0.11827829 -0.03467416 -0.035490982 0.011393395
0.017211445 0.0124535775 0.011469868 0.09790568 -0.012303575 0.06871521 0.05804537 0.06290105
0.04839394 -0.011657747 0.06631576 -0.024913413 -0.027507735 0.10843308 0.090463474 -0.038374923
0.08086063 0.040463414 0.040033773 0.11002352 0.00425452 -0.0019720572 0.084423944 0.010369254
-0.0008393208 0.011246863 0.10041925 0.07095254 0.010310408 0.020492075 0.026485352 -0.004399808
0.03910237 -0.04818826 0.024168236 0.004939945 0.0054253046 0.11498934 0.04625648 0.057273805
-0.073724 -0.004413948 0.009475253 0.029488424 -0.042327438 -0.03605151 -0.091057464 0.037316207
0.04060597 0.02317635 0.025904922 0.035173777 0.06514154 0.012267055 0.014073167 0.013143702
-0.067618944 0.004037683 0.009849839 -0.084454045 -0.040604595 -0.069776125 -0.07249624 0.045624968
0.050679285 -0.027548037 0.009558492 -0.03835326 0.0021721935 -0.03115251 -0.06370007 -0.05283473
0.071962126 -0.0040559554 -0.06438343 -0.009532572 -0.10292106 -0.014357617 0.047692064 -0.004568171
0.004972511 -0.102391794 -0.030890757 0.03706987 -0.079804294 -0.056912605 0.039728016 0.009773487
0.024072835 -0.09616384 0.03777712 -0.035730034 0.0017067784 0.05546001 -0.098848775 0.008733748
-0.097682245 0.050515633 0.0058289687 -0.00605094 -0.05178995 0.017416148 -0.058628067 -0.0004152523
0.056900438 -0.08372433 -0.043373715 0.004546353 -0.003366879 -0.017080005 0.05796979 -0.04219505
0.006642176 0.0321132 -0.03501669 0.039700728 0.0383941 0.01857678 -0.03505122 0.060219742
-0.06993315 0.008879666 0.0018704287 0.04576426 -0.0897147 -0.0033340908 -0.0706683 0.03207116
0.015537135 -0.08585168 -0.021926459 0.008248125 0.020316156 0.0593785 0.025801884 -0.0009640732
0.029756062 -0.10019359 0.042981032 -0.026411183 0.02967083 0.008505314 -0.018432662 0.04640539
-0.06754478 0.010517132 0.018708125 -0.047726464 0.016860649 -0.10339243 -0.06172244 0.026590267
0.030614806 -0.094858445 0.013104764 -0.010167767 0.070233904 -0.10166169 -0.035708573 -0.06718975
-0.06814987 -0.031392887 -0.09661133 0.05435812 -0.049146395 0.014697487 -0.06746524 -0.015762575

net.2.bias f4 [64]
00000000: e5c1 e73d 123d 37bd 30e6 47bd 79c7 c1bc
00000010: 3713 463d ff04 8c3d 387e 4e3d 94a5 9a3d
00000020: 2cda cdbd ed6b 5ebd 252b c33c 628e b0bc
00000030: 32af 92bd e9e6 2b3d 65a6 0bbd 653c 463d
00000040: f2c9 bcbb 02ea d63c ecd9 3fbc 8163 0fbc
00000050: 1cfd e33d 6153 b4bb 97c0 f73d ec91 0bbd
00000060: 3620 45bd d9bb fdbc 6265 683d 4de9 ce3c
00000070: 01c1 1c3d 1255 f43d 4c9f a1bc 47f6 d9bc
00000080: b531 823d 9857 9d3c efd5 223d c62a 9c3d
00000090: 949e 833d 2dfb 92bd 7728 483c 54f8 e73d
000000a0: 05a5 8f3c 004e 21bd 4157 5b3c 9eac 933c
000000b0: 126a cbbc 4159 af3a bc79 2e3d 38f0 8b3d
000000c0: 5e97 893d ac49 a53c 8b0a 3b3d e2c9 1dbd
000000d0: b5ab f93c 43a1 2e3d 6688 90bd 9b9b f53d
000000e0: c137 683a 2e92 28bd 90cc 5ebd 4388 0bbd
000000f0: 17fc b5bd 0d88 b93d 12fb f6ba 2be7 82bd
0.11316279 -0.044735976 -0.04880351 -0.023654686 0.04835817 0.068368904 0.05041334 0.07551113
-0.100513786 -0.054302145 0.023824284 -0.021552268 -0.07162322 0.04196826 -0.034094233 0.04839744
-0.0057613784 0.02623463 -0.0117096715 -0.008751751 0.11132261 -0.0055031036 0.120972805 -0.03407471
-0.048126422 -0.030973362 0.05673731 0.02525773 0.03827 0.119302884 -0.019729279 -0.026606692
0.06357137 0.019206807 0.039754804 0.07625346 0.06426731 -0.07176814 0.012216679 0.11326662
0.017534742 -0.039381027 0.013387502 0.018026646 -0.024830852 0.001337804 0.042596564 0.068329275
0.06718324 0.020176731 0.04566435 -0.03852261 0.030477384 0.04263426 -0.07057266 0.1199257
0.00088584056 -0.041155033 -0.054394305 -0.034065496 -0.08885973 0.09059153 -0.0018843135 -0.06391748

head.weight f4 [1, 64]
00000000: faab 1f3d 3381 bcbd 792a 6b3d b29b 553c
00000010: c3c0 193a 95e0 233d 2555 20bd 49cb e03d
00000020: bef5 a0bd 44a7 963c 9789 023e 1780 3f3d
00000030: 3750 a1bd 4ceb 173e 06ec 6fbd 4947 0dbd
00000040: 71ff bc3d ec1e 80bd d531 833c 4edc 893d
00000050: f34e bf3d a0de 7ebd 9547 123e c5ec d53d
00000060: cde3 0dbd 6033 bf3c 4197 02bd cbad 45bd
00000070: db55 073e 8293 f23d 7901 463d 8e27 003e
00000080: 76a4 d6bd f093 0e3d a510 3fbd ba21 bf3d
00000090: 43b2 073d 7f16 acbd 5c4e d03c 03bf 9f3d
000000a0: 779f bbbc 0a0c a03b 8c80 9bbd b021 083e
000000b0: 4dac d8bd bf57 7bbd df63 a6bd fc3b 2abd
000000c0: 4e92 64bd e660 873d aebb fd3d 3531 d63c
000000d0: 33be 4a3d d4d5 f03d 26ea e3bd 412e 153d
000000e0: 34b4 a53d 18cb 163d dd71 23bd 4b23 cfbc
000000f0: 216a 53bd a21a 183e 0f80 29bd 8cf5 47bc
0.03898237 -0.0920433 0.057413552 0.013037609 0.00058652106 0.0400091 -0.0391437 0.109762736
-0.078593716 0.018390305 0.12747799 0.046753015 -0.07876628 0.14835852 -0.0585747 -0.03449181
0.09228409 -0.06255898 0.016014973 0.06731473 0.0934123 -0.06222403 0.14285119 0.10445551
-0.034641076 0.023339927 -0.03188253 -0.048261445 0.13216345 0.11844541 0.04834125 0.12515089
-0.10480587 0.034809053 -0.046646733 0.09332605 0.033128988 -0.08402728 0.02542799 0.078001045
-0.022903187 0.0048842477 -0.07592878 0.13294101 -0.10579739 -0.061362978 -0.08124518 -0.04156111
-0.05580359 0.06610279 0.12389313 0.02614651 0.049497794 0.117595345 -0.11128645 0.036421064
0.08091012 0.03681478 -0.03990351 -0.025285384 -0.051614884 0.1485391 -0.04138189 -0.012204539
