artifacts/model_exp-11_skip_20251104T051229Z.pt (torch, 60423 bytes, 7 tensors)

net.0.weight f4 [128, 29]
00000000: 9aa4 1d3e 6e59 143e 6f47 58bd d195 2b3e
00000010: 8dff 8abd 2a9d 533d 78e6 c2bd e3a7 0a3e
00000020: b8a6 3d3e 8259 0fbe 359d 343e b0b8 783d
00000030: 81e2 1b3e 7eab c43b b0fb 843d 0de9 02bd
00000040: d20a 303e 3c2d 2f3d c4b9 a7bd fadd 973d
00000050: 15b7 4fbd 133a cebc 2fb9 88bd 5d48 fc3d
00000060: b019 16be f852 afbd cac6 56bd 96aa e4bd
00000070: bf93 8f3c b421 44be b0bc 1e3e 6b9b 25be
00000080: a5d5 003e ba73 8e3c 9348 b2bc 660a 133e
00000090: 5b97 883d 5a7b 223e bd85 193d b611 88bc
000000a0: 1778 513d 2582 33bd 9001 933d 8877 1b3e
000000b0: d55b ea3d 749a eebd 106e f13d 198f 323d
000000c0: 9d93 cb3d 020a f6bd 887a 1cbe 9426 70bd
000000d0: d8d9 11be f206 1c3e 3714 5b3d ef86 9d3d
000000e0: 028d 703d 4cb4 53bb f049 093e c0c4 17be
000000f0: fae8 11bc e9f1 12be 29e4 563d 5b97 99bd
00000100: 2833 843d c762 3abd 8e13 263e 3c42 ecbd
00000110: 7cef 9cbd 4019 bfbd 5e38 1a3e a015 9a3d
00000120: d1cc 4d3e 5c78 2cbe 8485 59be 2144 05be
00000130: 18c2 aebd e7e2 953d 5daa 413d 60bd 153e
00000140: 8e87 c2bd fea0 01be f0c7 c93d 79b8 99bd
00000150: cad0 e63d 277e 34bd 278d d93d 1633 52be
00000160: 2095 a2bd 3596 6b3d 7105 cb3c d1cb 2ebd
00000170: da3c a33d c07e e23d 2e7a 06be 98f1 fcbd
00000180: 0db8 353e 7648 75bd 2be8 81bd 0b19 0abe
00000190: fa42 d3bd 12d5 5c3d 1b07 d4b8 16e4 13be
000001a0: 9894 783c c608 e7bd 2f56 1fbe 4900 e0bd
000001b0: 06fd 48be a877 f3bd e113 3e3e eaa8 0f3d
000001c0: 8663 6a3d 105a 31be 14c6 f9bd 3f2c 7dbd
000001d0: ee92 ab3c ec60 10be 556b e0bd 7604 18be
000001e0: 27f1 fabc d685 7ebd 6609 de3b 66d1 22be
000001f0: a4ab 1cbe 33aa debd 2e94 c8bd 8cea 24be
00000200: 48c7 203e fe2c 4abd c536 2f3e 4b01 823d
00000210: 8872 3dbe 7a04 f03d c989 64bd c0cb b2bd
00000220: 0253 2fbe d3ac 33be 8c42 ae3c 7226 26bd
00000230: a80f 943d 020d 1cbe a62c 0d3e f194 0bbe
00000240: 3556 03bd 5893 ad3c 99f7 a33d 91fb 083e
00000250: df6a 1a3e 11bb 26be 56ac 6b3d 16a4 82bd
00000260: 58db f8bc 9c44 ffbd fc26 163e cb63 fcbd
00000270: 5544 ad3d 76bb 833d 090c 8a3d 0d41 a2bd
00000280: 870d 1b3e fbd5 cd3c d88a 033c ac11 1cbe
00000290: 6502 703d a040 45bd 86c2 8ebd 190d 113e
000002a0: a093 293d cb69 d2bd 977c c0bd 264b 11bc
000002b0: d958 d43d 705c 42bd 14b1 e8bd f202 a5bd
000002c0: f23a 0fbe efad 733d 7064 0f3e 971e 28be
000002d0: 0a22 603d e7c0 043e 2ce0 3a3d 984b a6bd
000002e0: 18f9 e43d 9158 cb3d 1cc0 9b3d 702b 2dbd
000002f0: a040 9abd 7a73 be3c 82c2 a53c 73b7 03bd
00000300: 56c5 0c3e 8943 343e d53b 8c3c b652 0ebd
00000310: 4d9f ac3c 85a8 35bc d8db 363d e125 553d
00000320: f5b4 2cbe b758 8cbd f421 203e 90b3 853d
00000330: 7446 7dbc 3e3b 10be d14e 0bbe df7f 42be
00000340: 0e88 69bd 520f a73d fe2f d63d 12cf 983d
00000350: 5715 28be 6a60 13be 0aa2 a4bc 83fd 3c3e
00000360: 98a1 0fba d220 45bd 464e b33d c1f6 a0bd
00000370: 9226 f5bd 0ed4 043e c37a aabd 8017 0bbd
00000380: 9a5a 44be 68b6 e23d d610 103e e399 8a3d
00000390: 8e96 04be 2bab 3bbe fe6f 1abe e1cb 0d3e
000003a0: 06af a13d ee38 1a3e 28c2 e23d 1cc4 243d
000003b0: 052b 90bb 93fa fdbd d33d 13be 7f6c 22be
000003c0: 5448 893d 3bcb a6bd e903 f3bc 7a08 b8bd
000003d0: 100f c2bc aa58 e5bd 6db4 d6bd 42aa 2e3d
000003e0: dd2c 97bd 749d d33d 3f1a 33bd 6062 19be
000003f0: d2ca 53bd 86d5 94bd ca76 70bd 1e06 35be
0.15394822 0.1448724 -0.0528025 0.16756369 -0.06787024 0.051663555 -0.09516615 0.13540606
0.1852063 -0.13998988 0.17638095 0.060723007 0.15223123 0.006001889 0.06493318 -0.031960536
0.17191628 0.04276775 -0.08189729 0.074153855 -0.05071171 -0.025174176 -0.06675946 0.1231849
-0.14658237 -0.08560747 -0.052435674 -0.11165349 0.017526506 -0.19153482 0.15501666 -0.16172569
0.12581499 0.017389167 -0.021763122 0.14359435 0.06669494 0.15867367 0.03748106 -0.016610008
0.051139917 -0.043825287 0.071780324 0.15182316 0.11443297 -0.11650553 0.11788571 0.0435935
0.099402644 -0.120136276 -0.15281117 -0.05863054 -0.14243257 0.15237024 0.053486075 0.07691752
0.058728226 -0.003230351 0.13407111 -0.14821148 -0.008905644 -0.14350094 0.052463684 -0.07499572
0.0645507 -0.045504358 0.16218397 -0.11536071 -0.076628655 -0.09330988 0.15060565 0.07523656
0.20097663 -0.16842788 -0.21242338 -0.1301427 -0.08533114 0.07318669 0.04728161 0.14623022
-0.09498511 -0.1265907 0.09852588 -0.075058885 0.11270292 -0.04406562 0.10622626 -0.205273
-0.079385996 0.057516295 0.024782868 -0.042674843 0.07970591 0.11059332 -0.13132545 -0.12350768
0.17745991 -0.059883557 -0.06343111 -0.13486116 -0.10315509 0.053914137 -0.00010110271 -0.14442477
0.015172146 -0.1128097 -0.1556022 -0.109375544 -0.19627771 -0.11888057 0.1856227 0.0350732
0.05722382 -0.17319512 -0.121959835 -0.061809774 0.020944085 -0.14099473 -0.10957972 -0.14845452
-0.030632569 -0.062139355 0.0067760227 -0.15900192 -0.1529985 -0.10872307 -0.09793888 -0.16105098
0.1570102 -0.049359314 0.17110737 0.06347903 -0.18500721 0.11719604 -0.055795465 -0.087302685
-0.17121509 -0.17546396 0.021271966 -0.040564008 0.07229549 -0.15239337 0.13786563 -0.13631035
-0.032064635 0.021188423 0.0800621 0.13377215 0.1507983 -0.16282298 0.0575374 -0.06378953
-0.030378029 -0.12464258 0.14663309 -0.123237215 0.08460299 0.0643224 0.06740577 -0.07922564
0.15141879 0.025126448 0.008028708 -0.15241116 0.058596034 -0.048157334 -0.06970696 0.14165153
0.04140055 -0.10274085 -0.093987636 -0.008868014 0.10368509 -0.047451437 -0.113619 -0.080572024
-0.1398733 0.059492048 0.14003158 -0.16417919 0.054719962 0.12964211 0.045623943 -0.08119887
0.11180323 0.09929002 0.07605001 -0.042277753 -0.075318575 0.023248423 0.02023435 -0.032157373
0.13747153 0.17603888 0.017118374 -0.034746848 0.021072054 -0.0110875415 0.044643253 0.052038077
-0.16865905 -0.068528585 0.15637952 0.065283895 -0.015458692 -0.14085099 -0.13604285 -0.18994091
-0.057014517 0.08157219 0.104583725 0.074613705 -0.1641439 -0.14392248 -0.020096797 0.18456082
-0.00054790964 -0.048127003 0.08755164 -0.078595646 -0.11970247 0.12971517 -0.08324196 -0.03395796
-0.19175187 0.110699475 0.14068922 0.06767633 -0.12948057 -0.18327014 -0.15081784 0.13847305
0.07894711 0.1506078 0.110721886 0.040226087 -0.0043996596 -0.12401309 -0.14379053 -0.158617
0.067032486 -0.08144232 -0.02966495 -0.08985992 -0.023688823 -0.11198552 -0.10483632 0.04264284
-0.07381604 0.10332766 -0.043726202 -0.14978933 -0.051707096 -0.07267289 -0.058707036 -0.17678115

net.0.bias f4 [128]
00000000: 97c6 60bd 1f56 8d3d 4a0f 2e3e 2908 d1ba
00000010: d2e9 823d 5cfe 26bc fc31 1f3d 0046 1a3e
00000020: d4be 9c3d a5cc e3bd 7701 623e 66f4 cc3d
00000030: 6d5a 50bc 1821 3b3e efee 243d 0953 2d3e
00000040: 2c60 e9bd 14e3 4f3e b3a0 453e 8b37 e9bd
00000050: 0f65 0dbe 7ae1 eabc a8eb 82bd 2cc6 393d
00000060: faad e83d fd0a d3bc b642 e93d b8c6 e33c
00000070: 90eb dbbc c305 febd fa52 b13d c9b1 44be
00000080: 7831 263c 4b83 873d d2d3 99bd 5355 c53d
00000090: 271b 9d3d ae53 213e aa49 233e 0274 25be
000000a0: ce0f 1dbe 5c37 2abd f72d e9bd bd86 b23d
000000b0: a247 dbbd bff8 e9bd c488 bf3d e4a5 dc3d
000000c0: 1d0e 8abd 3f7f 4fbe a81e 863d ff95 0c3e
000000d0: e8e9 363e 1fdc 6f3c 3fec 2c3e 9e18 11be
000000e0: d9c0 623e c34d 0fbe 0a57 bcbd bd05 f63d
000000f0: 7f9c d1bc ec96 f13d 66ec d6bd cc42 343e
00000100: c095 593e b1c9 b53d eb74 403e 1e31 d9bd
00000110: 50df fcbc f52b b63d 33e9 153e 7d45 88bd
00000120: b878 203e e743 ffbc 7326 81bd b6e3 f53c
00000130: 5b7c 13be c572 13be f189 d13d da9d 6e3d
00000140: b13e d33d 420f 763c 4b76 dbbd 76ed f8bd
00000150: a057 603e 1231 04be 3414 b13d 2024 283e
00000160: 2b26 2f3e 04fb d0bd 812b 8bbc 4a0b 29be
00000170: 5169 1d3e 121f 41be 2595 15be 62e6 babd
00000180: c554 4d3e 72a7 173e 81b4 c93d fb12 e93d
00000190: effb 35bd dfc1 8fbd 6719 9cbd 97d5 423d
000001a0: 2e22 4c3d 94bc 4f3d 8321 dcbd 0c85 2f3c
000001b0: 1b46 99bd 1c4a debb 5f6c b0b9 1a1a 473d
000001c0: 368a 3abe f93f 233e eabf 50bd 8d36 b53d
000001d0: 6502 2a3e a203 a33d 4616 273e 3a57 323e
000001e0: 400f 2b3e 99a7 2b3c 9929 213e 5b47 67bd
000001f0: 4a50 96bd cc85 fe3d bba7 a33d 0bac a43c
-0.05487689 0.06901192 0.1699802 -0.0015947866 0.06392254 -0.01019248 0.03886603 0.15065765
0.07653585 -0.11123017 0.22070871 0.10007553 -0.012716872 0.18274343 0.040266927 0.16926207
-0.113952965 0.20301467 0.19299583 -0.11387547 -0.13808082 -0.028671969 -0.06392604 0.045355007
0.113613084 -0.025762076 0.11389677 0.027804717 -0.026845723 -0.12403443 0.08658405 -0.19208445
0.01014363 0.06616839 -0.07511105 0.09635415 0.076711945 0.15754578 0.1594607 -0.16157535
-0.1533806 -0.0415567 -0.1138572 0.087171055 -0.10707022 -0.11424398 0.09352258 0.107738286
-0.06740973 -0.20263384 0.06548816 0.13729094 0.17862666 0.014639883 0.16886996 -0.14169547
0.22143878 -0.13994507 -0.09196289 0.12012813 -0.025587318 0.11796364 -0.10494308 0.17603606
0.21248531 0.0887636 0.187946 -0.106050715 -0.030868202 0.08895103 0.1463974 -0.06653879
0.1567105 -0.031160308 -0.06306162 0.030015808 -0.14402907 -0.1439925 0.10231388 0.058256008
0.10314692 0.015018286 -0.10715922 -0.12154667 0.21908426 -0.12909344 0.086464316 0.1642003
0.17104404 -0.102041274 -0.016988518 -0.16508213 0.15372206 -0.18859509 -0.14607675 -0.09125973
0.20051868 0.14809969 0.098488815 0.11380573 -0.044429716 -0.070194 -0.076220326 0.047566976
0.049837284 0.05071695 -0.10748579 0.010712873 -0.07484075 -0.006783737 -0.0003365008 0.048608877
-0.18216786 0.15942372 -0.050964274 0.08848295 0.16602476 0.07959677 0.1631709 0.17416087
0.16705036 0.01047697 0.15738524 -0.056464534 -0.07339533 0.124278635 0.079909764 0.020101568

net.2.weight f4 [64, 128]
00000000: 0caf 69bd b370 1d3d 6215 973d 1fe4 453c
00000010: 9fb6 243d beb6 623d 7745 a0bd 1bf1 d83b
00000020: fdae a8bc 6d04 3cbc af04 a93d a4fe e63d
00000030: 4216 133d 495b a23d cf9c 43bd 300c 503d
00000040: d1ad 433c cd7b edbc 9f88 493d b1a8 263d
00000050: d2c3 3e3c 2bd9 5e3d dc70 843d daba cf3d
00000060: 0db3 9b3c fc60 c33c a66f cb3c 5882 3d3d
00000070: 174d 25bd 77ad 843c 4768 56bd ac29 8dbd
00000080: 14fb 5abd 445d b53d 8d9c 06bd cc69 b63b
00000090: d962 ca3c 4220 c83d 34c8 853d aaf3 25bd
000000a0: c06b f73d 069a 95bd 9aae 0b3d f873 dd3d
000000b0: 5a60 c23d dd4d 8dbb a6e9 19bd ea69 6d3d
000000c0: fbea 9c3d 9e43 f0bc d805 c43b a4ad 0cbd
000000d0: 6fb7 6c3d ab87 493d 48cd 863d dbc5 efbb
000000e0: 7895 60bd 8011 a6bc 9983 64bd e1d5 1dbb
000000f0: 6cf9 723d 6962 46bd 9aa5 eb3b 39d8 76bd
00000100: 3af8 22bd 35d8 56bd ad0a 88bc 66f6 0bbd
00000110: 8c94 383d 78c7 973d 63fb cc3d 6856 693d
00000120: 17a6 0e3d e1a9 ab3b 975e ac3d 1f53 01bc
00000130: 7388 a03d 9614 b1bd ae13 35bd 45f0 563d
00000140: 87f4 b6bc 35f4 233d 943b ba3d 6592 823d
00000150: e684 e53d 28e1 31bd 0bd8 eebc e149 393c
00000160: 974e 0c3c a82f 1cbb 9eb3 2d3c 72de da3d
00000170: 1502 a9bc fa08 883d 657d 6a3d a662 793d
00000180: a1ae 333d eabc 3dbc ac03 813d 6ea5 bfbc
00000190: 341f fcbc 05e2 d13d 6a6a b53d 5c24 1fbd
000001a0: 7b58 b23d 3abe 1b3d 0e5e 233d 1c63 e13d
000001b0: 6e28 c23b 6ad3 86ba 3ad6 993d e667 2b3c
000001c0: b4a6 89bb e2fc 043b 5470 d93d 320a 8b3d
000001d0: afcf 1f3c e44a af3c 9f09 dd3c c83f 18bc
000001e0: 1064 1d3d 2fa7 3abd e2f7 cb3c 3518 09bb
000001f0: 4a73 f7bb 81ae df3d d49a 3d3d 3c2a 613d
00000200: 2888 98bd 02a2 a0bb 0144 1d3c e9f1 eb3c
00000210: 2ecf 2cbd 76df 15bd 2e85 b7bd 4d7f 193d
00000220: 711f 273d 5d15 ae3c 75d0 da3c a6d5 0b3d
00000230: 6729 843d 91a1 4b3c 23c3 4f3c 7d50 513c
00000240: 4bba 89bd 3bdd 883b 669b 203c bed1 aabd
00000250: 8c73 29bd a751 8ebd 1fcf 93bd e259 3a3d
00000260: b63b 543d e8b8 e0bc 377f 2b3c 2192 1cbd
00000270: 4468 eb3a b3f5 02bd 82f0 81bd 2837 60bd
00000280: 05bf 923d 0b48 2abb 7a5f 85bd c5cc 0cbc
00000290: e8de d5bd d184 7abc 2f6b 433d 31dc abbb
000002a0: 8c36 803b c50f d0bd e8bb fbbc 655d 143d
000002b0: 3adb a3bd e7b5 69bd fcfb 243d 2c32 223c
000002c0: 1827 c13c 5c0a c6bd 5bc6 1b3d ccb8 10bd
000002d0: 4e03 d03a fbd0 613d cc64 cbbd 7cf2 143c
000002e0: 3690 c7bd 42c9 4b3d 206f e53b 0420 b6bb
000002f0: 7f44 55bd 77be 8c3c 2114 74bd c6c4 87ba
00000300: 877f 653d d58a adbd 81b3 33bd de68 a93b
00000310: a434 e4ba 4cd1 8fbc ce27 743d 3ae9 2dbd
00000320: 68bd d83b 8d91 013d 242e 0bbd 8a1a 203d
00000330: 8b19 1c3d 20a6 973c 8dd1 12bd 4456 733d
00000340: 5428 8fbd 320a 1d3c 1cf4 a33a 91b6 413d
00000350: 5905 b7bd 2fb4 91bb 069d 8fbd 16ce 003d
00000360: b564 723c c366 b1bd b4ab aabc 1bfd fa3b
00000370: 8695 ac3c 4668 773d 787f cf3c ffc6 97ba
00000380: 7079 f03c 4843 cdbd c388 2d3d 1531 d4bc
00000390: 05eb fa3c 622a 053c f0cd 97bc 534c 3e3d
000003a0: 4302 8bbd 1960 1a3c 604a 993c 6784 44bd
000003b0: 4524 863c b7a8 d5bd ddc1 7ebd 791a d53c
000003c0: 3d92 f93c 48a1 c2bd b233 3a3c 3f26 1abc
000003d0: 257d 8d3d 3041 d1bd 60de 12bd 9f98 8cbd
000003e0: 608f 8cbd 8981 04bd beae c7bd e5e0 5f3d
000003f0: fd1f 4bbd b76f 6d3c e9c2 89bd 57b2 8bbc
-0.057051703 0.038437556 0.07377125 0.012078314 0.040213224 0.055350058 -0.07825749 0.006620539
-0.020591253 -0.011475665 0.082528464 0.112790376 0.0359099 0.079275675 -0.047756966 0.050792873
0.0119432965 -0.028989697 0.049202558 0.04068822 0.011643367 0.054406326 0.06466839 0.10143061
0.019006277 0.023849957 0.024833512 0.046266884 -0.04035672 0.016195996 -0.05234554 -0.06892714
-0.053462103 0.0885568 -0.032864142 0.005566811 0.024705337 0.09771778 0.06532326 -0.04051558
0.120810986 -0.07304768 0.03410206 0.10813135 0.09491034 -0.0043122605 -0.03757634 0.057962336
0.076620065 -0.029329117 0.005982142 -0.034345284 0.057792123 0.04920165 0.06582123 -0.0073172874
-0.054830045 -0.020272017 -0.055789564 -0.002408378 0.0593199 -0.048433695 0.007191372 -0.0602648
-0.03978751 -0.052452285 -0.016606653 -0.03417053 0.04506354 0.074110925 0.10008886 0.05696717
0.034826364 0.005238757 0.08416479 -0.007893353 0.078385256 -0.086465046 -0.04420822 0.052475233
-0.022333397 0.040027816 0.09093395 0.06375579 0.11206989 -0.043427616 -0.029155752 0.011309118
0.008563659 -0.0023832116 0.010601906 0.10686959 -0.020630876 0.06642337 0.05724849 0.060885094
0.04386771 -0.011580685 0.062995285 -0.023394313 -0.030776598 0.10248188 0.088581875 -0.038853034
0.087082826 0.03802321 0.03988462 0.11005232 0.0059252298 -0.0010286395 0.075115636 0.010461783
-0.0042007808 0.0020292331 0.10617128 0.06789054 0.0097541055 0.021398015 0.026982127 -0.00929255
0.038425505 -0.045569595 0.024898473 -0.002091897 -0.0075515853 0.10921956 0.046290234 0.05497192
-0.07447845 -0.0049021253 0.009598733 0.028801875 -0.04218977 -0.036590062 -0.08960949 0.03747492
0.04080147 0.021250421 0.026710728 0.034139298 0.06453209 0.012428657 0.012680802 0.012775538
-0.06724986 0.0041767634 0.009802675 -0.083407864 -0.04136996 -0.06949168 -0.072172396 0.045495875
0.051814757 -0.02743192 0.010467342 -0.038225297 0.0017960151 -0.0319726 -0.06344701 -0.0547401
0.0716534 -0.0025982882 -0.06512351 -0.008593743 -0.104429066 -0.015290455 0.04770964 -0.0052447547
0.0039127525 -0.10159258 -0.03072925 0.03622188 -0.080007985 -0.05705824 0.040279374 0.009899657
0.023578212 -0.09669945 0.038030963 -0.035332486 0.0015870125 0.05513094 -0.09931335 0.009091016
-0.09744303 0.04975248 0.0070017725 -0.005558016 -0.052067276 0.017180664 -0.05958951 -0.0010358326
0.056029823 -0.08473746 -0.04387236 0.005169972 -0.0017410708 -0.017555855 0.059608273 -0.04245875
0.006614376 0.03163295 -0.03397955 0.03908781 0.038110297 0.018511832 -0.035844374 0.05940844
-0.06990114 0.00958495 0.0012508663 0.04729325 -0.08936567 -0.0044465284 -0.07012372 0.03144654
0.014794518 -0.08662178 -0.020833828 0.007659567 0.021067392 0.060402177 0.025329337 -0.0011579691
0.02935478 -0.100225985 0.042366754 -0.02590231 0.030629644 0.008127781 -0.018530816 0.046459507
-0.06787541 0.0094223255 0.018712223 -0.04797783 0.016374717 -0.104325704 -0.0621966 0.0260136
0.03046524 -0.09503418 0.011364864 -0.009408533 0.06908635 -0.10217512 -0.035856605 -0.06865048
-0.06863284 -0.032350097 -0.09750126 0.054657836 -0.049591053 0.014491967 -0.06726629 -0.017052813

net.2.bias f4 [64]
00000000: 9164 de3d 6e3b 38bd f9f6 52bd aed3 48bd
00000010: 8996 473d 95a6 7f3d 95d4 4d3d 2f85 953d
00000020: 3b1c cebd e04e debd ea55 af3c 85e2 f7bc
00000030: 246a 90bd 818b 233d 90e8 0cbd 7c45 463d
00000040: 01a6 41bc 3452 d33c a509 69bc c2e6 50bc
00000050: ed68 df3d c21f aabb 6739 f33d 9fc3 14bd
00000060: da38 47bd 2771 b5bd 4441 683d ce2d ce3c
00000070: fd5d 133d d0ef ee3d 3fa0 aabc 72bf f1bc
00000080: 47ad 823d c11e f73b c17e 223d 743f 973d
00000090: 0da3 763d a28f 92bd 7040 0d3c 6300 e03d
000000a0: f6cd 923c c89f 1fbd 9ae4 583c 6939 723c
000000b0: 6dc0 cbbc bd9a f8b9 cc48 2d3d c5fe 8c3d
000000c0: 1aad 873d bafa 753c 38ea 2a3d 42e2 bdbd
000000d0: 566c c13c e35c 1d3d fcb7 8fbd 2f7b ec3d
000000e0: a753 96bb 1c53 36bd 4373 62bd eb5b 0fbd
000000f0: c2d5 b8bd 9636 b53d 2a6d 12bb a14b 85bd
0.10859025 -0.04497855 -0.051505063 -0.04903 0.048727546 0.062414724 0.050251562 0.073007934
-0.10063978 -0.10854888 0.021403272 -0.03025938 -0.07051495 0.039927963 -0.034401476 0.04840611
-0.011819364 0.025796033 -0.014223491 -0.012750329 0.10908685 -0.005191774 0.11876183 -0.03631937
-0.048638202 -0.08859473 0.056702867 0.025168326 0.035978306 0.11666834 -0.020828364 -0.029510234
0.06380706 0.007541508 0.039671663 0.073851496 0.06021409 -0.07156302 0.00862132 0.10937574
0.017920475 -0.03897074 0.013238097 0.014784195 -0.02487203 -0.00047417535 0.042305753 0.06884531
0.066248134 0.015013391 0.041727275 -0.09271671 0.023611229 0.03841866 -0.07017514 0.11546933
-0.004587609 -0.044512853 -0.055285703 -0.03499977 -0.09025146 0.08848302 -0.00223429 -0.06508566

head.weight f4 [1, 64]
00000000: 5f7c de3c 824c e5bd b7ac 823d ed28 00bd
00000010: fedb 9c3c 6f60 f43c 38b8 f6bc 4384 d93d
00000020: 78a6 ebbd 9c9e 19bd 93a9 003e 8b85 683c
00000030: 45dc ecbd 7e97 173e 6387 9bbd 1957 08bd
00000040: 3f73 563d 6afb d4bd b952 173d a0d3 443d
00000050: 01f6 c23d 3dcc acbd 9953 103e 373f e63d
00000060: 3c0b 24bd bbc9 14bd 85da 78bd 036a 31bd
00000070: 3715 083e 7c45 f43d f481 a43c 2831 043e
00000080: 97e2 d0bd e068 e23b 96d4 3ebd be4c bf3d
00000090: 527f 043d 9855 92bd 9ff7 e03c 8c1e 7d3d
000000a0: acdc 8dbc 0c15 363c 9da9 c2bd f923 0f3e
000000b0: 0798 16be e7d6 2fbd 23a2 b7bd 6984 14bd
000000c0: bf57 23bd 08bb 223d 357f d83d eb3a c0bc
000000d0: be46 983c c5e5 b03d 3775 c7bd e1ce 0a3d
000000e0: 6ee5 453d acd8 1b3d 97f1 95bd abef c3bc
000000f0: f2ce 4bbd 2fc2 1a3e 90fe adbd d384 89ba
0.027158914 -0.11196233 0.06380599 -0.03128903 0.01914787 0.02983114 -0.03011714 0.1062093
-0.11506361 -0.037504777 0.12564687 0.014191995 -0.115654506 0.14803883 -0.07594182 -0.033286188
0.052356 -0.10399516 0.036944125 0.048053384 0.09519578 -0.08437393 0.1409439 0.11242526
-0.040049776 -0.036325198 -0.06075527 -0.04331399 0.13289343 0.119273156 0.020081498 0.12909377
-0.101994686 0.0069094747 -0.046589456 0.09340809 0.032347985 -0.07145232 0.027461825 0.06179671
-0.017317139 0.011113416 -0.095050074 0.13978566 -0.14706431 -0.042929556 -0.08966472 -0.03625909
-0.039878603 0.03972915 0.10571138 -0.023465594 0.01858842 0.08637575 -0.09739154 0.0338887
0.048314504 0.03804843 -0.0732147 -0.023917994 -0.049757905 0.15113138 -0.084958196 -0.0010491855

input_proj.weight f4 [64, 29]
00000000: 44f0 0dbe add1 08be d52a 23be 2a87 dbba
00000010: a79e 16be 762c 09be 0c97 efbd d750 55bd
00000020: 084e 88bd 8b2f b0bd 10f2 8f3d 1515 9abc
00000030: f567 f1bd 0b79 7f3d 690c 003d 6a3c 743c
00000040: 5404 563e f126 69bc 5b2d 083e 4e56 b4bd
00000050: 27e8 94bd 3024 0e3d 9416 c2bd 9203 a43d
00000060: d534 33be 216c 8bbd d49e 3d3e 410e 1abc
00000070: 759f ce3d a048 293e 9ab1 2bbd b0ea 8cbc
00000080: ced5 02bb a5e4 8fbd 05c8 2cbc 9353 c63d
00000090: 3b51 1a3e 953a 0e3e df97 263e b753 d9bd
000000a0: 54c0 01be b23a 43be a408 033e 1162 b33d
000000b0: 8569 0dbd fcbe 0c3e e4b1 0fbe 0f12 20bd
000000c0: c5cf d1bb a4c1 833d 0577 273e 123d d3bd
000000d0: 90ac 3d3e e41d 353e e55a 4a3d 7d4b fabd
000000e0: 9cc8 7a3d 3280 1e3d 0e07 87bd 006e 2b3e
000000f0: 80d1 36be d686 c5bd 6fc0 c5bd b4ec 34bd
00000100: c4a3 023e 89b8 953a a146 603c 4f56 11be
00000110: 0b53 e4bd 4c84 f13d 8dbe 3dbd da07 3b3d
00000120: 5c48 1abe 9e3c f1bd 7d9c df3d 9a36 113e
00000130: 6e8e c53c aced 28be 3b5b d4bd ac83 9ebd
00000140: e0f8 af3d f9a2 1abe 473e f4bd c8f8 3cbe
00000150: e922 06be 2aa5 093e e4e1 8dbd 23b6 2ebd
00000160: 5767 8b3c 503c 8f3a a010 9abc d86f 0e3d
00000170: 1dab dbbd 054a 063e adde a1bc b645 ce3d
00000180: 96bd 25bc b7ba f93d fc77 ae3d f643 e1bd
00000190: 3bea 8cbc 3eb9 633d 89e1 44bd 3da7 20be
000001a0: 86d4 063e 5220 d43d 8146 cdbd 26b8 b93c
000001b0: 8332 173e e836 eebd 07a5 fabc 9acf 1cbe
000001c0: e0fd 2dbe cb20 173e c81a 853d cd2b f7bd
000001d0: d020 dbbc 672a acbd 63e7 5abd 311a 8cbd
000001e0: 5566 1d3d fc63 383d 1fdc 03be 1327 bc3d
000001f0: d0c6 333c f248 acbd 7614 ddbd 4738 723c
00000200: de1e 973d bfdd 38be 7469 67bd 738a 2bbe
00000210: 957c 23be c969 063e 6c5b bebc e103 2cbe
00000220: 84a4 2bbd 15d2 dcbd 129c ea3d d3dc eebc
00000230: 4780 e6bd de73 9bbd d841 28bd fc87 113e
00000240: a353 8a3c cc31 16be 96ef 74bd 695d 0e3e
00000250: 25f3 46be 4a80 cdbd 2612 303e 4464 b0bd
00000260: b8d0 1b3e e02c 0abe a59a 2b3e a27e 0d3e
00000270: fb08 fabc b150 23be 6510 aebd 4946 133d
00000280: 91c7 9fbd 200a ffbd ff89 16be 10b0 d83d
00000290: 72e8 0e3e 9814 5dbd 4508 81bb 60e0 e3bd
000002a0: 4395 db3d 59e8 f9bd 0eb0 d7bd a9d8 9abd
000002b0: aead 0bbd a4fd bb3c 5201 37be cec7 69bd
000002c0: 9fb0 70bd 0846 98bc f680 f13b d703 bc3b
000002d0: 4acd d03d 08d9 eabd 77b1 573c 590f 1b3e
000002e0: f3df 493c ebc1 0abe 32a7 f73d 4a8e 18be
000002f0: 2a84 a13d ca07 233e 9725 1c3c 6ead c73d
00000300: 297d 133e 75a8 ac3d 601f 83bd e077 413d
00000310: 8371 1d3e 5656 323d af1f 17be b876 253e
00000320: f346 383e e1b0 dc3d 3fbf ce3d 0e08 d93d
00000330: 9bdf fdbd f3d3 aabd 8417 583d 99be ba3c
00000340: 0cfe ad3d 24ca 52bc 6f07 2dbe ac3c 9d3d
00000350: b959 c2bd 49a2 0fbe 9d2e 3c3e 63ef b93d
00000360: 40f3 943d 6fa9 b3bd 025b 6a3d 4c1b 0a3d
00000370: c8a8 0a3e 4d95 053d 385b 2c3e d766 02bd
00000380: 4cf0 253e a6de 3a3e 02ee b33c f56a 0bbe
00000390: 9680 9838 de5b 173e a5ea 01be 1bea 87bd
000003a0: 7873 863d ea7e 483d d0e2 4e3e 66d6 6b3d
000003b0: 7534 b93c 02f3 973c 926d edbc 9420 39be
000003c0: e4bd 5dbd 2366 42be 6fdc fb3d 4c22 3b3c
000003d0: 919a 573c 2a2a d53b bd5f b6bd f209 f5bd
000003e0: 150c 3cbd e0bc 423d 0abc e6bd 55e6 efbd
000003f0: 4ab9 df3d f2c7 61bd a064 d93d d409 363e
-0.13861185 -0.13361235 -0.15934308 -0.0016748656 -0.14708959 -0.13395867 -0.11698732 -0.052079048
-0.06655508 -0.08602818 0.07028592 -0.01880888 -0.11787406 0.062371295 0.031261835 0.014906982
0.20900089 -0.014230476 0.13298552 -0.08805524 -0.07270842 0.03470248 -0.09476963 0.080084935
-0.17500623 -0.06807733 0.1851762 -0.009402812 0.10089008 0.1653161 -0.04191742 -0.017201751
-0.0019963863 -0.07026032 -0.010545735 0.09683909 0.1507005 0.13889535 0.16268872 -0.106116705
-0.12671024 -0.19065359 0.12796265 0.08758939 -0.03452446 0.1374473 -0.14032704 -0.039079722
-0.006402942 0.064334184 0.16353996 -0.103143826 0.18522859 0.17687184 0.04940309 -0.122214295
0.061226472 0.038696475 -0.065931424 0.1674118 -0.17853355 -0.096448585 -0.096558444 -0.04417105
0.12757784 0.0011422794 0.013688714 -0.1419308 -0.11148652 0.11792812 -0.0463243 0.045661785
-0.15066665 -0.1177914 0.1091852 0.14180985 0.024115767 -0.16496915 -0.10368963 -0.07739958
0.08592391 -0.15101232 -0.11925941 -0.18454278 -0.13099255 0.13441911 -0.06927851 -0.042654168
0.01701705 0.0010928009 -0.018806756 0.03477463 -0.10725997 0.13114174 -0.0197595 0.1007189
-0.010116002 0.12193816 0.08518979 -0.10999291 -0.017201534 0.055596583 -0.04806665 -0.15688796
0.13167009 0.10357727 -0.10023213 0.022670817 0.14765362 -0.11631566 -0.03059627 -0.15313569
-0.16991377 0.14758603 0.06499249 -0.12068901 -0.026749045 -0.08406525 -0.053443324 -0.06840933
0.03842767 0.045017228 -0.12876938 0.0918714 0.010972694 -0.08412351 -0.10794918 0.014783925
0.07378934 -0.1805334 -0.056497052 -0.16752033 -0.15965493 0.13126291 -0.023236953 -0.16798355
-0.04190494 -0.107822575 0.11455549 -0.029158032 -0.11254936 -0.07590459 -0.04107842 0.1421203
0.016885584 -0.14667434 -0.0597988 0.1390282 -0.1942869 -0.10034235 0.17194423 -0.08612874
0.15216339 -0.13493681 0.16758211 0.13817838 -0.03052186 -0.1594875 -0.08499221 0.0359557
-0.07801736 -0.12453103 -0.14701079 0.10580456 0.13955858 -0.053974718 -0.0039377534 -0.111267805
0.10721829 -0.1220252 -0.10531627 -0.07560856 -0.03410118 0.022948094 -0.17871597 -0.057075314
-0.05876219 -0.018588081 0.0073701097 0.0057377624 0.10195406 -0.11467177 0.0131648695 0.15142573
0.01232146 -0.13550536 0.12092437 -0.14898029 0.078865364 0.1592094 0.0095304465 0.09749876
0.14403214 0.08430568 -0.06402469 0.047233462 0.15375333 0.043539368 -0.1475818 0.16158569
0.17995815 0.107759245 0.10095071 0.105972394 -0.12396165 -0.08341207 0.0527568 0.022795962
0.08495721 -0.012865577 -0.16897367 0.07677588 -0.094897695 -0.1402675 0.18377157 0.090788625
0.07272959 -0.08772551 0.057215698 0.03371744 0.13540947 0.032613087 0.16831672 -0.031836357
0.16204947 0.18248996 0.021964077 -0.1361502 7.271876e-05 0.14781138 -0.12687166 -0.06636449
0.06564993 0.04894916 0.2020371 0.057577513 0.022608021 0.018548492 -0.028982911 -0.18078834
-0.054136172 -0.18984275 0.12297904 0.011421751 0.01315941 0.0065052705 -0.089049794 -0.119647875
-0.04590996 0.047543406 -0.11266334 -0.11713854 0.10924013 -0.055122323 0.10614896 0.17777187

input_proj.bias f4 [64]
00000000: 2ed7 0fbe f040 cfbd ef92 c53d 7b5d 37be
00000010: bf11 2d3e 2a04 12bd 06f5 333d 926b 883d
00000020: 03d7 d2bd e2c2 5dbe 49be 343d 581e 00be
00000030: d400 92bd c37e 8e3d d2b2 c1bd 1cef a03d
00000040: 2241 0ebe 8600 36be 1e42 0c3e c1ab 88bd
00000050: eb27 3c3e 961b 8abd b585 32bb 8ea4 543e
00000060: f834 49bd 7123 41be b524 debd 2a51 f53c
00000070: ffe1 203e 36ee 3f3e b51c 27bd 9638 6c3d
00000080: bcd1 d93d 9660 46bd b689 80bc c4a2 70bd
00000090: 133b 7a3d f5ec 1b3e bc6e 463e 5ec4 bbbd
000000a0: 0f0a 853d c794 263e ae48 80bd f3e7 c53d
000000b0: 071d 4abe aeaf 9a3d 41b1 82bd 3f17 123e
000000c0: 44c8 d13d 10af 9ebd 68b0 57bd cee8 23be
000000d0: f89e 13be 47be 0ebe b1ef 7a3d f8ec 223e
000000e0: 9526 b6bd 9dc2 253e 46d3 b6bd 3433 e63c
000000f0: e422 023e aede 323e 6ff0 37be ec73 4c3d
-0.14046928 -0.10119808 0.09647166 -0.17906754 0.16901301 -0.035648502 0.043934844 0.066611424
-0.102949165 -0.21656373 0.044126783 -0.12511575 -0.07129064 0.06957772 -0.094579354 0.078581065
-0.13892034 -0.17773637 0.13697097 -0.066733845 0.18374602 -0.06743543 -0.002724034 0.20765898
-0.04912278 -0.18861176 -0.10846845 0.029945929 0.1571121 0.18743214 -0.04079886 0.057671152
0.10635707 -0.048431955 -0.015690666 -0.058748975 0.061091494 0.1522711 0.1937818 -0.091683134
0.06496059 0.16267692 -0.062638626 0.096633814 -0.19737636 0.075530395 -0.06381465 0.1426668
0.10243276 -0.07748234 -0.05265847 -0.16006777 -0.1441611 -0.13939773 0.061263744 0.15910709
-0.08894078 0.1618752 -0.08927016 0.028100587 0.12708622 0.17467758 -0.17962812 0.04991524
