artifacts/model_exp-10_bottleneck_seed0_20251104T051618Z.pt (torch, 35625 bytes, 5 tensors)

net.0.weight f4 [128, 29]
000000 73 d1 ab bb bb 7a 7d 3d 3e 08 33 be 96 47 2a be
       -0.005243474 0.061884623 -0.17483613 -0.1662887
000010 04 e5 af bd ec e1 aa 3c e5 4d 65 bc c5 97 2c 3e
       -0.08588603 0.020859681 -0.013995622 0.1685477
000020 5f 45 45 bd 66 48 93 3d b9 29 65 bd 1f d2 9f bc
       -0.04816186 0.07191543 -0.055947993 -0.019509373
000030 c3 4c 0e be f8 62 12 be b7 cf a9 bd 7b 70 ec 3c
       -0.1389647 -0.14295566 -0.082915716 0.028862229
000040 3f 77 07 3e 2f ae 16 3e 65 25 e1 bd 29 2c 4c bd
       0.13229083 0.14714883 -0.109934606 -0.049846802
000050 1d d8 dc 3d b8 68 18 3e 5c a8 13 bd 02 4b 0e 3e
       0.10783408 0.14883697 -0.036049232 0.138958
000060 da 31 f5 bc 54 f7 a0 3c 9a 2d 2c 3e fd 65 30 be
       -0.029930998 0.019649185 0.1681427 -0.17226405
000070 74 6a ef bd c3 71 76 bd c6 43 56 bd 98 65 fa 3d
       -0.11690226 -0.060167085 -0.052310728 0.12226409
000080 d0 1b 1c be bf 69 e4 bd 6e 0b 03 be 81 54 43 be
       -0.15244985 -0.11152982 -0.12797329 -0.19075204
000090 ff 80 e1 bd 47 e7 27 3e e4 c8 a6 3d 4f 90 7e 3d
       -0.11010932 0.16396819 0.081437856 0.062149342
0000a0 a1 eb 84 bc 11 79 9c bd 6c 83 47 bb 4c 5d 2d be
       -0.016225638 -0.07640279 -0.0030443324 -0.16930121
0000b0 b1 31 e5 bd c9 76 b9 bd 69 d9 db 3d e8 c2 b5 3d
       -0.111911185 -0.090558596 0.10734827 0.08875066
0000c0 57 a4 bc bd c6 52 61 3b c7 c4 e9 3d 44 f9 2d 3e
       -0.09211033 0.0034381612 0.114144854 0.16989619
0000d0 97 ef 96 3d 64 81 cd 3c 19 fd fe 3d 85 ec df bd
       0.07369917 0.025086112 0.12450618 -0.109337844
0000e0 1a bc 0d 3d 09 6d 13 be d4 d8 03 be 40 21 03 be
       0.034603216 -0.14397062 -0.12875682 -0.12805653
0000f0 f9 97 33 3d 0b 08 2f 3d 7b e0 05 be 33 20 ed 3c
       0.043846104 0.04273228 -0.13073914 0.028946018
000100 0d 12 c4 3d 4d 9e 25 bd f9 1d 02 ba e2 4c 50 3c
       0.095737554 -0.04043417 -0.0004963573 0.012713643
000110 b6 80 cc 3d d8 35 57 3e 5b 39 0e be d6 56 bf bd
       0.09985487 0.21016634 -0.13889067 -0.093427345
000120 28 38 5c 3d 13 bc 3e 3e 74 2e 72 3e 2f bf 79 3e
       0.053764492 0.18626432 0.23650533 0.24389337
000130 f4 58 8f 3d da 3e eb bd 4c ed 99 3d e9 fb ec bd
       0.06999388 -0.11486597 0.07515964 -0.115714855
000140 3d 92 01 be da f2 28 3e 7e 95 10 3e 95 ae 3d be
       -0.12653442 0.1649889 0.14119527 -0.18523629
000150 55 5d 0e 3d ce 21 00 bd 45 55 fa bc 5f 3e a2 bd
       0.034756977 -0.03128224 -0.030558238 -0.079220526
000160 22 a1 57 3d 8f d0 1d be 55 8e 21 3d 15 49 97 3d
       0.052643903 -0.1541159 0.03944238 0.07386986
000170 5f 30 0b 3e d9 b2 68 3d 6e 06 58 be 48 d1 10 be
       0.13592671 0.056811187 -0.21096203 -0.14142334
000180 08 51 d4 3d 87 fc 48 3d 25 4f 22 be e8 8f 8a bd
       0.10367018 0.049068954 -0.15850504 -0.06765729
000190 8b ee 17 3e 6f 66 12 3e ec 84 96 bd 42 c0 8f bd
       0.1483709 0.14296888 -0.073495716 -0.07019092
0001a0 b8 11 34 be c8 80 66 bb 1f d4 12 be 43 30 21 be
       -0.17584884 -0.0035171974 -0.1433873 -0.15741067
0001b0 9a 87 42 bc af a8 30 3c fb be 9b bd f5 a9 e1 3d
       -0.01187315 0.010782405 -0.07604786 0.11018745
0001c0 0d 6e e7 bd cb 89 2c 3e a8 4f 02 3e 1a 5a 20 be
       -0.113002874 0.16849439 0.12725699 -0.15659371
0001d0 53 a0 42 bd d7 c5 80 3c c8 57 29 3c 05 c9 20 3b
       -0.04751618 0.015719337 0.01033587 0.002453388
0001e0 06 6a 45 3d 83 7a 4d 3d f3 0e 84 bd be bd 46 3d
       0.048196815 0.050165664 -0.06448164 0.048520796
0001f0 4c db 23 be a6 ff 1d be 6e d0 10 bc b8 82 24 bd
       -0.16001624 -0.15429553 -0.008838756 -0.040163726
000200 32 45 f6 bc 1f 2b f2 bd 29 ef 18 bd 82 ed af 3c
       -0.030062292 -0.11824631 -0.037337456 0.021475557
000210 aa 7e 2f be e8 f5 8a bb fc 15 2f 3e 13 7a c5 bc
       -0.17138162 -0.00424074 0.1709823 -0.024106061
000220 36 be 29 bd 35 61 c4 3c 15 f2 2f 3d f4 cf f1 3d
       -0.041441165 0.023972133 0.042955477 0.11807242
000230 eb 1e 34 3e ab 83 f1 3d 6c 88 34 3e a3 08 5c bc
       0.1758992 0.11792692 0.17630166 -0.0134297935
000240 52 d1 2a be 48 b8 94 bd 13 ca e4 3d 93 01 b8 3c
       -0.16681412 -0.07261711 0.11171355 0.022461688
000250 81 27 b7 bd 69 e0 fd bd 4b 00 1c be 68 79 09 be
       -0.08943082 -0.123963185 -0.15234487 -0.13425219
000260 3e 4d 1b bd 7f 9f e6 3d d4 b5 ae 3d 5d 53 28 be
       -0.03791546 0.1126089 0.08530775 -0.1643805
000270 05 a2 0f 3e e7 1a 02 be 21 cf 73 bc 8d 63 ab bd
       0.1402665 -0.12705575 -0.014880926 -0.08368597
000280 af 97 70 bd 7e 62 39 bd 40 cf 19 be de 90 05 be
       -0.058738407 -0.045259945 -0.15020466 -0.13043544
000290 ad b7 cc bc a5 10 10 bc 48 2f 7c bd bb a0 b3 3d
       -0.024989927 -0.008793031 -0.06156853 0.08770891
0002a0 de 25 2b be 4b 53 4d bc 30 39 27 3e 7b 1f 9b bd
       -0.16713664 -0.012532066 0.16330409 -0.07574364
0002b0 37 b5 2b 3e 82 ba 89 3d a5 4b 51 be 12 a3 e5 3d
       0.16768347 0.06725027 -0.20439012 0.11212744
0002c0 8b e8 16 bd 6d 86 c8 bd 27 32 17 3e ee d5 1e be
       -0.036842864 -0.09791265 0.14765225 -0.15511295
0002d0 27 d6 d9 3c ed b0 64 bd c3 c6 20 3e 30 82 33 3d
       0.026591374 -0.055832792 0.15700822 0.04382533
0002e0 2c ec af 3d 05 75 5e 3d 2f 9a 3c bd 2e 0f 63 bd
       0.08589968 0.054310817 -0.04604548 -0.0554344
0002f0 f5 73 3a be 86 f7 f4 3d cc ac 43 3e 9a b2 2e 3e
       -0.18208297 0.11961274 0.19108886 0.17060319
000300 f4 be fe bd 26 52 02 3d ed db c7 bd 8d 09 ca bd
       -0.12438765 0.031816624 -0.097587444 -0.09865103
000310 f6 a0 94 bd 8e f7 81 3d d1 a0 e2 bd 38 c1 84 bb
       -0.07257263 0.063460454 -0.110658295 -0.004051354
000320 95 fa ff 3b 1b 27 f5 3d 5f bd 0f be f2 5b c7 bd
       0.007811854 0.119703494 -0.14037083 -0.09734334
000330 56 0e d6 bd a5 fb f8 3d 7e 18 a3 bd 43 6c 10 3e
       -0.10451953 0.121573724 -0.07963656 0.14103799
000340 1b ed 9a 3d cb db 49 3d f2 c9 01 3c b9 fe 59 bd
       0.075647555 0.049281877 0.007921683 -0.053221438
000350 a8 4c 2c 3d 43 75 06 bd 92 f7 61 bc 70 43 2a 3d
       0.042065293 -0.032826673 -0.0137919355 0.04156822
000360 c7 fb 1c be 0c 27 a7 bd 99 f3 06 3e aa de 1e be
       -0.1533042 -0.081617445 0.13178863 -0.15514627
000370 3b 94 08 bd 17 71 29 3e c1 4f 49 3d dc 23 35 bc
       -0.03334449 0.16547047 0.049148325 -0.011055913
000380 e3 a9 13 be 9d a8 98 3d 0e 71 07 be d2 e8 57 bd
       -0.14420275 0.074540354 -0.1322672 -0.05271227
000390 4a 32 7f bd de 45 e1 bc b2 1d 05 3b bd d6 1c 3e
       -0.06230382 -0.027499136 0.002031189 0.15316291
0003a0 dc 43 9d 3d 4b 31 12 3e 5c 1f a8 3d 12 51 2d be
       0.07678959 0.14276616 0.08209106 -0.16925457
0003b0 f6 32 61 3d 87 3c 18 be 1c 43 8c bd 6f de 95 3d
       0.05498024 -0.1486684 -0.068487376 0.073178165
0003c0 82 b1 b2 3c 7c 4e 2a 3e 1c 95 5f bd 6b fd 9a 3b
       0.021813158 0.16631502 -0.05458556 0.004729917
0003d0 e3 24 00 3e 86 db 4e be c6 23 13 3e 97 2c fe bd
       0.12514071 -0.20200929 0.14369115 -0.124108486
0003e0 8b e3 2d 3d c0 82 ce 3b 49 be b5 bd f0 d1 81 3d
       0.04245333 0.0063022077 -0.08874185 0.063388705
0003f0 09 9a 41 3e d7 64 53 bd 56 ad fc bd b5 a6 8c bd
       0.18906416 -0.05160984 -0.12337749 -0.06867734

net.0.bias f4 [128]
000000 48 6e 17 3e 79 3f 39 be 72 fb d6 3d ac 84 c7 3d
       0.14788163 -0.18090619 0.10497178 0.09742102
000010 a7 e1 84 bd 0c b0 f1 3d 06 93 e3 bd 45 31 a5 bd
       -0.06488352 0.118011564 -0.11112027 -0.08066038
000020 4a dd 64 3e 41 59 71 3e 60 e6 0d 3e d7 c1 68 bd
       0.2235004 0.23569204 0.13857412 -0.056825485
000030 d2 6f f0 bd 1c e4 ef bd f2 57 84 3b 99 28 00 3e
       -0.11740078 -0.1171343 0.004038804 0.12515487
000040 c9 46 13 3d db c6 06 3d 1e 6b 5c 3e 5f 7a 60 3e
       0.035956178 0.032904487 0.21525237 0.21921681
000050 75 cd 58 bd 0d 5f 0b bd f7 c9 e6 3c 56 cb bd 3d
       -0.052930314 -0.034026194 0.028172476 0.09267299
000060 bb b7 49 3d 8c 17 cd 3d 44 fe 27 3e 39 6c 54 3d
       0.049247485 0.10014257 0.16405588 0.05186102
000070 ea 8d 30 3e 2e 26 9e 3d 34 39 e8 3d e8 65 dd 3d
       0.17241636 0.07722126 0.11339036 0.10810453
000080 75 ad d4 bc 0c b4 65 bd d3 bb 04 3e ef b8 b3 bd
       -0.025961617 -0.05607991 0.12962274 -0.08775508
000090 e3 10 19 3e 2d f8 a6 bd 91 4b 2d 3e 92 b3 e8 3d
       0.14947848 -0.081528045 0.16923358 0.11362375
0000a0 b1 67 0d bd 04 b3 12 3e 6f 7c 33 bd ce a9 f5 3d
       -0.034522716 0.14326102 -0.04381984 0.11995278
0000b0 d5 7b c7 3d e9 0d 53 3d 80 69 55 3d fb 8f 3c 3d
       0.09740416 0.051526938 0.052102566 0.046035748
0000c0 c6 4d f2 bc 4d 13 17 3e 56 0b 4e 3d c5 77 48 3d
       -0.0295781 0.14753456 0.05030378 0.048942346
0000d0 dd 73 fe 3d 65 91 82 bd e5 01 30 3c a7 3b 9b 3c
       0.12424443 -0.06375388 0.010742639 0.018949343
0000e0 a7 63 39 3e 87 3a f8 bd d2 72 a2 bd 8f 7b 94 3b
       0.1810442 -0.12120538 -0.079320565 0.004531331
0000f0 ab 79 39 be 5e cc eb bd 49 ed 45 3e 43 97 8a 3d
       -0.18112819 -0.11513589 0.19328798 0.06767132
000100 ac 08 37 be 14 e9 a9 3b 57 8c 13 3d 62 27 ca bd
       -0.17874402 0.005185256 0.03602251 -0.09870793
000110 2a 09 b6 bd ba 65 0e 3e 08 56 41 3c 82 27 63 3e
       -0.08888467 0.13905993 0.011800297 0.2218304
000120 f5 24 22 be 02 4c c7 bd 9b e7 cf 3c a9 c3 08 be
       -0.1583441 -0.09731294 0.025378993 -0.13355888
000130 14 08 44 3e 4d 85 4d 3e cb 2b 6e 3e d2 ab 91 bd
       0.19143707 0.20070381 0.23258893 -0.0711285
000140 fa b1 2d 3e 48 7d 3d 3e d7 37 c3 bd 40 d3 86 3d
       0.16962424 0.18504822 -0.09532135 0.065832615
000150 de cf 00 3e 03 0e 30 3e d3 98 23 be dd 94 5d 3e
       0.12579295 0.17192845 -0.15976267 0.21638818
000160 00 5e 3b bb c3 75 e2 3d 90 57 e0 bd d0 c6 b7 bd
       -0.0028589964 0.110576175 -0.10954201 -0.08973467
000170 60 e5 dc bd 52 0b 1a 3e 7c 24 4a bd 69 3e 3d 3e
       -0.10785937 0.15043381 -0.0493512 0.18480839
000180 4f 3d 2c 3d 7d 88 0d 3e e0 fe 26 3d 41 2a a6 3b
       0.042050656 0.13821597 0.04077041 0.005070955
000190 b9 ee c1 bd 5d 7f 97 bd b4 64 79 3e 97 a5 61 bc
       -0.09469361 -0.073973395 0.24354821 -0.01377239
0001a0 c5 07 35 bd 1a 7a 0f be aa 2c 91 3d 72 c8 40 be
       -0.044196863 -0.14011422 0.07088597 -0.18826464
0001b0 82 2d 44 bb f2 81 23 3e 59 2a a0 bd ae 4c 1b 3e
       -0.0029934351 0.15967539 -0.07820577 0.1516597
0001c0 58 f9 b5 bd 5b 0a f6 bd 81 b8 26 be aa 82 0b 3e
       -0.08885449 -0.12013694 -0.1628132 0.13624063
0001d0 94 c0 bc bd 39 a3 2d 3e a9 6b 6c 3d b5 88 9c 3d
       -0.09216419 0.16956796 0.05771986 0.07643262
0001e0 11 0e a5 bd 40 20 3f 3e e4 54 25 be 9e 28 0f be
       -0.080593236 0.18664646 -0.16145664 -0.13980338
0001f0 c5 7e 21 3e 6d 9f 82 3d ec 35 a7 bd 37 e9 70 bd
       0.15771015 0.06378064 -0.08164582 -0.05881616

net.2.weight f4 [32, 128]
000000 31 2a c4 bd ae 02 bd bd 1a 97 12 bd c0 97 5c 3d
       -0.0957836 -0.09229027 -0.035788633 0.053855658
000010 01 5b 37 3c ae c1 1c 3a e7 5b 22 bd 5e 17 86 3d
       0.011191131 0.0005979788 -0.039638426 0.06547426
000020 11 52 81 bc 3e a1 51 3c 58 e0 70 bc 9c 13 34 bb
       -0.015786203 0.012794791 -0.014701925 -0.0027477508
000030 ef e9 69 3c 52 a0 50 3d b7 0b 12 3d 78 9d c1 bb
       0.0142769655 0.050934143 0.035655703 -0.0059086643
000040 91 99 9a 3c f5 ff 29 bd 39 1d 30 3d 22 e4 0a 3c
       0.018872054 -0.041503865 0.04299662 0.008477243
000050 e3 e6 54 3d f5 20 f0 bc 15 85 b2 bd 94 16 ba 3a
       0.051978003 -0.02931259 -0.0871679 0.0014197403
000060 31 06 ab 3c 1c 88 5f 3d a5 86 90 3c 39 03 85 3c
       0.020876976 0.054573163 0.017642329 0.016236888
000070 c0 e1 59 3d 0a 92 3d bd 21 d5 7e 3d 55 76 e7 3c
       0.053193808 -0.04628185 0.062214974 0.028254667
000080 23 20 2d 3d 0a a3 37 3d 89 f0 b1 bd 46 bb e1 3c
       0.042266976 0.04483322 -0.086884566 0.02755512
000090 9e 87 84 3d 02 c6 9d bd c9 02 b3 bc f2 c4 8d bd
       0.064711794 -0.077037826 -0.021851914 -0.0692233
0000a0 bf 92 15 bd ff f7 28 bb c8 8b 03 3d 80 43 2c bd
       -0.0365169 -0.0025782583 0.032115728 -0.04205656
0000b0 2b f2 ce bd c1 5c fe 3c 2f f4 08 3d 69 a4 0b bd
       -0.101047836 0.031050088 0.033435997 -0.03409234
0000c0 01 ef 6f 3d d2 f5 5e 3d 8d a1 15 bd 5c 62 4a bc
       0.05857754 0.05443365 -0.03653102 -0.012352552
0000d0 da 41 08 bb 32 19 0b bd 4f 44 13 bd 97 61 63 bd
       -0.0020791204 -0.033959575 -0.035953816 -0.05551299
0000e0 87 a7 8b bd c5 12 e7 3c d7 a3 2b bd cd d5 6e bd
       -0.06819063 0.028207192 -0.041904297 -0.058309365
0000f0 1f ee 83 3d 2f da 10 bb 53 fb 3c 3d 67 ee 82 3d
       0.06441902 -0.0022102704 0.04613812 0.06393128
000100 d5 9f e6 bc 94 f5 1c bb 89 c2 85 3d 84 e2 9a bd
       -0.028152386 -0.0023950087 0.06531245 -0.07562736
000110 99 f6 38 bd 86 ad 88 bb 9a b0 b4 bc 1e cc e1 3b
       -0.04515705 -0.004171076 -0.022056866 0.0068907877
000120 61 0e fb 3c 38 62 57 bd d4 9c 25 bc 92 34 86 3d
       0.030646505 -0.052583903 -0.0101081915 0.06552996
000130 4c 47 88 bd 7b 4b 9a bd b4 b9 ad bd 34 83 14 3d
       -0.06654224 -0.07533928 -0.08482686 0.036257938
000140 41 1b c5 bd a0 fe 6d bd 3d ec 30 3d 54 b4 8b bd
       -0.09624339 -0.058104157 0.043194044 -0.06821504
000150 97 cb 68 3d 6c 0b 62 bd 00 32 0e bb dd 19 48 bb
       0.056834783 -0.055186674 -0.0021697283 -0.0030532994
000160 59 e8 8c bc da f3 18 3d b0 6d 6f 3d 20 58 90 bd
       -0.017200636 0.03734193 0.058454216 -0.070480585
000170 3d af 0c 3d b5 a4 0b 3c 19 bf 87 bc df d9 a0 bd
       0.034346808 0.008523156 -0.016570615 -0.078540556
000180 4b 88 3d 3c 62 78 40 3d ca 16 bc bd 08 d2 c6 bd
       0.011568139 0.046989806 -0.09184034 -0.09708029
000190 2e 57 d5 bd 17 d5 81 3b 32 b8 29 bd 55 aa 2a bd
       -0.10417019 0.00396217 -0.041435428 -0.041666348
0001a0 36 f9 83 3d bf 6a 1f bd 0f 19 93 bd 0f 9a 04 bc
       0.064440176 -0.03892016 -0.07182514 -0.008093371
0001b0 08 13 81 bd dc 12 31 bd 64 8f 04 3d c6 0b 87 3b
       -0.06302458 -0.043230876 0.03236331 0.0041212765
0001c0 17 5c 9b bd 07 04 89 3d 1e dc 3c 3d 6d 8f 9d bd
       -0.07585924 0.06690221 0.046108358 -0.07693372
0001d0 84 05 b0 3c da 6a 96 3c 4d 7f a0 bd 4d 0c 9d bd
       0.021487005 0.018361498 -0.07836781 -0.07668362
0001e0 82 15 b9 bd 2f ba c0 3c 7d d0 4c 3a 7c 90 bd 3c
       -0.090373054 0.02352628 0.00078130496 0.023140185
0001f0 25 a1 5e bd 9a 98 52 3d e3 e4 80 bb f4 2c ad bd
       -0.0543529 0.051415063 -0.0039335354 -0.0845584
000200 f8 94 f8 3b 1c 96 81 3d 11 f9 7c 3d 11 cf cd bb
       0.007586118 0.06327459 0.061760966 -0.0062807878
000210 4d fa 2c bd 4b 25 0e bd e0 20 c1 3d 73 80 15 bd
       -0.042230893 -0.034703534 0.094300985 -0.03649945
000220 34 ba b5 3d 67 cf 47 bb 70 0a ba 3c 8b 8e 94 bd
       0.08873406 -0.0030488612 0.022710055 -0.072537504
000230 ec a2 b2 b9 83 87 a6 3d c8 cb 81 bd 03 7f a7 3d
       -0.00034072192 0.081313156 -0.06337696 0.081785224
000240 67 75 5c bd e9 8a dc 3c d9 4e 33 bd ec 6c 1b bd
       -0.0538229 0.026921706 -0.043776367 -0.037945673
000250 a8 db 3a bd 88 8c d7 bb 24 90 0a 3d 22 59 3c bd
       -0.045619637 -0.006578032 0.03382887 -0.04598344
000260 5c 13 35 3d 69 33 ab 3d a8 fa cb 3d c1 b5 fe 3d
       0.044207916 0.08359415 0.09959918 0.124370106
000270 4e 03 ca 3d ca 21 d1 bb 57 50 9f 3c 90 af bf 3d
       0.098639116 -0.006382202 0.019447489 0.09359658
000280 64 79 72 3d 9b 63 37 3c 12 13 c1 3d bd 6d 85 bd
       0.0591978 0.011193181 0.094274655 -0.065150715
000290 7f 36 d9 3d 65 ec 99 3d 56 fe 35 bd 47 08 41 bd
       0.106060974 0.07515792 -0.044432007 -0.047127035
0002a0 2a 0e b3 3d 23 ad cf 3d 01 7d e1 3c f0 09 1b bc
       0.08742936 0.10140445 0.027525427 -0.0094628185
0002b0 8c 3d 97 3d 03 ee 7f 3d 4e 42 e1 3c 01 a0 c4 3d
       0.07384786 0.062482845 0.027497437 0.09600831
0002c0 f5 d8 8a 3d a7 81 56 3d 83 dc 8c 3d e4 08 85 bd
       0.067796625 0.05236974 0.06877997 -0.064958364
0002d0 9d d7 d6 bb 0b 01 94 3c ec 9a 68 3d 21 3b 10 3c
       -0.006556465 0.018066904 0.05678837 0.00880316
0002e0 79 88 4c 3d af e0 83 3d 9d 1b 7f bd 0d b5 3b 3d
       0.049934838 0.06439339 -0.062282193 0.04582696
0002f0 1c c5 18 3d 2a c4 57 bd c6 76 0c 3d dc 22 d8 3b
       0.037297353 -0.05267731 0.03429296 0.0065959524
000300 9c 20 8b bc 58 5e 81 bd 6d 04 b8 3d 44 4d 41 bd
       -0.016983323 -0.06316823 0.08985219 -0.047192827
000310 da 78 6e 3d 3c d9 b8 3d c5 bb c7 3b 25 06 b8 bc
       0.05822072 0.09025809 0.006095382 -0.022463867
000320 a7 64 64 bd f4 82 cd 3c b1 6e af bc cd 17 1f 3d
       -0.055760052 0.025086857 -0.021415086 0.038841058
000330 b8 ee 83 3d 54 33 43 bb 50 c8 bc 3d 76 bc 0d 3c
       0.06442016 -0.0029785233 0.09217894 0.00865089
000340 28 99 8e bb ce cc fa bc e7 e2 23 3d 28 4d d0 bc
       -0.0043517537 -0.030615237 0.040011313 -0.025427416
000350 12 62 81 3d b8 c5 9c 3c e8 43 6c 3d 14 15 d4 bc
       0.063175336 0.019137248 0.057681948 -0.025888957
000360 b2 a2 be bc 5d 20 ca 3c 45 dc 25 bd a7 9c 61 3d
       -0.023270939 0.024673635 -0.04049327 0.055081036
000370 96 31 a4 bc 51 c3 55 3d 43 b1 85 3d b8 52 aa 3d
       -0.020043176 0.05218822 0.065279506 0.083165586
000380 a4 fe 40 3b 2e 41 ad 3d e2 6b 6f bc ce 08 21 bd
       0.0029448653 0.08459698 -0.014613124 -0.039315037
000390 e7 38 a8 3c 31 1b 56 bd b4 b2 1c bd f0 67 2e 3d
       0.020534946 -0.052272025 -0.038256362 0.04257959
0003a0 a5 66 b8 3d 85 c6 a9 bc ce 44 e8 3c 00 74 43 bd
       0.09003953 -0.020724544 0.028353121 -0.047718048
0003b0 15 ad cc 3c 72 3a 5c 3d aa dd a6 bb ca 64 a0 3d
       0.024984876 0.053766675 -0.0050923424 0.07831724
0003c0 7e 75 87 bd e5 4e 18 bc fc 86 c3 bc 3d 53 f2 3d
       -0.06614207 -0.009296154 -0.023868077 0.11832283
0003d0 f3 73 c3 3d 9b 6b f2 3d f8 60 c0 3d e2 a0 47 3d
       0.095436 0.1183693 0.09393495 0.048737414
0003e0 e2 0b 0f bd a2 e7 a5 bc 8b 1e 32 3d 14 21 81 bd
       -0.03492344 -0.020252053 0.04348616 -0.06305137
0003f0 1e f5 b1 3d a1 7e b1 3d 11 17 c4 3c 67 ed 57 bd
       0.086893305 0.08666731 0.02393678 -0.05271664

net.2.bias f4 [32]
000000 f7 cb 47 bc 13 2a f9 3d 79 d9 41 3b 6e 99 98 3d
       -0.012194625 0.12166228 0.0029579087 0.074511394
000010 d1 d8 79 bd 99 e7 d9 3d 14 d3 0b 3d 56 02 3f 3c
       -0.060997788 0.10639877 0.034136847 0.011658272
000020 04 43 8c bc 5a 37 34 3d cb 14 ab 3d ff d1 ab 3d
       -0.0171218 0.0439981 0.08353575 0.08389663
000030 06 a3 11 3c 37 0c 41 bc 88 29 7b 3c 91 42 6f bc
       0.0088889655 -0.011782697 0.015329726 -0.014603273
000040 a3 c6 8f 3b 14 1f e4 3d 14 dc cd 3d 52 fa 44 3c
       0.004387693 0.1113874 0.10051742 0.012022572
000050 9d 60 bb 3d 95 17 12 3d 1f 52 07 3e 44 24 cf bd
       0.09149287 0.03566702 0.1321492 -0.10114339
000060 97 c3 f3 3b 2c 5e b9 bd 8e e3 30 3d f4 30 3b 3d
       0.0074390876 -0.09051165 0.043185763 0.045700982
000070 bf 64 d7 3d 80 b8 2b bd e4 4b 51 3d 08 5c 4b 3b
       0.10517263 -0.041924 0.051097766 0.0031030197

head.weight f4 [1, 32]
000000 7b 53 3d bd 02 b0 46 3e af 3a 17 3e 00 d1 e6 3d
       -0.04622219 0.19403079 0.1476848 0.11270332
000010 2b bc 71 bd f8 8a 1a 3e 58 5b 9f bd c1 19 02 be
       -0.05901734 0.15092075 -0.07781094 -0.12705137
000020 d8 ed 37 bd d9 8e 79 39 c2 77 0f 3e 40 f5 cf 3d
       -0.04490456 0.00023799705 0.14010528 0.101541996
000030 3b a4 ba 3d 25 5f 26 bd 0d ef 26 3e df 7c 41 3e
       0.09113356 -0.04061808 0.16302128 0.18895291
000040 64 c2 0d be 61 11 3a 3e de 78 8f 3d b6 06 b4 3d
       -0.13843685 0.18170692 0.070054755 0.087903425
000050 3b 30 c3 3d 93 df 00 3e e9 5e 01 3d 88 65 07 bd
       0.095306836 0.12585287 0.031584654 -0.033055812
000060 0b 1b 3f bd 1e cd d1 bd 74 1c 81 3c 83 90 aa bd
       -0.04665665 -0.10244201 0.015760638 -0.08328345
000070 41 ee 08 3e 76 4e ea bd 9c a9 3e 3e d4 a6 0e be
       0.13372137 -0.114407465 0.18619388 -0.13930827
