artifacts/model_exp-01_baseline_20251104T051224Z.pt (torch, 52169 bytes, 5 tensors)

net.0.weight f4 [128, 29]
0.15385917 0.14896736 -0.054682594 0.13770796 -0.07428789 0.052934583 -0.10676418 0.15256032
0.196746 -0.14066969 0.16820417 0.067447536 0.16987799 0.007785531 0.062845334 -0.041783307
0.19414364 0.06051594 -0.062160157 0.07835754 -0.04665209 -0.028786236 -0.050714828 0.1231849
-0.14658237 -0.08560747 -0.052435674 -0.11165349 0.017526506 -0.19766995 0.16611914 -0.1743509
0.11392732 0.0103359185 -0.004580549 0.12864144 0.05437452 0.1784483 0.034400165 -0.038787704
0.056051046 -0.025849713 0.06507989 0.15810452 0.1251803 -0.10262796 0.11339019 0.04101349
0.099759884 -0.1173952 -0.1384679 -0.063129894 -0.14243257 0.15237024 0.053486075 0.07691752
0.058728226 -0.003230351 0.16154614 -0.13864389 -0.021231385 -0.14785607 0.050599344 -0.06307311
0.05119383 -0.06674264 0.17553431 -0.11280878 -0.096481614 -0.08772645 0.1705589 0.052553345
0.18277226 -0.1600384 -0.19584103 -0.11305172 -0.092922434 0.08439155 0.055664577 0.14888819
-0.091265514 -0.1265907 0.09852588 -0.075058885 0.11270292 -0.04406562 0.10622626 -0.20245957
-0.067109056 0.055776477 0.022527818 -0.043446872 0.08638034 0.08625968 -0.1292701 -0.14038716
0.18957789 -0.061246004 -0.055050492 -0.12505282 -0.111862615 0.046998043 -0.002161503 -0.14485034
0.025557317 -0.103097424 -0.14906049 -0.11229367 -0.20363437 -0.11866988 0.1856227 0.0350732
0.05722382 -0.17319512 -0.121959835 -0.061809774 0.0021789155 -0.13729182 -0.1106382 -0.15256746
-0.026456283 -0.053564206 0.004728535 -0.18922582 -0.16518046 -0.13710037 -0.116062105 -0.1570539
0.15792276 -0.0398739 0.16248554 0.07608864 -0.17807913 0.14390887 -0.030764801 -0.0728426
-0.16850272 -0.16529343 0.027730258 -0.040564008 0.07229549 -0.15239337 0.13786563 -0.13631035
-0.032064635 0.020293128 0.08028375 0.13403954 0.14783432 -0.16689137 0.06525182 -0.06467975
-0.020568546 -0.12159318 0.15030669 -0.1231954 0.0865101 0.061013926 0.05879121 -0.079520315
0.1578292 0.021094363 0.004621988 -0.16494203 0.056475244 -0.049204916 -0.06710963 0.14208014
0.04140055 -0.10274085 -0.093987636 -0.008868014 0.10368509 -0.047451437 -0.120814726 -0.072189316
-0.1562204 0.048994504 0.1318472 -0.16752988 0.045566943 0.10841242 0.043474354 -0.08234698
0.1090839 0.091531135 0.0814081 -0.052689098 -0.067065865 0.05827229 0.03255843 -0.038959656
0.12737665 0.17160033 0.022578508 -0.03669199 0.015555509 -0.0110875415 0.044643253 0.052038077
-0.16865905 -0.068528585 0.15637952 0.07511627 -0.008925924 -0.1390761 -0.13711248 -0.18593644
-0.041887887 0.05288146 0.11118112 0.07778443 -0.17564094 -0.15091823 -0.011035465 0.19279526
-0.0052305423 -0.06267496 0.095793985 -0.07713897 -0.0984163 0.14893602 -0.070009604 -0.03441541
-0.19089112 0.11579056 0.14068922 0.06767633 -0.12948057 -0.18327014 -0.15081784 0.13847305
0.08844786 0.14598703 0.110704675 0.037866034 -0.00837756 -0.12220541 -0.14195552 -0.1518072
0.05808976 -0.07518899 -0.020410169 -0.08789068 -0.020830065 -0.10992781 -0.10271133 0.040561337
-0.07646461 0.099337585 -0.03869776 -0.15403253 -0.05495526 -0.07194556 -0.063788146 -0.17678115
00000000: 428d 1d3e e68a 183e dbfa 5fbd 5103 0d3e
00000010: 4024 98bd efd1 583d 2ea7 dabd c638 1c3e
00000020: c977 493e b70b 10be b73d 2c3e ef21 8a3d
00000030: 7ff4 2d3e c51d ff3b 0eb5 803d f924 2bbd
00000040: 97cd 463e 90df 773d a69b 7ebd eb79 a03d
00000050: 4316 3fbd 1dd1 ebbc 5aba 4fbd 5d48 fc3d
00000060: b019 16be f852 afbd cac6 56bd 96aa e4bd
00000070: bf93 8f3c fe69 4abe 231b 2a3e 0b89 32be
00000080: ba52 e93d fc57 293c 6e18 96bb 95ba 033e
00000090: d1b7 5e3d 27bb 363e 30e7 0c3d dbdf 1ebd
000000a0: c895 653d c7c2 d3bc 9b48 853d 27e6 213e
000000b0: 442f 003e 9c2e d2bd 1e39 e83d c3fd 273d
000000c0: e94e cc3d e56c f0bd 87ca 0dbe 3f4a 81bd
000000d0: d8d9 11be f206 1c3e 3714 5b3d ef86 9d3d
000000e0: 028d 703d 4cb4 53bb 5a6c 253e aaf8 0dbe
000000f0: 71ed adbc 9567 17be 4241 4f3d 7a2c 81bd
00000100: 9fb0 513d 5eb0 88bd 44bf 333e 4a08 e7bd
00000110: 2798 c5bd eda9 b3bd fea6 2e3e 2d42 573d
00000120: a728 3b3e 1be1 23be 8d8a 48be a987 e7bd
00000130: 1e4e bebd 7ad5 ac3d 8a00 643d 2576 183e
00000140: 6ae9 babd fea0 01be f0c7 c93d 79b8 99bd
00000150: cad0 e63d 277e 34bd 278d d93d 9051 4fbe
00000160: 7970 89bd e075 643d 428c b83c 59f5 31bd
00000170: 2de8 b03d eaa8 b03d 625f 04be a7c1 0fbe
00000180: b520 423e 17dd 7abd a07c 61bd d90d 00be
00000190: 3a18 e5bd 0581 403d 01a8 0dbb a653 14be
000001a0: 945d d13c be24 d3bd 50a3 18be 39fa e5bd
000001b0: 8785 50be 3209 f3bd e113 3e3e eaa8 0f3d
000001c0: 8663 6a3d 105a 31be 14c6 f9bd 3f2c 7dbd
000001d0: 23cc 0e3b 3a96 0cbe 4896 e2bd a53a 1cbe
000001e0: d9ba d8bc 2466 5bbd d4f1 9a3b 6ac4 41be
000001f0: 1125 29be 0a64 0cbe f8b1 edbd bdd2 20be
00000200: 81b6 213e d152 23bd 9c62 263e 5cd4 9b3d
00000210: 605a 36be d95c 133e 7706 fcbc 802e 95bd
00000220: fa8b 2cbe ae42 29be 912a e33c 7226 26bd
00000230: a80f 943d 020d 1cbe a62c 0d3e f194 0bbe
00000240: 3556 03bd c63d a63c cf6b a43d a941 093e
00000250: e161 173e 92e5 2abe bfa2 853d d176 84bd
00000260: 5e7f a8bc d805 f9bd ffe9 193e df4d fcbd
00000270: 352c b13d bde9 793d 0dcf 703d 8cdb a2bd
00000280: fa9d 213e 16ce ac3c 0c74 973b 90e6 28be
00000290: 9652 673d 188b 49bd c670 89bd 757d 113e
000002a0: a093 293d cb69 d2bd 977c c0bd 264b 11bc
000002b0: d958 d43d 705c 42bd b66d f7bd fed7 93bd
000002c0: 3ef8 1fbe 76ae 483d f402 073e f48c 2bbe
000002d0: 67a4 3a3d 5507 de3d 2a12 323d 89a5 a8bd
000002e0: 6167 df3d ad74 bb3d 4ab9 a63d 86d0 57bd
000002f0: d459 89bd edae 6e3d fd5b 053d 2994 1fbd
00000300: 066f 023e ffb7 2f3e 90f6 b83c 574a 16bd
00000310: 89dc 7e3c 85a8 35bc d8db 363d e125 553d
00000320: f5b4 2cbe b758 8cbd f421 203e 8fd6 993d
00000330: 0a3e 12bc f769 0ebe 3767 0cbe 1f66 3ebe
00000340: a292 2bbd 3b9a 583d edb2 e33d 714d 9f3d
00000350: 38db 33be 4f8a 1abe 18ce 34bc 1f6c 453e
00000360: f864 abbb bb5b 80bd a32f c43d 09fb 9dbd
00000370: 7c8e c9bd af82 183e 3261 8fbd 2cf7 0cbd
00000380: f678 43be 9a23 ed3d d610 103e e399 8a3d
00000390: 8e96 04be 2bab 3bbe fe6f 1abe e1cb 0d3e
000003a0: 2724 b53d a07d 153e 22b9 e23d 6a19 1b3d
000003b0: 0942 09bc d446 fabd ca5c 11be 5973 1bbe
000003c0: 87ef 6d3d affc 99bd 3a33 a7bc 0700 b4bd
000003d0: d0a3 aabc d521 e1bd 515a d2bd a523 263d
000003e0: 7a99 9cbd 8171 cb3d 8b81 1ebd b4ba 1dbe
000003f0: c418 61bd 3258 93bd 5ca3 82bd 1e06 35be

net.0.bias f4 [128]
-0.045906685 0.07229154 0.1766592 0.005849373 0.07350369 -0.009560705 0.03862891 0.15814897
0.0760947 -0.10924492 0.22957598 0.107422955 -0.007835304 0.20509547 0.041086387 0.17336795
-0.111070216 0.2136815 0.21362408 -0.11821218 -0.1392086 -0.024938434 -0.05333627 0.04409963
0.121164106 -0.015740253 0.12202161 0.041194133 -0.019307692 -0.11341959 0.105546035 -0.19097482
0.012160899 0.076335944 -0.06731811 0.099007584 0.07942862 0.16196038 0.17178586 -0.1483026
-0.14184809 -0.042532012 -0.09897271 0.096641526 -0.09329939 -0.11248865 0.10097495 0.12146654
-0.057805967 -0.19625586 0.067359805 0.1453279 0.18786551 0.02463933 0.17377123 -0.14452328
0.21953376 -0.1397979 -0.08594408 0.12597074 -0.0130177075 0.13939242 -0.09612803 0.18032745
0.21492511 0.08942573 0.19303538 -0.10147974 -0.018267946 0.101028 0.18485428 -0.057197526
0.1655124 -0.026425773 -0.05547132 0.04266382 -0.14058638 -0.14686303 0.10750882 0.0627338
0.102887124 0.01594776 -0.10612475 -0.10916317 0.23154177 -0.123295374 0.08493612 0.17918433
0.19535255 -0.044941094 -0.01227037 -0.17443387 0.1752446 -0.18092564 -0.14317037 -0.0877828
0.21516928 0.15224424 0.109151386 0.11298171 -0.031435397 -0.06695368 -0.06815434 0.0504183
0.043215718 0.06201576 -0.11060026 0.013799139 -0.06897282 -0.006548069 0.009915259 0.05896949
-0.17818199 0.17699985 -0.058944397 0.09361612 0.17692871 0.079699256 0.16490564 0.18132815
0.17168623 0.010285018 0.1644702 -0.04670719 -0.05870811 0.14017095 0.08028882 0.026928028
00000000: a608 3cbd 960d 943d 26e6 343e 19ac bf3b
00000010: 1a89 963d 81a4 1cbc 5939 1e3d cef1 213e
00000020: 8ad7 9b3d cdbb dfbd f715 6b3e 9100 dc3d
00000030: a65f 00bc 8c04 523e 334a 283d 5e87 313e
00000040: c878 e3bd 53cf 5a3e 45c0 5a3e 3a19 f2bd
00000050: b38c 0ebe b04b ccbc 2277 5abd d0a1 343d
00000060: e324 f83d b4f1 80bc 77e6 f93d 2ebb 283d
00000070: 2a2b 9ebc 8848 e8bd 8528 d83d e78e 43be
00000080: 823e 473c 0556 9c3d 14de 89bd 7dc4 ca3d
00000090: 79ab a23d f1d8 253e a2e8 2f3e a3dc 17be
000000a0: a040 11be 0c36 2ebd 34b2 cabd feeb c53d
000000b0: c013 bfbd 7360 e6bd f4cb ce3d 73c3 f83d
000000c0: f3c5 6cbd 4cf7 48be f0f3 893d d6d0 143e
000000d0: d15f 403e 6cd8 c93c 16f1 313e e9fd 13be
000000e0: 75cd 603e 2e27 0fbe 7303 b0bd 79fe 003e
000000f0: 3948 55bc e3bc 0e3e c6de c4bd c2a7 383e
00000100: 5415 5c3e d624 b73d 11ab 453e 9cd4 cfbd
00000110: a9a6 95bc c5e7 ce3d 714a 3d3e f447 6abd
00000120: 157c 293e dd7a d8bc e535 63bd 42c0 2e3d
00000130: e0f5 0fbe 4363 16be 962d dc3d 947a 803d
00000140: 7cb6 d23d e0a4 823c ef57 d9bd f190 dfbd
00000150: 4919 6d3e 4982 fcbd fdf2 ad3d 197c 373e
00000160: 800a 483e 2714 38bd a909 49bc cb9e 32be
00000170: 5273 333e 9244 39be 419b 12be 78c7 b3bd
00000180: 5655 5c3e eae5 1b3e c38a df3d f462 e73d
00000190: 67c2 00bd 031f 89bd 8194 8bbd 6b83 4e3d
000001a0: f702 313d 3d04 7e3d 6482 e2bd c915 623c
000001b0: 9f41 8dbd 2f91 d6bb 9c73 223c fe89 713d
000001c0: 5775 36be 733f 353e ae6f 71bd cfb9 bf3d
000001d0: cd2c 353e 5d39 a33d 06dd 283e 16ae 393e
000001e0: 84ce 2f3e 7e82 283c e06a 283e 0a50 3fbd
000001f0: ea77 70bd f988 0f3e 776e a43d 2b98 dc3c

net.2.weight f4 [64, 128]
-0.05065749 0.036554 0.072605185 0.008002416 0.04207548 0.05125648 -0.081286125 0.009199776
-0.019459372 -0.005075188 0.086503714 0.11869367 0.034982156 0.084543265 -0.046046313 0.04861222
0.013814134 -0.02694981 0.052423783 0.035650086 0.0026106343 0.056971636 0.06714377 0.0978182
0.01978964 0.024593402 0.028502682 0.050336864 -0.044512443 0.024201468 -0.04725559 -0.072228715
-0.05622893 0.09123151 -0.031735573 0.0021358512 0.018429391 0.09286282 0.07119531 -0.041392133
0.114948064 -0.07952463 0.034796167 0.10959785 0.101910956 -0.0032369595 -0.042354926 0.06608708
0.07162605 -0.0306459 0.0017921332 -0.029372439 0.06040209 0.049679752 0.068132415 -0.010556949
-0.052415878 -0.021900171 -0.057725683 -0.0046157753 0.057926804 -0.03983853 0.0087208785 -0.05881347
-0.035959173 -0.053721756 -0.016862197 -0.032576393 0.05116687 0.07534026 0.11319655 0.062460434
0.038240686 0.00059378875 0.07918875 -0.00015682608 0.0749938 -0.09394962 -0.044026252 0.054002885
-0.036483727 0.039996304 0.089450896 0.069504716 0.11837504 -0.034664996 -0.035547566 0.011233877
0.016919851 0.0124335615 0.011389956 0.098431535 -0.012370512 0.0687231 0.058098424 0.06293845
0.048444346 -0.011632746 0.06637231 -0.025004823 -0.027555889 0.108465515 0.09053451 -0.03843792
0.08091956 0.040470142 0.040081948 0.11022461 0.0043182913 -0.0020716984 0.08457781 0.010342817
-0.0008268452 0.011182204 0.10049877 0.07098648 0.010332791 0.020496365 0.026470441 -0.0044239773
0.039149888 -0.048241314 0.024161546 0.0050210566 0.0055204234 0.114987604 0.04628145 0.057339862
-0.07378469 -0.0044153812 0.009478594 0.0294983 -0.042340603 -0.036063176 -0.091097064 0.03732855
0.040616587 0.023189416 0.025912818 0.035189606 0.06517187 0.012273051 0.014077629 0.013152259
-0.06771175 0.0040291743 0.009850327 -0.084528096 -0.040638484 -0.069818735 -0.07255243 0.04564264
0.050691273 -0.02755778 0.009560998 -0.038372934 0.0021739262 -0.031170009 -0.06373262 -0.0528743
0.0719921 -0.0040571396 -0.06442701 -0.009535276 -0.10296841 -0.014361242 0.047703568 -0.004574839
0.00497807 -0.10246836 -0.030911475 0.03708537 -0.07985565 -0.056952287 0.039740358 0.009777169
0.02408247 -0.0962121 0.037784282 -0.035749182 0.0017077937 0.055494495 -0.098884925 0.008743697
-0.09771784 0.050545607 0.0058315797 -0.0060556075 -0.051825672 0.017421896 -0.05867846 -0.00041499225
0.056915123 -0.08375336 -0.043381248 0.0045481874 -0.003379074 -0.01708598 0.057989378 -0.042213466
0.0066416804 0.032137204 -0.035032496 0.03973096 0.03840935 0.018583704 -0.035070278 0.060243506
-0.0699536 0.008885364 0.001870692 0.04579527 -0.08974369 -0.0033352722 -0.07068456 0.032086294
0.015547801 -0.085930094 -0.021939889 0.008256103 0.020325353 0.059389643 0.025820145 -0.00096440426
0.029763103 -0.100222126 0.042999506 -0.026419291 0.029680891 0.0085089 -0.018452205 0.04641973
-0.06757483 0.010520537 0.018717559 -0.047764815 0.016869605 -0.10344715 -0.061750583 0.02659625
0.030632747 -0.09491807 0.013112076 -0.010175225 0.07025708 -0.10169492 -0.035721824 -0.06722052
-0.068180405 -0.031405024 -0.096647896 0.05440012 -0.0491829 0.014703409 -0.06749494 -0.01577076
00000000: 3a7e 4fbd a6b9 153d 07b2 943d 911c 033c
00000010: 5757 2c3d 51f2 513d 5779 a6bd a8ba 163c
00000020: 4369 9fbc c34d a6bb dc28 b13d ab15 f33d
00000030: 7349 0f3d 0525 ad3d 0f9b 3cbd 9b1d 473d
00000040: ad54 623c d9c5 dcbc 52ba 563d d305 123d
00000050: 2d17 2b3b 175b 693d ac82 893d e954 c83d
00000060: e21d a23c 1a78 c93c 757e e93c 072e 4e3d
00000070: ae52 36bd 2842 c63c 148f 41bd a6ec 93bd
00000080: 4e50 66bd 96d7 ba3d 29fd 01bd a3f9 0b3b
00000090: 3cf9 963c dd2e be3d d9ce 913d cc8a 29bd
000000a0: e469 eb3d cfdd a2bd 6d86 0e3d d674 e03d
000000b0: b1b6 d03d 2b23 54bb 5c7c 2dbd aa58 873d
000000c0: aeb0 923d 1c0d fbbc 03e6 ea3a 789e f0bc
000000d0: 2f68 773d ff7c 4b3d 0289 8b3d 0ef7 2cbc
000000e0: 08b2 56bd fd67 b3bc c471 6cbd ee3f 97bb
000000f0: a844 6d3d ba2d 23bd 04e2 0e3c 65e6 70bd
00000100: ed49 13bd 580b 5cbd 9722 8abc d36e 05bd
00000110: 5a94 513d ff4b 9a3d 98d3 e73d 83d6 7f3d
00000120: 44a2 1c3d 7da8 1b3a b62d a23d ae71 24b9
00000130: 5996 993d a968 c0bd df54 34bd 2132 5d3d
00000140: f66f 15bd 2ad3 233d 0832 b73d 7d58 8e3d
00000150: 9d6e f23d e2fc 0dbd 539a 11bd 4c0e 383c
00000160: 809b 8a3c 23b6 4b3c f09c 3a3c 7996 c93d
00000170: b0ad 4abc b2be 8c3d 9df8 6d3d e0e5 803d
00000180: 946d 463d 4697 3ebc 35ee 873d ead6 ccbc
00000190: e3bc e1bc 2b23 de3d 286a b93d 1571 1dbd
000001a0: 27b9 a53d 05c4 253d f82c 243d 71bd e13d
000001b0: 7480 8d3b 55c5 07bb 2137 ad3d eb74 293c
000001c0: a4c0 58ba 9035 373c 4dd2 cd3d 5c61 913d
000001d0: de4a 293c fee7 a73c 8ad8 d83c 03f7 90bb
000001e0: a25b 203d af98 45bd 6fee c53c ad87 a43b
000001f0: abe4 b43b 9f7e eb3d 9e91 3d3d 34dd 6a3d
00000200: 6d1c 97bd e7ae 90bb 1b4c 1b3c 6ba6 f13c
00000210: 576d 2dbd fbb6 13bd 1991 babd d2e5 183d
00000220: 945d 263d bbf7 bd3c 1e47 d43c fa22 103d
00000230: d478 853d e814 493c dba5 663c 937c 573c
00000240: 75ac 8abd 2a07 843b 4463 213c 111d adbd
00000250: 8a74 26bd 20fd 8ebd 5e96 94bd c7f3 3a3d
00000260: a7a1 4f3d dac0 e1bc bba5 1c3c f02c 1dbd
00000270: 6e78 0e3b 3f58 ffbc 3f86 82bd b992 58bd
00000280: 9870 933d c1f1 84bb 4ff2 83bd d939 1cbc
00000290: 1ae1 d2bd 6a4b 6bbc d164 433d 88e8 95bb
000002a0: 141f a33b eeda d1bd 103a fdbc d4e6 173d
000002b0: 5c8b a3bd cd46 69bd c9c6 223d 6b30 203c
000002c0: 9a48 c53c d90a c5bd b1c3 1a3d bc6d 12bd
000002d0: 0cd8 df3a 324e 633d 2e84 cabd b941 0f3c
000002e0: 4a20 c8bd e908 4f3d d616 bf3b 1e6e c6bb
000002f0: 2847 54bd 5db8 8e3c d358 70bd 5193 d9b9
00000300: d51f 693d e286 abbd 89b0 31bd f608 953b
00000310: 7473 5dbb e6f7 8bbc 4586 6d3d 07e8 2cbd
00000320: 74a2 d93b 4da2 033d 3c7e 0fbd eebc 223d
00000330: 1f53 1d3d da3c 983c daa5 0fbd e5c1 763d
00000340: d543 8fbd eb93 113c 0232 f53a d293 3b3d
00000350: 8acb b7bd 9594 5abb 11c3 90bd eb6c 033d
00000360: 34bc 7e3c 1efc afbd 48bb b3bc 9b44 073c
00000370: 5b81 a63c 8e42 733d c584 d33c 13d0 7cba
00000380: c0d1 f33c 4241 cdbd 4020 303d 456d d8bc
00000390: 5725 f33c ea68 0b3c 1429 97bc 9d22 3e3d
000003a0: ac64 8abd 555e 2c3c 9155 993c 0aa5 43bd
000003b0: 2032 8a3c 19dc d3bd 2eee 7cbd 61e0 d93c
000003c0: 87f1 fa3c 6864 c2bd 08d4 563c fdb5 26bc
000003d0: f2e2 8f3d 6d45 d0bd 0c51 12bd e9aa 89bd
000003e0: 2ba2 8bbd 8ea2 00bd 55ef c5bd a9d2 5e3d
000003f0: 0274 49bd 91e6 703c c93a 8abd ae31 81bc

net.2.bias f4 [64]
0.11316379 -0.044740066 -0.048824653 -0.023529923 0.048736054 0.068361 0.05043166 0.07549973
-0.10054419 -0.054383066 0.023822777 -0.021583144 -0.07164235 0.04195622 -0.034094125 0.04837218
-0.005377838 0.026250474 -0.012643101 -0.008769621 0.111314006 -0.005514772 0.12096349 -0.034085296
-0.048184745 -0.031010292 0.056760255 0.025257245 0.038256817 0.11929252 -0.018888025 -0.026626918
0.06355201 0.019190049 0.039752945 0.076243035 0.06425492 -0.071779124 0.0121877305 0.11325856
0.017540148 -0.039417017 0.013390608 0.018041126 -0.024833225 0.0013294858 0.042616405 0.06833677
0.0672017 0.020156883 0.045647543 -0.03861808 0.030443443 0.042618625 -0.07059626 0.11992997
0.0008659972 -0.04119554 -0.054419953 -0.034120798 -0.08884257 0.09058022 -0.0019514082 -0.06408431
00000000: 6bc2 e73d 5c41 37bd 5cfc 47bd d3c1 c0bc
00000010: 759f 473d da00 8c3d 6e91 4e3d 9a9f 9a3d
00000020: 1dea cdbd c7c0 5ebd fc27 c33c 22cf b0bc
00000030: 39b9 92bd 49da 2b3d 48a6 0bbd e821 463d
00000040: 9338 b0bb 3c0b d73c 0225 4fbc 75ae 0fbc
00000050: 99f8 e33d 43b5 b4bb b5bb f73d 069d 0bbd
00000060: 5e5d 45bd 4c09 febc 717d 683d 48e8 ce3c
00000070: 2eb3 1c3d a34f f43d 0fbb 9abc b220 dabc
00000080: 8e27 823d 7334 9d3c fcd3 223d 4f25 9c3d
00000090: 1598 833d ef00 93bd 0caf 473c 1bf4 e73d
000000a0: 5bb0 8f3c bd73 21bd 4864 5b3c fcca 933c
000000b0: 0c6f cbbc 2442 ae3a 8a8e 2e3d 26f4 8b3d
000000c0: 0ba1 893d 0c20 a53c ebf8 3a3d fe2d 1ebd
000000d0: 8764 f93c de90 2e3d c694 90bd d89d f53d
000000e0: 1704 633a a8bc 28bd 75e7 5ebd 40c2 0bbd
000000f0: 18f3 b5bd 1f82 b93d 65c6 ffba a23e 83bd

head.weight f4 [1, 64]
0.038955905 -0.09204837 0.057396647 0.012991532 0.0005880333 0.039989077 -0.03914569 0.10973965
-0.07862032 0.018342078 0.12745158 0.04673687 -0.078783214 0.14833179 -0.058586676 -0.034492273
0.092286214 -0.06260937 0.01606703 0.06731644 0.093371585 -0.062222496 0.14282854 0.10436271
-0.034643743 0.023301156 -0.031889416 -0.048264142 0.13212693 0.118435405 0.058285497 0.12509233
-0.10482301 0.03474709 -0.046634357 0.0933054 0.033081822 -0.08403741 0.025408212 0.07799273
-0.022903994 0.0048821117 -0.0759356 0.13288772 -0.1058023 -0.06135559 -0.08124959 -0.04156908
-0.05581697 0.06606577 0.12381895 0.02603671 0.049449794 0.11756423 -0.11134609 0.036395576
0.08086457 0.036796395 -0.039910316 -0.025291406 -0.05163783 0.14854035 -0.04139283 -0.012212675
00000000: 3a90 1f3d db83 bcbd bf18 6b3d 6fda 543c
00000010: 3f26 1a3a 96cb 233d 3b57 20bd 2ebf e03d
00000020: b103 a1bd 2042 963c ab82 023e 296f 3f3d
00000030: 1859 a1bd 4ae4 173e 95f8 6fbd c547 0dbd
00000040: 8e00 bd3d 5739 80bd 019f 833c 34dd 893d
00000050: 9a39 bf3d 04dd 7ebd a541 123e 1ebc d53d
00000060: 99e6 0dbd 11e2 be3c 7a9e 02bd 9fb0 45bd
00000070: 484c 073e 438e f23d c6bc 6e3d 3418 003e
00000080: 72ad d6bd f752 0e3d ab03 3fbd e716 bf3d
00000090: ce80 073d ce1b acbd e224 d03c a7ba 9f3d
000000a0: 28a1 bbbc 1ffa 9f3b 2084 9bbd b813 083e
000000b0: e0ae d8bd 0050 7bbd 2f66 a6bd 5744 2abd
000000c0: 56a0 64bd 7e4d 873d ca94 fd3d f04a d53c
000000d0: de8b 4a3d 84c5 f03d 6b09 e4bd 8713 153d
000000e0: 539c a53d d1b7 163d 0079 23bd ec2f cfbc
000000f0: 3082 53bd f61a 183e 878b 29bd ac17 48bc
