artifacts/model_exp-11_skip_seed0_20251104T051616Z.pt (torch, 60507 bytes, 7 tensors)

net.0.weight f4 [128, 29]
00000000: a92b 39bd da55 863d 2aab 2fbe 7957 2bbe
00000010: 4956 bfbd d82e a33c 0832 b5ba 9891 193e
00000020: 6e2f e4bb 6790 233d e8b2 ccbd a382 cdbc
00000030: b341 27be e19c 0dbe a50d c4bd f1f0 8e3c
00000040: 51b7 023e ad8c 033e bb1e f9bd 44c0 62bd
00000050: e9f5 e63d f5e2 1c3e f4e0 30bd 024b 0e3e
00000060: da31 f5bc 54f7 a03c 9a2d 2c3e fd65 30be
00000070: 746a efbd 433d 8abd b9f0 9abd 9720 2a3e
00000080: 0735 eebd 5495 8cbd 211a dcbd 70a3 4bbe
00000090: 75d8 05be 968d 523e 50e3 2d3d 78b7 963d
000000a0: 858d bd3b c97e d3bd a4dd 023d 915e 55be
000000b0: befa 12be fd4c bebd f36c 183e 3d9a 013e
000000c0: 32be 79bd 1d0f 0a3b 7c67 023e 4b75 4f3e
000000d0: 97ef 963d 6481 cd3c 19fd fe3d 85ec dfbd
000000e0: 1abc 0d3d 096d 13be 0549 07be 176c ccbd
000000f0: 7982 913d 90d4 413d 145b 02be 52e2 173d
00000100: 2ce1 d53d e64c eebc 8fd7 09bb a15e aa3c
00000110: e40d d13d a1fa 3f3e c763 03be 73b0 c3bd
00000120: f82a 743d 4bcc 3a3e 8c5e 613e d649 403e
00000130: 1a0b 2a3d 77ff 03be 4b89 823d 9e95 dfbd
00000140: f469 38be daf2 283e 7e95 103e 95ae 3dbe
00000150: 555d 0e3d ce21 00bd 4555 fabc d530 adbd
00000160: 7cf4 503d b757 09be d8b2 3b3d 8dc4 9d3d
00000170: ed82 de3d 4f65 3e3d 6fad 5abe fb7d 03be
00000180: 45cf bf3d 4922 f63c e960 30be 7c2b 98bd
00000190: ca8a 1f3e 953a 0c3e 329a 9dbd 99f9 91bd
000001a0: e0f8 31be 9042 85b8 c509 15be 4a67 20be
000001b0: 5840 d9bc bb29 6e3c fbbe 9bbd f5a9 e13d
000001c0: 0d6e e7bd cb89 2c3e a84f 023e 1a5a 20be
000001d0: 10b5 8bbd 2d9f 9bbc bb32 223d 65cf 4c3d
000001e0: e5b3 a63d f77a 323d 85db 93bd 50dc a03d
000001f0: a5bc 26be cc00 03be 3bee 73bc 5b06 7ebd
00000200: 56ec 95bd c3e7 1bbe f8c7 8ebd 3ea0 aa3c
00000210: 61b0 d2bd 9399 133c 4c9a 1e3e 7a3a 2dbb
00000220: 497b c93c b1de 6e3c 039a 543d f4cf f13d
00000230: eb1e 343e ab83 f13d 6c88 343e a308 5cbc
00000240: 52d1 2abe 86fb abbd 2418 0f3e 450b 803c
00000250: 4a0c 02be bb10 0fbe d723 1abe db25 e4bd
00000260: f16d 60bd 84d3 053e a002 b53d edf9 3dbe
00000270: 3f18 033e 6723 d9bd 2bf8 93bc f955 8fbd
00000280: 705b 5abd da9c 85bd 3b06 17be 14ef e9bd
00000290: 8961 15bd 82f9 a5bc 7a6d 35bd a97e 9e3d
000002a0: de25 2bbe 4b53 4dbc 3039 273e 7b1f 9bbd
000002b0: 37b5 2b3e 82ba 893d 5658 61be db9c 8f3d
000002c0: 7b50 543c 694d bcbd c25a 1d3e 1139 04be
000002d0: c3aa 453d 6dfc 58bd 74b7 043e a377 233d
000002e0: f673 b13d aaba d23d d297 0bbd abba fbbc
000002f0: c919 38be 2bf9 953d 69d5 1f3e dbeb 113e
00000300: e84a c7bd 337a a63b d9ab 02be e609 86bd
00000310: 6df7 c7bd 8ef7 813d d1a0 e2bd 38c1 84bb
00000320: 95fa ff3b 1b27 f53d 5fbd 0fbe 96fe f1bd
00000330: 6882 98bd c93f d43d ff12 c4bd a168 083e
00000340: d004 a03d db77 203d f922 753c 3478 6cbd
00000350: b500 1e3d 7576 4bbc 9cd4 05bd 11a2 e63c
00000360: 7ec9 2cbe 064b 92bd d798 1f3e ce7e 1cbe
00000370: 935a 1cbd fa1f 263e 7092 193d 4980 8abc
00000380: 069c 11be 3cb6 7f3d 0e71 07be d2e8 57bd
00000390: 4a32 7fbd de45 e1bc b21d 053b bdd6 1c3e
000003a0: 6415 b63d dafc e83d cbb1 013e e227 01be
000003b0: 606e bf3d f289 f7bd 0191 dcbc df4e a33d
000003c0: ecae 913d e227 153e 72d4 6abd b115 fb3c
000003d0: 27a6 e53d 75f3 2ebe 13e9 0d3e 1a2c 31be
000003e0: e561 97bc d594 83bc 50e3 81bd bd71 f43c
000003f0: 8581 113e b633 27bc effd dbbd b5a6 8cbd
-0.045207653 0.06559344 -0.17155138 -0.16732587 -0.093426295 0.019919798 -0.0013824115 0.14996946
-0.006963662 0.039932635 -0.09995061 -0.025086707 -0.16333656 -0.13829376 -0.09572915 0.017448874
0.12765242 0.12846632 -0.121640645 -0.05535914 0.112773724 0.15320952 -0.043183282 0.138958
-0.029930998 0.019649185 0.1681427 -0.17226405 -0.11690226 -0.06749966 -0.075654455 0.16613995
-0.11631208 -0.068644196 -0.10747171 -0.19886565 -0.13070853 0.20561823 0.04245311 0.07359213
0.0057846927 -0.10326917 0.031949654 -0.20836855 -0.14353463 -0.09292028 0.14885311 0.12656493
-0.0609724 0.0021066137 0.12734789 0.20259587 0.07369917 0.025086112 0.12450618 -0.109337844
0.034603216 -0.14397062 -0.13211448 -0.09981554 0.07104964 0.047321856 -0.12730056 0.03708107
0.10443339 -0.029089402 -0.0021033024 0.020797076 0.102077276 0.18747951 -0.12831031 -0.095551394
0.05961129 0.18241994 0.22008723 0.18778166 0.041514494 -0.12890421 0.06373843 -0.10917209
-0.18009168 0.1649889 0.14119527 -0.18523629 0.034756977 -0.03128224 -0.030558238 -0.084565796
0.05101441 -0.13412367 0.045824856 0.07703505 0.10864816 0.046483334 -0.21355222 -0.12841026
0.093657054 0.030045645 -0.17224468 -0.07430169 0.15580288 0.13694222 -0.07695426 -0.07127685
-0.17380095 -6.3543324e-05 -0.14554508 -0.15664402 -0.02651994 0.0145363165 -0.07604786 0.11018745
-0.113002874 0.16849439 0.12725699 -0.15659371 -0.06821644 -0.0189968 0.03959916 0.050002474
0.08139781 0.0435743 -0.072196044 0.07854521 -0.162829 -0.12793273 -0.014888342 -0.06201778
-0.07320468 -0.15225129 -0.06971735 0.020828363 -0.10287548 0.009008783 0.15488547 -0.002643256
0.02459492 0.014579461 0.05190469 0.11807242 0.1758992 0.11792692 0.17630166 -0.0134297935
-0.16681412 -0.08397584 0.13974053 0.015630374 -0.127 -0.13971226 -0.15052734 -0.11140033
-0.05479235 0.13068968 0.08838391 -0.1855237 0.12802218 -0.106024556 -0.018062672 -0.0699882
-0.053309858 -0.06524058 -0.1474847 -0.11422554 -0.03646997 -0.020260576 -0.044293858 0.07739002
-0.16713664 -0.012532066 0.16330409 -0.07574364 0.16768347 0.06725027 -0.22006354 0.0701234
0.012958641 -0.09194452 0.15366653 -0.12912394 0.048258554 -0.052975107 0.12960607 0.039909016
0.08664696 0.102895096 -0.034080334 -0.030728659 -0.17978586 0.07322916 0.15608753 0.14250128
-0.09731084 0.0050804853 -0.12760867 -0.06544857 -0.097639896 0.063460454 -0.110658295 -0.004051354
0.007811854 0.119703494 -0.14037083 -0.118161365 -0.07446748 0.103637286 -0.09573936 0.13321163
0.07813418 0.039176803 0.014961951 -0.057731822 0.038574893 -0.012418379 -0.032673463 0.028153451
-0.16873738 -0.07143216 0.15585648 -0.15282747 -0.038172316 0.16223136 0.03749317 -0.016906874
-0.14219674 0.06242965 -0.1322672 -0.05271227 -0.06230382 -0.027499136 0.002031189 0.15316291
0.08890799 0.113763526 0.12665479 -0.1261287 0.09347224 -0.12086858 -0.026924612 0.07974028
0.07113442 0.14565995 -0.05733151 0.030649992 0.11213332 -0.17085059 0.13858442 -0.1730198
-0.018479297 -0.01606218 -0.063421845 0.02983939 0.14209564 -0.0102052 -0.10741793 -0.06867734

net.0.bias f4 [128]
00000000: 7494 033e 2d8b 13be b7a7 a13d 8df5 c83d
00000010: 585e 2abd 1ca6 063e 54b2 1abe ffef a2bd
00000020: 803e 3c3e 3b0f 603e d937 013e 7617 93bd
00000030: 19ea 00be 7666 27be e483 a7bb 66db b23d
00000040: 753b c83d 7728 3ebb 55a8 503e 3add 413e
00000050: 8be8 0ebd c12f 55bd a02a 9b3c ac32 c43d
00000060: 33c8 e33b 7573 b43d 2d85 213e 319c a93b
00000070: d547 f03d 17ea f93c a4af dd3d 7e95 913d
00000080: ac6d 7bbc 2d1c 7abd dccb f23d e71b c2bd
00000090: b3df 0c3e 3cbc c7bd 4e17 2c3e 1c46 e53d
000000a0: ac69 85bd 1c88 0e3e f59c 15bd ed6c 963d
000000b0: a638 a73d 5d83 713d b459 c83d dcc0 d63c
000000c0: 720f d6bc 4bcf 123e 3106 ec3d b1b5 523d
000000d0: 6180 213e b2cb b6bd 9ee1 ab3a 8ec7 d23c
000000e0: be61 013e 7f58 2abe 6d02 00be f2dc e7bb
000000f0: 590a 28be 502b 1bbe 9b2a 3c3e 16e0 b13c
00000100: 3bf8 0ebe b8e5 d3bb 6383 d93c 3f93 adbd
00000110: b51a 14be 7998 bc3d dd25 743b d76b 5b3e
00000120: ec56 d1bd b0fc e8bd f738 063b 33e0 c6bd
00000130: 07a4 303e 8247 053e 4aeb 543e fbd0 adbd
00000140: 8b6b 2a3e 8dc7 2a3e 8b8b 09bd 50d2 653d
00000150: 27d9 033e 3c76 f73d ae83 1abe 3548 573e
00000160: 3c49 e1bc bc8c dc3d c8c6 e6bd beae f8bd
00000170: 44b5 cabd 531e f83d ecc6 e8bd 799d 1e3e
00000180: a8df a53d a870 ff3d bd73 93bb 1763 aebc
00000190: 181b 7cbd 88f9 f6bd 760e 623e 6ed5 e63b
000001a0: 3036 97bd 576d 47be 04dd 793d e860 3dbe
000001b0: 4117 933c 407a 033e 86f9 95bd 74c7 073e
000001c0: 1430 8abd c49b 02be 6aa7 2bbe 2ea0 023e
000001d0: e982 debd 094a 143e 9b68 7e3d 2889 b53d
000001e0: 855e ccbd a411 523e b810 28be 1a98 f4bd
000001f0: 8aa8 183e 49dd 463d 72cc 9ebd a226 46bd
0.12849599 -0.1440856 0.07893317 0.0981246 -0.04159388 0.13149303 -0.1510709 -0.07955932
0.18383217 0.2188081 0.1261896 -0.07182209 -0.12589301 -0.1634768 -0.005112158 0.08733253
0.097769655 -0.0029015818 0.20376714 0.18932047 -0.03488974 -0.052047495 0.018941224 0.095799774
0.006951356 0.08811084 0.15773459 0.00517609 0.11732451 0.03050713 0.108245164 0.071085915
-0.015345972 -0.061062027 0.11855289 -0.09477978 0.1375721 -0.097527 0.16805765 0.11195013
-0.06514296 0.13919109 -0.03652664 0.07344995 0.08165102 0.05896317 0.097827345 0.02621501
-0.026130412 0.14336888 0.115246184 0.051442806 0.15771629 -0.089255705 0.0013113504 0.02572992
0.12634942 -0.16635321 -0.12500925 -0.0070758993 -0.16410197 -0.15153241 0.18375628 0.021713298
-0.1396188 -0.0064665936 0.026551908 -0.084753506 -0.14463313 0.09208769 0.0037254014 0.21427856
-0.10221657 -0.11376321 0.002048073 -0.09710731 0.17250071 0.1301556 0.2079288 -0.084871255
0.16642587 0.16677685 -0.033580344 0.056108773 0.12875806 0.12083098 -0.15089294 0.21023639
-0.027500741 0.107690305 -0.11268383 -0.121427044 -0.09897855 0.12115159 -0.11366066 0.15489759
0.080993 0.12472659 -0.004499881 -0.021287484 -0.061549276 -0.12059313 0.22075829 0.007044486
-0.07383382 -0.19475304 0.061001793 -0.18493998 0.017955424 0.12839603 -0.073229834 0.13259679
-0.067474514 -0.12754732 -0.16763082 0.12756416 -0.10864813 0.14481367 0.06211148 0.08864051
-0.09978966 0.20514542 -0.16412628 -0.119430736 0.14908043 0.048550878 -0.077538386 -0.048376687

net.2.weight f4 [64, 128]
00000000: 27ca c5bd 2532 bfbd 21e4 17bd 945a 473d
00000010: 1293 393c e1d9 96ba 4591 1cbd af6c 863d
00000020: 00f2 85bc d393 523c c7a4 82bc 475c 6cbb
00000030: e87e 793c d8cc 523d afda 033d dc8f adbb
00000040: 3717 8c3c 21d7 32bd 10b7 2b3d f134 f93b
00000050: 4323 493d 9b93 fcbc 477d b7bd 2398 8b3a
00000060: c4bb 9c3c 1e68 5c3d 61e8 a03c fb12 843c
00000070: 39cc 553d 23f6 3fbd 4ff5 743d cc8d dd3c
00000080: 7d39 213d d0b0 3c3d 9063 b9bd 771e d73c
00000090: 3fa4 833d cd59 a3bd cb25 d9bc e7b9 8fbd
000000a0: b4ce 10bd c236 50bb a480 fb3c ecdc 26bd
000000b0: 841e d2bd e6cf e93c f8cf 053d 5f2e 0abd
000000c0: 2fbd 6d3d 0297 4c3d ffa7 12bd ef81 52bc
000000d0: d465 e4ba 275c 17bd 3db2 23bd b0a9 71bd
000000e0: 8aee 8dbd 1fc5 d73c 9d3f 35bd f4aa 71bd
000000f0: dbaf 753d 0abb 5fbb ed62 3f3d 5dc3 803d
00000100: 5dc4 f6bc 6643 8fbb 0a35 853d 31e4 9abd
00000110: ae5a 31bd e8ea cabb c658 c8bc f6c2 743b
00000120: 08c6 f93c 16b3 58bd 079a 4fbc ca8f 7f3d
00000130: 6246 8bbd f702 9bbd 54da aebd 2031 1d3d
00000140: 9b8b c8bd 4620 70bd 238e 2d3d dcd2 8fbd
00000150: eca8 573d 9610 74bd c53b 06bb 0c01 e1bb
00000160: 1f37 9ebc 4cb8 103d c58c 663d a978 90bd
00000170: cb2b 103d be85 b83b aeb3 9bbc b831 a2bd
00000180: 3891 0f3c 6cb9 383d 747f bdbd 4cf1 c5bd
00000190: 3266 d7bd d4d7 6c3b 0920 2cbd e01c 2abd
000001a0: 6379 843d 3839 26bd cc3f 94bd 45df 22bc
000001b0: 67fe 84bd b8d1 2ebd 560e f53c ce74 913b
000001c0: 4b45 9ebd 99d0 883d 3db4 373d b7c7 a0bd
000001d0: 4316 b23c d42c a13c 3014 a5bd 42c0 a1bd
000001e0: 4fe1 babd 7455 ad3c 2bad 06bb 8440 973c
000001f0: 9973 68bd 0aca 4c3d 2005 96bb c44d b2bd
00000200: e06e 973a ba82 823d 26d8 3f3d 1838 c7b7
00000210: 55a4 48bd 584f 11bd c488 c53d 13e0 0dbd
00000220: cd05 af3d 46b6 3dbc c927 af3c 7127 9bbd
00000230: de82 f0bb 2ed1 b83d dd6d 86bd 80c5 8d3d
00000240: b49e 68bd 799e b53c 0cff 48bd 1125 51bd
00000250: 6063 35bd 8529 69bc bcb6 023d e5a8 2fbd
00000260: 5b9d 273d 108b 9b3d 5dcb bd3d 92ad cb3d
00000270: 8b2c b73d 8529 18bc 4dc4 2a3c 9640 ba3d
00000280: 82ae 673d 6278 96bb 6707 b33d af77 8bbd
00000290: 73f1 cb3d c1bd 8b3d 58ef 2fbd 302f 5fbd
000002a0: d481 ab3d 9217 d63d aa63 963c f07c a9bc
000002b0: de8f 8b3d 1ee8 663d ce72 943c 3f7f c13d
000002c0: e4ca 833d 2183 443d 2d1e 8e3d 5d31 8bbd
000002d0: 8ba0 8abc b049 903c 1ee1 603d cc44 793b
000002e0: 2f22 323d 1f22 3b3d 056b 75bd ca4f 173d
000002f0: 02a5 913c 30a0 6dbd 75cb e03c 5fb3 17ba
00000300: 61e4 00bd bf83 82bd 752f b13d 2439 23bd
00000310: 8cf6 323d f6e1 b83d 99a1 d7ba ac5d f5bc
00000320: 1710 77bd 536f dc3c 7e55 eebc 2992 a93c
00000330: 87f4 5b3d 6914 8dbb 2007 b03d f823 8fb8
00000340: 603e 8fbc b8d8 1dbd a631 2d3d 1081 e9bc
00000350: 868d 3e3d 53f3 673c 79a7 853d 79ff d5bc
00000360: fc3c c6bc c5dd 583c 6bf3 1abd 132e 343d
00000370: 4416 c6bc 0a21 4f3d 7619 953d 2b5f 9f3d
00000380: a6e7 7f3b caa6 9a3d be35 ddbc 5bb0 78bd
00000390: 0bbd 343c d06c 20bd b2a5 3dbd c9de 2b3d
000003a0: 619d b93d 6c6a d4bc eb30 cc3c 88ea 72bd
000003b0: c52d f43c eaac 413d f534 7d3a 614b a93d
000003c0: 5fbe 70bd a30b afbb 5227 e0bc 4005 d23d
000003d0: ac4a bd3d 56c8 da3d 50a1 c43d 14cb 6d3d
000003e0: c700 24bd 7be2 efbc 4e62 293d 5992 81bd
000003f0: 9462 a63d 6f57 a33d 5a7b ef3c c09b 45bd
-0.09657698 -0.09335736 -0.037082795 0.048670366 0.011326568 -0.0011509025 -0.038224477 0.065636985
-0.016350746 0.012852627 -0.015947713 -0.0036065744 0.015228011 0.051464885 0.032190975 -0.0052966904
0.017100913 -0.043662194 0.04192263 0.007605188 0.049105894 -0.030832103 -0.08959442 0.0010650199
0.019132502 0.05381023 0.019642057 0.016122332 0.052196715 -0.046865594 0.059804257 0.027045153
0.039361466 0.04606706 -0.09052193 0.026259644 0.06427812 -0.079761125 -0.026507279 -0.0701788
-0.035353377 -0.003177092 0.030700989 -0.04073803 -0.10259727 0.028541517 0.032669038 -0.03373563
0.058041748 0.0499487 -0.035804745 -0.012848361 -0.0017425367 -0.036953118 -0.039964903 -0.058999717
-0.06930263 0.026339112 -0.04425012 -0.059000924 0.059982162 -0.0034138584 0.046725202 0.062872626
-0.03012293 -0.004372048 0.06504257 -0.07563055 -0.04329937 -0.006192554 -0.024456393 0.003734765
0.030489936 -0.052905165 -0.012671 0.062392987 -0.06800534 -0.07568925 -0.085377365 0.038376927
-0.09792253 -0.05862453 0.04237188 -0.0702264 0.05265133 -0.05958613 -0.0020482403 -0.00686658
-0.019313393 0.03533201 0.056286592 -0.07054264 0.035198014 0.0056311777 -0.019006576 -0.07919639
0.00876265 0.045098707 -0.092528254 -0.09665164 -0.10517539 0.0036139386 -0.04202274 -0.041531444
0.06468465 -0.04058191 -0.07238731 -0.009940927 -0.06493836 -0.042680472 0.029914062 0.004438973
-0.0772806 0.06680412 0.044849623 -0.078505926 0.02173913 0.019674696 -0.08060491 -0.078979984
-0.091250055 0.021158911 -0.0020549993 0.01846338 -0.056750868 0.049997367 -0.0045782477 -0.08706239
0.0011553429 0.0637259 0.046836995 -2.374877e-05 -0.048984844 -0.03547606 0.096452266 -0.034637522
0.08546028 -0.011579102 0.021381276 -0.07575882 -0.0073398193 0.09024273 -0.065639235 0.06922436
-0.056791976 0.022170292 -0.049071357 -0.05106074 -0.044284225 -0.01423109 0.03191255 -0.04288568
0.04092155 0.075948834 0.09267304 0.09945215 0.08944043 -0.009287243 0.010422778 0.0909435
0.056562908 -0.0045919875 0.08741646 -0.06809937 0.09958162 0.06823302 -0.042952865 -0.05448836
0.08374372 0.104537144 0.01835807 -0.020689458 0.0681455 0.056373708 0.01812115 0.094480984
0.06435183 0.047976617 0.06939349 -0.06796525 -0.016922256 0.017613262 0.05490219 0.003803539
0.04348963 0.045686837 -0.059916515 0.036941327 0.017778877 -0.058014095 0.027440766 -0.0005786921
-0.0314678 -0.06372785 0.0865163 -0.039849415 0.043692157 0.09027474 -0.0016451358 -0.029951893
-0.06031808 0.026908552 -0.0290935 0.020699577 0.053699996 -0.0043054116 0.08595109 -6.825471e-05
-0.017485797 -0.038536757 0.042283677 -0.028503925 0.046521686 0.014157134 0.065260835 -0.026122795
-0.024199001 0.013236468 -0.037829798 0.043989252 -0.024180539 0.050568618 0.07280247 0.07781824
0.0039047985 0.07551344 -0.027003165 -0.06071506 0.0110313995 -0.03916627 -0.046300597 0.04196051
0.09063221 -0.025929652 0.02492567 -0.059305698 0.02980698 0.047284044 0.00096590753 0.082663305
-0.058775302 -0.0053419634 -0.0273625 0.102549076 0.09242758 0.10682742 0.096010804 0.058055
-0.040039804 -0.029282799 0.041353516 -0.06326742 0.08124271 0.07975661 0.029233623 -0.048244238

net.2.bias f4 [64]
00000000: 841d b43c 3732 e73d a590 f8bb cb91 c73d
00000010: b0a8 1f3d 7938 233d 4c1a bbbd 148d cb3d
00000020: ccc5 963b 0351 51bd 870e fabc 13c1 983c
00000030: d3a7 e73d 1daf ea3c 8cc8 f33c 2ee8 47bc
00000040: ff50 06bd 3300 023d 54ee 18bd 9b95 fb3c
00000050: d28e e63b 16e7 d13c 0fb6 0bbd 485d 943d
00000060: 8d07 4ebd fb87 0f3d dba7 28bd a0a7 e23d
00000070: 9ed3 a53d 9a5d 79bd 0a41 523d 8c50 57bd
00000080: 0a44 1cbd ca1c 1f3d 3ba1 b8bc 7887 123d
00000090: 28de d23d 67e8 5d3d 2173 c93c 0171 8bbc
000000a0: 8f4e 6b3d f82a f83c 9676 93bc 2c75 56bd
000000b0: 657f 843c a32a 32bd 7d3c 47b9 fa2a 423d
000000c0: aec0 94bd 5284 bcbd d7e1 0a3d 6dcd 96bd
000000d0: 9a58 2b3d 6158 c53b 3290 a93d 50f1 cf3d
000000e0: e0b6 353d 2d7e 58bd aa60 66bd a4d2 eb3d
000000f0: 05a1 c03d 8916 5fbc 316b 37bd bc32 b43d
0.02198673 0.112888746 -0.0075856023 0.09744605 0.038979232 0.03984878 -0.09135875 0.09939018
0.004601216 -0.05110265 -0.030524505 0.018646752 0.11311307 0.028647954 0.029758714 -0.012201352
-0.032792088 0.03173847 -0.037336662 0.030710986 0.0070360685 0.025622886 -0.03410917 0.072443545
-0.05030017 0.03504179 -0.041175704 0.11067128 0.080970034 -0.06088028 0.051331557 -0.05256705
-0.038150825 0.038845815 -0.022537818 0.035773724 0.10296279 0.054176714 0.02459103 -0.017021658
0.057447966 0.030293927 -0.018000882 -0.052357838 0.016174028 -0.043497693 -0.00019000653 0.047404267
-0.07263313 -0.092049256 0.033906784 -0.073634006 0.041832544 0.0060224985 0.08279456 0.101534486
0.044363856 -0.052854706 -0.05624453 0.11514786 0.09405712 -0.013616213 -0.04477996 0.08798739

head.weight f4 [1, 64]
00000000: f4d1 d6bc 27d0 c33d 098d 19bd ed77 0b3e
00000010: 1d85 a03d f169 f5bc 0ccc b6bc 38e5 193e
00000020: a7d7 633d 8bf6 96bd f423 963d f7cc 97bd
00000030: 61d8 cc3c 3a1b f6bc 90e7 b6bd b496 e33d
00000040: e406 f73d 586f ad3d cf23 8dbb 148d 96bd
00000050: 65ac 0dbd cd3d bd3d c9db eb3d 7fb3 ee3d
00000060: 02b2 91bc 0e8b 333d 2340 a2bc 5e6f 613d
00000070: 3930 333d d306 c1bd 0d5b f63d 58f8 50bd
00000080: 9bf8 22bd 7afd 9dbd 7f44 90bc a4d8 c03d
00000090: 5efe ed3d aa9c 023e 2c16 adbd d0b0 d93d
000000a0: f445 aabd 0084 0cbd d2e0 e23d 4afd 7e3b
000000b0: 12c7 883d e4fb 2e3d 05b2 fcbd 6e64 d8bc
000000c0: 9072 4dbc 45a7 503b 8720 e7bc 3c86 c9bd
000000d0: dfcb 9f3d ffbe 933c 8085 923d 5224 643d
000000e0: be1f dabd e1dd 133d d2a3 b0bd ea0d 093d
000000f0: 2912 073e 319f 273d e48f 913d 05b6 923d
-0.02622316 0.09561186 -0.037488017 0.13619967 0.07837889 -0.029957743 -0.022314094 0.15028846
0.055625584 -0.07371243 0.07331076 -0.07412141 0.025005521 -0.03004228 -0.08930886 0.11112729
0.12061861 0.08468503 -0.004307247 -0.07351127 -0.034588236 0.09240303 0.1151653 0.1165533
-0.017785076 0.043833785 -0.019805973 0.05503785 0.04374716 -0.0942513 0.12029085 -0.05101809
-0.03978787 -0.077143624 -0.017610786 0.09416321 0.11620782 0.12755075 -0.084514946 0.106294274
-0.08314124 -0.034305573 0.11078037 0.0038908296 0.06678595 0.04272069 -0.12338642 -0.026415076
-0.012539521 0.0031837982 -0.028213752 -0.09840056 0.07802557 0.01803541 0.07154369 0.0556987
-0.106505856 0.036100272 -0.08624996 0.033460535 0.13190521 0.0409233 0.07107523 0.07163624

input_proj.weight f4 [64, 29]
00000000: a40f 99bb 08fa 1c3d bc95 1a3e b3aa e53d
00000010: 6a0c 2e3e 64fa c6bd 4d90 d5bd d3fe dabd
00000020: 0918 063e 767b 82bd 3a5e 023e 3e89 ecbc
00000030: b0c6 27be 3517 02bd 5f6d 803c f8b9 913d
00000040: d80d 3abe 7acc 3dbe 4cc6 b03d cee2 1bbd
00000050: bb27 26bd 7630 12be 6f8b ee3d 7217 1b3e
00000060: 4f1a 5ebd 8c2d 313e 906d 2fbe 1910 00be
00000070: 9e9c d73d ce2a c5bd 2e48 4c3d 4d97 edbd
00000080: 97d1 3bbe b2fb 973c a813 be3d 0d74 dfbd
00000090: fe7d 0abd 156e 6d3d 31d8 263e c8b5 063d
000000a0: ca2f ee3b cc6b 9abd f7f6 24bd 1d75 823d
000000b0: 676c 2a3e 1610 83bd efc0 333e cd49 e5bd
000000c0: a1e4 a23d 769b 2abe debd 423e 35bc f73d
000000d0: bf8f e83d 6069 65bd 0645 8d3d e69a f8bc
000000e0: 8cfa 8b3d 42fe fb3d e60f 143e 32e3 123d
000000f0: 8dec c93d 8f61 c1bd e8c7 af3d c657 343b
00000100: f613 3cbb a5d0 fbbd af57 ca3d 7d36 23be
00000110: b9ec c3bd 500d 353e d02c 243e 0014 eb3d
00000120: b898 cbbd d2eb 313e 7988 6bbd a8b0 5fbd
00000130: e002 e93d abb9 f8bc fca9 cabc e12e 173d
00000140: 7d8f 3b3e 45e8 0a3e 06b1 03be ad84 3f3c
00000150: 4672 d1bc c0de 2c3d 7291 cb3c 6b6e ac3d
00000160: a28b 0dbe fd27 4ebd aff5 87bb cb0d 14be
00000170: c1de 113d 74bb 2bbe 2d48 34bd 39b9 e3bc
00000180: bb1a 9f3d aac7 eebd 1f8f 97bd 1f7b 083e
00000190: a800 a03d 7263 1f3e 96ae ddbc 8f0b 8b3c
000001a0: 4e63 99bd c45e 1a3e 8d83 3e3e 19de 0f3e
000001b0: 6f01 ab3d b622 eabd 4b8c b8bd 0aa8 0bbd
000001c0: 630c d43d 39c7 7bbc 028f afbc d26f 423d
000001d0: 24c3 ab3d 66b8 81bd 9383 01be 2a7f 0d3e
000001e0: 0840 e6bd 9064 213e ddf3 2ebe 0d71 22be
000001f0: f3e1 20bd acd4 bc3d d75d 993d eca4 723c
00000200: 57b9 163d 645e c9bc e9a4 24be 40a9 5bbd
00000210: 4cdd 3e3d 6dde 67bd aa96 443e c1e2 91bc
00000220: 40da 0abd 3fcc c0bd b8d7 ac3d d99d 373e
00000230: dd22 283e c586 2cbe 88ba 84bc dcf7 25bd
00000240: 7e37 3ebd ceb3 34be b9fb 533e 826b 283e
00000250: fa38 d9bd 7d55 003e 8304 4bbd ca69 303e
00000260: 1cb3 bd3b 8141 af3d 9f6f 3a3b 0769 55bd
00000270: 282d 2dbe 9c6a 16be 6e7a 433e 154e 403e
00000280: f965 353e a212 073e 9e54 48be 0c0d 07be
00000290: a861 ef3c ef8f 36be 7540 4bbc 185e 913d
000002a0: a195 6dbd 9f4b 033d d78d 543c 8840 92bd
000002b0: 0f82 b63c 7b50 203d 1ea1 29be dafc 463e
000002c0: 23d1 4a3e e03f 04be f82f 0fbd 64f6 4dba
000002d0: 866b c739 091e 5bbd 71d0 88b9 f5df 903d
000002e0: 9fdd 733d 18fe dc3d 7543 d43c 5e94 9e3d
000002f0: 69a8 1ebc 6382 4fbd 7e94 a83d e7fc f83d
00000300: 37ba 0dbc a991 1fbe bdc2 573d 3157 19be
00000310: 1406 8a3d 3651 353e 36a5 00be b75c d2bc
00000320: 8c23 323e 7aab 993d 92b4 353e 69bf 97bd
00000330: 4cc9 44bd 7f95 15be a907 04be 4687 e73c
00000340: 1578 133e b64d 273e dff6 aabd 5982 303e
00000350: 9ddc 1bbe e0b1 36be 46a9 a63c 2e22 3e3e
00000360: 64f2 f93d fbac 1cbe 813d 13bd 7371 2c3e
00000370: ae80 013e 96ac 9b3c 440b 8ebd 269a 013e
00000380: 18b4 273e 468d e03d 78da 9f3d 01e9 abbd
00000390: 5fc3 38be e257 2b3e d5bd 313d cdd6 bf3c
000003a0: 78d8 aa3d 78e7 c7bd 6405 1dbe 6d53 963d
000003b0: d576 0cbd 531b 3cbe 7517 18bd ead0 2dbd
000003c0: d260 f6bd 9122 2bbe 06fa 42bd 1e23 22be
000003d0: 1d2c dc3d c7ae 4bbe 4e8b d0bd c47b 07be
000003e0: 951d 7dbd cb1a 1fbe 990b 19bd e0f7 dfbd
000003f0: 455c fc3d 8e00 18be 1ac6 283e 36e1 323e
-0.004671054 0.038324386 0.15096182 0.11214199 0.16996923 -0.09715727 -0.10427914 -0.10693135
0.13095106 -0.063712046 0.12731257 -0.028874036 -0.16384387 -0.031760413 0.015677152 0.07115549
-0.18169343 -0.18535033 0.08631572 -0.038058095 -0.040565234 -0.14276299 0.116476886 0.15145662
-0.05422431 0.17302531 -0.17131639 -0.12506141 0.10527919 -0.09627305 0.049873523 -0.11601124
-0.18341671 0.018552635 0.09281093 -0.10910807 -0.03381156 0.05796631 0.16293408 0.032888204
0.0072688805 -0.07540092 -0.040274587 0.06369994 0.16642915 -0.063995525 0.17554067 -0.11195717
0.07953764 -0.16660866 0.19017741 0.120964445 0.113555424 -0.056008697 0.06897931 -0.030347299
0.068348974 0.12304355 0.1445919 0.0358612 0.098595716 -0.09442436 0.08583051 0.0027518137
-0.002869842 -0.12295655 0.098800056 -0.15938754 -0.09566636 0.1768086 0.1603272 0.11478424
-0.09941238 0.17375115 -0.057503197 -0.054611832 0.113775015 -0.03036197 -0.024739258 0.03690994
0.18316455 0.13565166 -0.12860498 0.011689347 -0.025567185 0.04220462 0.024849627 0.08419498
-0.13822797 -0.050331105 -0.004149161 -0.14458387 0.035612825 -0.16770726 -0.044014145 -0.027798282
0.0776877 -0.11659177 -0.07400345 0.13328217 0.07812625 0.15565279 -0.027060788 0.016973285
-0.07489644 0.15075213 0.1860487 0.14049567 0.08349883 -0.11432402 -0.09011134 -0.0340958
0.10353925 -0.015367323 -0.021430496 0.04746992 0.083868295 -0.06333999 -0.12647848 0.1381804
-0.11242682 0.15761018 -0.17085214 -0.15863438 -0.039277982 0.092202514 0.07488602 0.014809828
0.036797848 -0.024581142 -0.16078533 -0.053628206 0.046597764 -0.056608606 0.19198099 -0.01780832
-0.033899546 -0.09413957 0.084395826 0.17931308 0.1641955 -0.16848285 -0.016202226 -0.04051958
-0.04643964 -0.17646715 0.20701493 0.16447261 -0.106065705 0.12532611 -0.04956485 0.17227855
0.0057891738 0.08557416 0.002844788 -0.052102115 -0.16911757 -0.14689106 0.19089672 0.18779786
0.1771468 0.13190702 -0.19563529 -0.1318857 0.02922137 -0.17828344 -0.0124055045 0.07098025
-0.058004025 0.03205454 0.01297327 -0.071412146 0.022278814 0.039139252 -0.16565368 0.19432393
0.19806342 -0.12914991 -0.034957856 -0.00078568445 0.0003803635 -0.05349544 -0.00026095242 0.070739664
0.059537526 0.10790652 0.025911072 0.077431425 -0.009683707 -0.050661456 0.08231448 0.12157612
-0.008650354 -0.15582909 0.05267595 -0.14974667 0.067394406 0.17706761 -0.12563023 -0.025678976
0.17396373 0.0750341 0.17744663 -0.074095555 -0.048043534 -0.1460781 -0.12893547 0.028262746
0.14401276 0.16338238 -0.08347868 0.17237224 -0.15220876 -0.17841291 0.020344388 0.18567726
0.122044355 -0.15300362 -0.035947327 0.16840152 0.12646744 0.019003194 -0.069357425 0.12656459
0.16377294 0.10964446 0.078053415 -0.08394051 -0.18043278 0.16732743 0.04339393 0.023417855
0.083420694 -0.09760946 -0.15334088 0.07340131 -0.034293015 -0.18369798 -0.037131745 -0.042435564
-0.12030186 -0.16712405 -0.047601722 -0.15833709 0.107506014 -0.19890891 -0.1018282 -0.13230807
-0.06179579 -0.15537564 -0.037364576 -0.1093595 0.123222865 -0.14843962 0.1648182 0.17468724

input_proj.bias f4 [64]
00000000: 316a 03bd e6ab cabd 96b7 453d 9f9a 953d
00000010: 8c29 813c b14d ae3d a927 833d ee46 973c
00000020: d562 033d 2604 3d3d b5cc 06be 5261 113c
00000030: 32f0 383d d339 f8bc bcfd 9cbd 8e5f 82bd
00000040: 7e2c b43d 5cde c9bd e057 4a3d 25ba 3abe
00000050: aa0a bc3c b0c9 3b3d c5f6 77bd d11a 6bbd
00000060: 74b0 9cbd 84ae 6fbd 780f 9ebd e19c 53bc
00000070: 353c 393e 1320 a9bc 5db8 443e 2a2f 81bd
00000080: 2a35 39be b285 8fbd 878f 9a3d 4367 c8bd
00000090: 7dcb 353e 048c 443c bd43 f13d d24e 9dbc
000000a0: f5fd 43be 1a60 14be 1ea6 3a3d 85e9 e2bd
000000b0: 7d26 453e 214c 3d3e d9f8 95bd 2b6a e53d
000000c0: 22cf fa3c cd19 b5bc 6bc4 64be a211 3fbe
000000d0: dee6 e8bd 2def 9a3c 9128 2f3e fa37 a03d
000000e0: c8a4 6bbd f813 153e 1aa7 643d 6b6b cbbd
000000f0: e362 8f3d 5ca9 2f3d 7521 d63d 1ce7 473d
-0.032083694 -0.09896068 0.048270784 0.07304882 0.015766881 0.08510912 0.06404049 0.01846644
0.032076675 0.046146534 -0.13164027 0.008873301 0.045150943 -0.03030101 -0.076655835 -0.06365882
0.08797549 -0.09856865 0.04940021 -0.18235071 0.022954304 0.04584664 -0.060538072 -0.05739862
-0.07650843 -0.05851604 -0.07717794 -0.012915821 0.18089373 -0.020645177 0.19210954 -0.06307824
-0.18086687 -0.07007922 0.07546907 -0.097853206 0.17753406 0.011996273 0.11780498 -0.019202624
-0.19139846 -0.14489785 0.045568578 -0.110796966 0.19252963 0.18486072 -0.073228545 0.112018906
0.030616347 -0.02210703 -0.22340553 -0.1865907 -0.113721594 0.018912876 0.17105319 0.07823177
-0.057530195 0.14558399 0.055823423 -0.09932598 0.07001283 0.042886123 0.104556 0.048804387
