artifacts/model_exp-10_bottleneck_seed1_20251104T051619Z.pt (torch, 35625 bytes, 5 tensors)

net.0.weight f4 [128, 29]
00000000: 8a09 223e 8708 bcbd f3c1 a3bd 3779 373d
00000010: 8f11 4bbe 4b44 0e3e 041d eebc 9a33 e83d
00000020: f8c4 293d 5f19 5cbd f71a 743d ccae 433d
00000030: 19f9 a13d 656c babd d097 6abc 499c 1bbd
00000040: d801 0fbd ac00 c13c cb4c 693e 9ff8 643d
00000050: 4c2c e2bd 8201 bbbd a2a0 f1bc 660a a4bd
00000060: 59bc 73bd 32ad 113c b5b5 e23d 8eb5 ce3d
00000070: 1ee2 39be 7691 293e 2e48 123d afa9 0d3e
00000080: d0fc aa3d c0e1 48be 6aec 2cbe 5875 c3bd
00000090: 8c42 623e eaed b7bd fd81 f53d 23ab 7fbd
000000a0: 1928 6f3e b8b4 efbc 096e 9a3d 11b9 37bd
000000b0: 7bd4 4fbd 23cc 103e 7e02 5cbd 873b a63d
000000c0: a3a4 83bc 62d3 973c 12a9 33be ff4d 6fbd
000000d0: ac5d ce3d f5e2 38bd 9d66 3d3e 756c 183e
000000e0: 2c75 0ebc b6d8 fdbd 5279 233e d3c3 ff3c
000000f0: f0d0 13be e5bc ac3d d8e2 c43d 09b9 283e
00000100: d7e5 d1bd 657a 9ebc 4069 48bd 8c37 633d
00000110: cfa2 00be 65e8 01be e35f 123e 7d36 2bbd
00000120: bd30 e73d c13a cf3c c3a0 5b3c 0c38 693d
00000130: 1599 de3d 6f5a b23d 91ab 57be 290b cf3d
00000140: 3e0c 0fbe ae78 0fbe 0d06 393c f39c 01bd
00000150: 995c df3d 653f dcbd ae0a 29be 4ccf fa3d
00000160: 4fb3 a7bc 97f5 de3d 96c4 433d 4a45 0bbe
00000170: c73a 1b3d 3792 7e3d 3a27 d1bd b228 aabd
00000180: 5065 333d e144 2e3d 6d77 7dbd ecff 26bd
00000190: 81cb 413e 4206 b6bc 390e b53d 0166 7b3d
000001a0: 9fcb e5bd 5efe 0cbe f251 2b3e 90b6 06bc
000001b0: 3232 0a3e 9f19 4a3d fca0 743d 2309 0e3e
000001c0: 104e 343e d05c fcbd 3332 be3c 00e7 0d3e
000001d0: 2fd0 c23d 2652 723d 71c3 20be cbdc 35be
000001e0: 9349 a9bd f70b 5d3c e616 043e 2913 05be
000001f0: ed73 073e 0531 07be f35e 68be af85 9abd
00000200: 998c 0b3e 1296 173e 4407 10be 07c2 a33d
00000210: 6f53 603e 9b0e 533e 6b76 323e 5bcc 2c3e
00000220: ccdb 243e a466 c13c 5b79 89bd 89ae 1fbe
00000230: 5e43 aebd af23 b1bc b41b e9bd b922 8b3d
00000240: 2166 6b3d 6532 93bd 288d ad3c c5c1 6c3d
00000250: d9e8 be3d d4a9 053e 445a 3abd fc3d 2e3e
00000260: 9355 80bd 6594 073d 83cc 59be 6750 04be
00000270: 63f7 ddbd 6702 50bd 915e 0a3e c898 cfbd
00000280: 2305 0ebe 61b0 dd3d 5ff1 d53d f42d 1e3e
00000290: 17a7 86bd 02b2 5b3d d717 68bd 6008 9cbb
000002a0: 2089 17be e653 adbd 2ef1 68bd a6a1 a23d
000002b0: 7ff4 0a3d f8e1 3b3d 67da 133e 53c3 0c3e
000002c0: e9a6 ca3d 2a29 0cbd 0fc7 0fbe da56 3e3e
000002d0: 7578 aebd 2e35 40bd deee 3abe 4a02 51bd
000002e0: d91c 1abd 0db1 6b3e 58c5 e8bd 0853 13be
000002f0: 6686 3fbc 3362 c0bd c106 bf3d 886a 3abd
00000300: 17b1 e1bc 43fa 273c b730 0f3e a439 03be
00000310: be81 e93d b452 f43d 9501 3a3e e117 05be
00000320: 2b36 383d 809a 0cbe a357 223e 4ec2 a8bd
00000330: 6453 dd3d b8bd 80bd 1785 86bd f3b4 1dbd
00000340: 55a3 8b3c 9856 2c3d db57 0d3d e818 8a3d
00000350: 9258 4fbe 138f 0f3e 9123 083e 6370 433e
00000360: 5bdc ac3d 6724 1abe e2f2 22bd 0b7a 223e
00000370: f3be edbd 1988 143e 33d8 02be c729 f7bd
00000380: 477f 7c3d 4906 19be 7f41 2ebd 8455 0a3e
00000390: 079e 163e 5dd6 333e 3557 1abd 37cc 13be
000003a0: 386b 6a3e 9328 b1bd a7a7 15be dead 39bd
000003b0: 801d 4dbe 4a6c d93d c2eb 6f3d 0d2f 20be
000003c0: 2839 46be 80c9 dbbc 79b5 e43d 8c16 88bc
000003d0: 384c 21bd ab63 2bbd a6fe 28be 5322 fdbd
000003e0: e2cc 2bbe 2071 2d3e 64f5 263e d6d8 84bd
000003f0: b3c8 40bc a03a 5b3d 2a89 1239 3070 bebd
0.15823951 -0.09181314 -0.07995977 0.044793334 -0.19830917 0.13893239 -0.02906657 0.11337967
0.04144761 -0.053735133 0.05959603 0.04777412 0.0790884 -0.09102706 -0.0143184215 -0.037990842
-0.034913868 0.02355989 0.227832 0.055901166 -0.11043605 -0.09131147 -0.029495541 -0.08009796
-0.059505794 0.008891391 0.11069814 0.100932226 -0.18152663 0.16559395 0.035713367 0.1383426
0.083490014 -0.19617367 -0.1688706 -0.09543866 0.22095698 -0.089809254 0.11987684 -0.062419068
0.2335514 -0.029260978 0.07540519 -0.044854227 -0.050739747 0.14140372 -0.053713314 0.08116823
-0.016069716 0.018533412 -0.17544964 -0.058423992 0.1007646 -0.045138318 0.18496175 0.14885123
-0.008694928 -0.1239485 0.15964249 0.031221306 -0.14435172 0.08434466 0.096135795 0.16476835
-0.102489166 -0.019345472 -0.0489285 0.055472896 -0.12562107 -0.12686308 0.1429439 -0.04180001
0.11288593 0.02529657 0.013405028 0.056938216 0.10869042 0.08708655 -0.21061541 0.101095505
-0.13969514 -0.1401088 0.0112929465 -0.03164382 0.109063335 -0.10754279 -0.1650798 0.1224657
-0.020471243 0.10886686 0.0477949 -0.1360065 0.03789785 0.06215116 -0.1021256 -0.08308543
0.04379779 0.042546157 -0.06188147 -0.04077141 0.18925287 -0.02221978 0.088406034 0.061376575
-0.11220478 -0.13768908 0.16730478 -0.008222237 0.1349571 0.04934084 0.05972384 0.13870673
0.17607903 -0.1232239 0.023217296 0.13857651 0.09512364 0.059160374 -0.15699555 -0.17760007
-0.08265986 0.013491622 0.1289936 -0.1299559 0.13227816 -0.13202293 -0.2269247 -0.07545029
0.13627852 0.14803341 -0.14065272 0.07995992 0.21906827 0.2061104 0.17427985 0.1687483
0.16099471 0.023608513 -0.067126 -0.15593924 -0.08508943 -0.02162346 -0.11382237 0.06793732
0.057470445 -0.07187346 0.021185473 0.05780198 0.09321756 0.13053066 -0.04549624 0.17015833
-0.06266322 0.033100504 -0.21269421 -0.12921296 -0.10838201 -0.05078354 0.13512637 -0.101365626
-0.13869147 0.10824657 0.104464285 0.15447217 -0.065748386 0.05363656 -0.05666336 -0.0047617406
-0.14798403 -0.08463268 -0.056870632 0.07940988 0.033924576 0.045869797 0.14438783 0.13746385
0.09895117 -0.034218945 -0.14040779 0.18587819 -0.08519069 -0.046925716 -0.18255183 -0.051027574
-0.037625168 0.23016758 -0.11365765 -0.14387143 -0.011689758 -0.0939373 0.0932746 -0.045511752
-0.027550263 0.010252538 0.13983427 -0.12814957 0.114016995 0.11929837 0.18164666 -0.1299739
0.044973534 -0.13730812 0.15853743 -0.08240186 0.10806921 -0.06286186 -0.065683536 -0.038502645
0.017045656 0.04207477 0.034507614 0.06743032 -0.2024863 0.14019422 0.13294818 0.19085841
0.08440467 -0.15052949 -0.039782412 0.15866868 -0.11608686 0.14505042 -0.12777786 -0.12068515
0.06164482 -0.14943804 -0.04254293 0.13509184 0.1470872 0.17562242 -0.037680823 -0.1443337
0.22892463 -0.08650317 -0.14614736 -0.04533183 -0.20030785 0.106163576 0.058574446 -0.15642948
-0.19357741 -0.026829481 0.11167426 -0.016612314 -0.03937933 -0.041843098 -0.1650339 -0.123600625
-0.16777375 0.16937685 0.16304547 -0.06486671 -0.0117666 0.053522706 0.00013974743 -0.09298742

net.0.bias f4 [128]
00000000: 0a75 d33d a046 433e 1718 1a3e 8ca4 38be
00000010: 6908 67bd 3ee8 ee3d c24a 88bd bb03 eebc
00000020: afc3 0a3b 2f66 f4bd a456 043d 3b75 b53d
00000030: 323b d7bc c643 2dbd 477d 20be 2058 603e
00000040: ad17 553e 3f12 3cbd e71c b5bd cf33 86bc
00000050: f50d 67bd c8ab f2bd 6cf1 08be ad80 513e
00000060: 5b83 513b 85b0 463e 1f80 ad3d 3279 8b3d
00000070: 2ead 43bd 31c6 3d3e 488f 4a3b f3a8 0bbe
00000080: 2cab d53d 3791 e4bc ed8e f33d 5244 e23d
00000090: 9266 22be b788 98bc 1f05 a83d 553e 323b
000000a0: affa 7a3d cf45 0c3d 7d57 0bbd be49 85bb
000000b0: 0900 383e 295e 05bd dbc5 fbbc 38eb 593e
000000c0: 23c5 5e3e 41b9 e63d 8981 353e 10e7 a3bd
000000d0: b621 223c f4e3 e3bd 10a0 dbbd 25d5 1d3e
000000e0: 7d85 5a3e 8016 16be c90b 303e 3364 14bd
000000f0: 14c3 463e 5358 933d 99a3 9ebd 3019 283e
00000100: 1cca 67bd e42a aabb 944d f8bd ccab 013e
00000110: 1abb e73d 4887 e2bd 1afc e1bd 9f20 da3d
00000120: 7c1b 153e 1d3d de3d 7e5a f8bd ddb0 5d3d
00000130: b184 b2bd 7856 93bc 0015 fa3c 488e 15be
00000140: d251 233e 2e1d c5bd a539 d43d e15a 23bd
00000150: de82 063e ac00 833d f7fc 083e 5b6b c93c
00000160: 3e38 94bd 9fad 5fbc d465 403e 114c ce3d
00000170: 7d68 dabd 3e7d 6abd 71a7 1a3d f353 f9bc
00000180: 01bf adbd 97c0 6a3e b364 2dbd c76a 703e
00000190: 1a69 4f3e 8476 8bbd 9498 af3d f911 c3bd
000001a0: 0b6d 243c 662d 8bbd f1e3 e4bd 1cb0 613d
000001b0: ad82 f83d 24ba 813c adca f63c 986e ce3d
000001c0: faa4 47be 28ff 853d 2901 17be d5b4 86bd
000001d0: 56df 7a3e 733d 333c 5996 a1bc a715 4ebe
000001e0: 22c6 843e f1f8 683d 760f 30be a841 063c
000001f0: 11de 073e 51db 0dbe 7c81 883d bb53 abbd
0.10325058 0.1906991 0.15048252 -0.1803152 -0.056404505 0.116653904 -0.06654884 -0.029054513
0.0021173765 -0.119335525 0.03230919 0.088602506 -0.026273344 -0.042300962 -0.1567279 0.21908617
0.20809813 -0.04591584 -0.08843403 -0.016382126 -0.056409795 -0.11849171 -0.13373345 0.20459242
0.0031969163 0.19403274 0.08471703 0.068102255 -0.04777258 0.18532635 0.0030908156 -0.13638668
0.10433039 -0.027901275 0.11892495 0.11048187 -0.1585944 -0.018619878 0.08204102 0.0027197797
0.061274227 0.034246262 -0.034018982 -0.0040676286 0.17968763 -0.0325605 -0.030733993 0.21281135
0.21754889 0.11265803 0.17725195 -0.08003056 0.009895733 -0.11127463 -0.10723889 0.1541334
0.21339984 -0.1465702 0.17191996 -0.03622837 0.19410354 0.07194581 -0.077460475 0.16415858
-0.05658923 -0.0051931012 -0.12124172 0.12663192 0.11314984 -0.11060959 -0.11034413 0.10650753
0.14561266 0.108515 -0.12126635 0.054123748 -0.08716715 -0.017985567 0.030527592 -0.14605057
0.1594918 -0.09624706 0.10362557 -0.03988159 0.1313586 0.063966125 0.13377748 0.024587324
-0.0723729 -0.013652234 0.18788844 0.10073102 -0.10664461 -0.057248347 0.03775734 -0.030435538
-0.08483697 0.2292503 -0.042332362 0.23478232 0.20254937 -0.068097144 0.08574024 -0.095249124
0.0100357635 -0.067957684 -0.11176289 0.05509959 0.121342994 0.01583583 0.03012594 0.10079688
-0.19496527 0.06542808 -0.14746536 -0.0657746 0.24499258 0.010939944 -0.019725012 -0.20125447
0.25932413 0.056878034 -0.17193398 0.008194365 0.13268305 -0.13853194 0.06665322 -0.0836558

net.2.weight f4 [32, 128]
00000000: 52d1 9ebd a1fd e3bc ed08 b13c dde8 cabd
00000010: a9d0 78bd 4976 a4bd 6a5d f0bc 20b8 55bd
00000020: 0731 193d f2c5 24bc e917 a1bc 8ecf b6bd
00000030: bfda 24bc 4a6e c7bd b5de b5bd a642 ca3c
00000040: 82ff cdbd 35a1 fbbb 523d 143c 15ce 90bc
00000050: 0de9 4b3d 9fde f7bc 6f9a 483d 5cca 7bbd
00000060: f245 a0bd d35e 8ebd f936 143d 79d4 57bb
00000070: d73d 9ebc 42ce bbbc 6057 38bd 9f53 123c
00000080: 1a90 92bc a9f6 a2bc 5319 50bd 306f 8abd
00000090: 33a0 e3ba 3e70 8ebb fb5b b2bd b28f 873d
000000a0: 8854 e23c b6dd 293d a6cf 5b3c 30aa 08bd
000000b0: c411 ad3c 3a71 063d bae4 b53c 65b8 23bd
000000c0: 0642 72bd 136b 78bc c0de 733d f307 6ebd
000000d0: 23b8 43bd ed13 62bd 8d9f a7bd 322c b43c
000000e0: e333 b4bc 0c7b f8ba d274 943d e37f a33a
000000f0: 84f5 5f3d 17b0 613b 9fdb b4bc 771c 2f3d
00000100: 0cfb 813c 097d 9dbc 0fbf 01bc e412 64bd
00000110: 73de a0bc d088 4d3d 72ff 7a3d b67c 933d
00000120: bc53 9fbd 0e42 81bc 6014 bc3c ecfd 443d
00000130: 085b 7cbd 7709 a0bd 2f39 a03c 0fd8 74bd
00000140: 3433 9a3d 3650 84bd 6b3c fb3c 79a3 21bd
00000150: 07f9 b0bd a61c c7bd b5a7 df3c 5433 25bd
00000160: d8de 8cbd 526f 973d d59f 1e3d c910 373d
00000170: e7f9 40bd 338a 6abc 5544 ea3b 83c0 c3bc
00000180: 32db fd3c 3935 0cbd 1bec 02bd 2c1e b2bc
00000190: 8815 3bbd ec00 98bd d45d bfbc c426 2cbd
000001a0: fc50 1ebd 7782 41bd 866b fe3c 047d e4bc
000001b0: 8b04 6d3d 1213 5a3c 1974 28bd 6859 9d3d
000001c0: 72c5 12bd 93d1 acbd bc89 423d 343f 6fbd
000001d0: 46a1 523d ce2b 663d d443 16bd 444a 33bd
000001e0: 657b 9a3c 68c1 f83c 9ef0 793d 050a 193c
000001f0: 4c70 14bb 7870 873d d402 313c 031c a4bd
00000200: b015 06bd bc76 78bc 7e10 963c 77e3 bcbd
00000210: 0e2a c7bd 6e99 7abd 183c 163b ab2b 523d
00000220: 1da4 a8bd 51e7 e93c eb22 c0bb 4895 8c3d
00000230: 36b1 62bd 90c6 0dbd ab47 a33c 83b3 c1bd
00000240: 7887 3d3d e2d1 36bd 53f8 103c 1209 82bd
00000250: 2ec2 783d 92b6 af3c 9775 2c3b 14de 4cbd
00000260: 7461 99bd c361 27bb 2844 90bd e56c 4cbc
00000270: 9d34 893d 4ed1 853c 4aee 0cbd 04f6 31bd
00000280: bc5f e63c f1fa a3bd 99fd 90bd 216b 7cbc
00000290: 5237 233d d2c5 81bd 6374 bebc 15b1 40bd
000002a0: 4b84 4a3d 3f2a 50bd fab3 a7bc 9062 fd3c
000002b0: 7dd5 41bd 317e 943d f209 64bd 6d59 2dbd
000002c0: f235 c1ba 0ca9 4ebd 4b85 c2bd ca3f 89bd
000002d0: a782 b4bd d7df 8d3d 2d8a 46bb 3837 55bd
000002e0: 235e b83c bf38 32bb 9333 4fbd e11b 6d3d
000002f0: 1a3f 86bd 7b75 92bd 50c6 5a3d 30c1 123d
00000300: c4aa f23c 6fe6 9e3c febd 3ebd b730 bdbd
00000310: 0d50 febb 8d48 1c3d 54dc 6c3d 88af cdbc
00000320: 19d2 39bd e121 17bb 0ae7 793d b96d 75bc
00000330: 059d 853d bfd7 2bbd 763b 573c 9e20 84bd
00000340: d03a 8ebb daf8 693d d039 a7bd 5c39 8c3d
00000350: 9c1e 713d cfad 6b3d 9034 3bbd 1836 783d
00000360: d15d 553b 7a49 7ebd 163a ad3d add9 c7bd
00000370: df62 8c3d c07b 6d3c a250 443d 8a06 8d3c
00000380: 0d22 b8bd 83cf e53c 3083 90bd 315c 2ebd
00000390: 9e1e 00bd 7c3c 47bd 54a3 6ebc 735e 7b3d
000003a0: 66d1 113d a428 95bd cc06 3f3d 07f9 513c
000003b0: 4ccd 01bb d789 1f3b 02d6 5abd d845 a6bd
000003c0: f0e3 4f3c c6db 873d c99f 94bd 7850 8d3d
000003d0: 9c68 103d aaaf 433d db24 313d 6506 6b3d
000003e0: 620f 2a3b f425 2ebd 1bc8 77bd 4808 93bd
000003f0: dae2 adbb afd9 953a fa4f e53b f9a4 8dbd
-0.077547684 -0.0278309 0.021610701 -0.099076964 -0.06074587 -0.080303736 -0.029341418 -0.05217755
0.03740027 -0.010056959 -0.019664722 -0.08926307 -0.010061919 -0.09737833 -0.088803686 0.024689984
-0.100585 -0.0076791295 0.009047823 -0.017676393 0.0497828 -0.030257521 0.048975404 -0.06147228
-0.07825841 -0.0695168 0.03618524 -0.003293304 -0.019316597 -0.0229255 -0.045005202 0.00893107
-0.017890979 -0.019893007 -0.0508054 -0.067594886 -0.0017366469 -0.0043468764 -0.0870895 0.066192046
0.027628198 0.041471206 0.013416206 -0.03336543 0.021126635 0.032822825 0.022203792 -0.039970774
-0.059144996 -0.015162247 0.059538603 -0.05811305 -0.04778303 -0.055194784 -0.08184729 0.02199373
-0.021997398 -0.0018957569 0.07248844 0.0012474026 0.0546775 0.0034437233 -0.02207738 0.042751756
0.015866779 -0.01922466 -0.007919087 -0.055682078 -0.019637322 0.050179303 0.061278768 0.07201521
-0.07779643 -0.015778568 0.022958934 0.04809372 -0.06161025 -0.07814305 0.019558517 -0.059776362
0.075292975 -0.064606115 0.030668458 -0.03946254 -0.08641248 -0.09722261 0.027301649 -0.040332153
-0.068784416 0.073942795 0.038726646 0.044693742 -0.047113325 -0.014315176 0.007149259 -0.023895508
0.03098831 -0.034230445 -0.03196345 -0.021742903 -0.04567483 -0.07422051 -0.02336017 -0.042029157
-0.03865145 -0.04724356 0.03105713 -0.027891643 0.05786566 0.013310211 -0.041126344 0.076830685
-0.03583283 -0.084384106 0.047494635 -0.058409885 0.051423334 0.05619412 -0.03668578 -0.043771997
0.018857667 0.03036566 0.061020486 0.009340768 -0.0022649942 0.066132486 0.010803897 -0.08013155
-0.032735527 -0.015165027 0.018318411 -0.09223073 -0.09724818 -0.06118148 0.0022924002 0.051311176
-0.08234427 0.028552683 -0.0058635375 0.06864411 -0.055344783 -0.034613192 0.019931635 -0.09458067
0.04627177 -0.044633754 0.008848268 -0.06349386 0.06073206 0.021449361 0.0026315206 -0.050016478
-0.07489291 -0.0025540448 -0.0704425 -0.012477134 0.06699488 0.016335156 -0.034406938 -0.04344751
0.028121822 -0.08006848 -0.0707962 -0.015406401 0.03984768 -0.06336559 -0.023248857 -0.04704388
0.04944257 -0.05082154 -0.020471562 0.030930787 -0.04732274 0.072506316 -0.055673547 -0.04232161
-0.0014740808 -0.050454184 -0.0949808 -0.0670162 -0.088139825 0.0692746 -0.0030294762 -0.052054614
0.022505825 -0.0027194468 -0.050586294 0.057887916 -0.065550044 -0.07151314 0.05341178 0.03582877
0.029622443 0.019396989 -0.04656791 -0.09237807 -0.0077610076 0.038155127 0.05782731 -0.025108114
-0.04536638 -0.0023060965 0.06101135 -0.014979773 0.0652409 -0.0419538 0.013136735 -0.06451534
-0.004340507 0.05712209 -0.08165324 0.06846878 0.058867082 0.057538804 -0.045704424 0.060598463
0.003255714 -0.06208179 0.08458345 -0.09758315 0.06854796 0.014494836 0.04792846 0.017215032
-0.0899087 0.02805305 -0.07056272 -0.04256839 -0.0312792 -0.048641667 -0.014565308 0.06136937
0.03560009 -0.07283142 0.04663734 0.01281572 -0.0019806204 0.0024343634 -0.05342675 -0.081187904
0.012688622 0.06633715 -0.07257039 0.06900114 0.035256013 0.04777495 0.04324804 0.057379145
0.002594911 -0.042516664 -0.06049357 -0.07179314 -0.005306584 0.0011432673 0.0069980593 -0.06916232

net.2.bias f4 [32]
00000000: 4590 cdbd d850 aabd 2c3b ba3c 52b8 873c
00000010: 6f92 033e 26fe 183d 9ef5 7bbc 9224 83ba
00000020: 7e09 783d 30dd 223d 5661 bc3c 6350 43bc
00000030: 14ff 2cbd 85e0 b93d 2bc9 83bd c24c 73bd
00000040: f698 01bd 6e3b 2bbd fe2e e93c 443a fb3a
00000050: f2ea aabc 81d4 71bc 83ac d63c 7036 133d
00000060: 2618 2d3d 9ff7 abbc 98ce 1f3c 11a5 02bd
00000070: b46a 27bd e753 fa3d 146c f33d 5972 4a3c
-0.10037283 -0.08316201 0.022733293 0.016567383 0.12848829 0.03735175 -0.015378384 -0.0010005406
0.060555927 0.039761722 0.022995632 -0.011921021 -0.04223545 0.09076027 -0.06434854 -0.059399374
-0.031640016 -0.041804723 0.02846479 0.0019167145 -0.020863984 -0.014760138 0.026205307 0.035940588
0.042259358 -0.020992098 0.009753846 -0.0318957 -0.040873244 0.12223034 0.11885849 0.012356364

head.weight f4 [1, 32]
00000000: 8a21 b5bb d6e4 993b b525 11be 4e6c 2a3e
00000010: edb6 503e fe94 16bd d5cc 483e 8c60 93bd
00000020: 5119 22be fb82 243e a4e2 e13d 8833 e9bc
00000030: 141a d2bd b535 173e 98e4 a4bd d7c9 0bbe
00000040: 85ae 2ebd c468 98bd 4527 8fbd b4fb 253d
00000050: da5e 123e c7ee 14be 9ab3 8c3d ceff dc3d
00000060: e102 fcbb 4ea3 0a3e 53da 0b3e 8513 00be
00000070: af62 80bc 0d72 0c3e c1d5 073e d49e ae3d
-0.00552768 0.004696469 -0.1417454 0.16642877 0.2038228 -0.036763184 0.19609387 -0.07196149
-0.1582997 0.1606559 0.110295564 -0.028466955 -0.1025888 0.14766581 -0.08051413 -0.13651215
-0.042646904 -0.074418575 -0.06989912 0.040523246 0.14293995 -0.14544211 0.06870194 0.10790978
-0.007690773 0.13538858 0.13657503 -0.12507446 -0.015672056 0.13715382 0.13265134 0.08526388
