artifacts/model_exp-04_wd-1e-3_seed2_20251104T051620Z.pt (torch, 52229 bytes, 5 tensors)

net.0.weight f4 [128, 29]
000000 53 44 ec 3c ba 8e 32 bd ce 39 99 3c f5 b9 5e bd
       0.028841173 -0.043593146 0.018704321 -0.05437656
000010 98 83 2d 3d d7 c1 46 3d d1 74 06 bd be 4c 43 be
       0.042361826 0.048524704 -0.03282625 -0.19072244
000020 56 e8 44 3d 24 0f 32 be a0 ec 8a 3c c8 12 24 ba
       0.048073135 -0.17388588 0.016958535 -0.0006258902
000030 b3 7f 50 3c ee 94 02 3e bd 3b 13 3c 3b 8e b0 3d
       0.012725758 0.12752125 0.008986411 0.08620878
000040 38 c4 cb 3d 83 a7 a2 bd fe 59 8b bd e5 62 2d 3e
       0.09949535 -0.079421066 -0.06804274 0.16932257
000050 e4 ba 15 be 9d c4 81 bc af 6b cc bb 43 88 82 38
       -0.14622074 -0.015840823 -0.006238423 6.224264e-05
000060 48 65 e1 2c a4 d6 be 2e 30 40 46 2c 53 31 c2 33
       6.406129e-12 8.6783275e-11 2.8173124e-12 9.042801e-08
000070 60 69 3a 33 aa 6c b2 bd ee 25 09 be 10 48 0f be
       4.3402338e-08 -0.08712132 -0.13393375 -0.13992333
000080 f2 81 ec 3c 18 10 cb 3d 80 0a 5c 3b 5a af 9b bd
       0.028870557 0.09915179 0.0033575594 -0.07601805
000090 21 2d 3d 3d 60 67 4b bd b4 53 1f bd af 8b c3 bd
       0.046185616 -0.049659133 -0.038898185 -0.09548127
0000a0 fa 81 8d bd c1 13 25 be db 9f 2d 3d 38 ee 74 3d
       -0.06909557 -0.16120817 0.04238878 0.059797496
0000b0 dd d8 68 3d 6b 99 f2 3d 97 ae aa 3d 53 89 de 3a
       0.056847442 0.118456684 0.083340816 0.0016978182
0000c0 31 c9 eb 3c 4b f4 17 3d 15 21 b3 3d 71 c6 fd 3d
       0.028782459 0.03709821 0.08746544 0.12391365
0000d0 5c a2 9f 38 d4 a1 3b 34 91 87 56 2e 18 3b 50 ac
       7.6119526e-05 1.7474605e-07 4.8778374e-11 -2.9591381e-12
0000e0 a9 7a 21 2e d9 b6 7a 34 dc 9a 46 bc 77 de 1e 3e
       3.6716106e-11 2.3349584e-07 -0.012121882 0.15514551
0000f0 75 3e b4 3d fd 80 2a be 48 1b 40 3d 5b 0a 44 3e
       0.08800975 -0.16650768 0.046901017 0.19144575
000100 0e 7a 13 3e df a2 cc bc b6 59 aa 3d c6 4f 34 be
       0.14402029 -0.024980007 0.08317892 -0.17608556
000110 3e e2 3d bd 2c 91 e1 3d b4 3b 13 be 0b c9 1f 3e
       -0.04635834 0.110140175 -0.14378244 0.15604036
000120 5d 33 1f be 05 15 56 3d b1 60 88 ba 9a 72 9a 3d
       -0.15546937 0.05226614 -0.0010404793 0.0754139
000130 fd 36 1a 3d 1c d2 fc bd f9 ee 17 bd 61 d5 e3 bd
       0.037650097 -0.12344763 -0.037093136 -0.11124683
000140 7b 5a 3e 3e 72 f0 14 2d 9c 56 3b bb 56 5b 80 ae
       0.18589203 8.466216e-12 -0.0028585559 -5.8369906e-11
000150 25 76 21 b1 7d bc 78 30 c2 34 8b ac d2 6c a6 3d
       -2.349574e-09 9.048973e-10 -3.956475e-12 0.081262246
000160 f6 94 e5 bd a7 44 f7 bd 3e 90 a7 bd d9 a6 26 be
       -0.11210053 -0.12073641 -0.08181809 -0.16274585
000170 09 2d 17 3e 4f d5 8a 3d 5b 8a ff 3d a5 f1 bf 3d
       0.14763273 0.06778967 0.12477561 0.09372262
000180 e9 a4 80 bd d0 e6 80 bd 0b af e4 bd f3 37 09 3c
       -0.06281454 -0.06294024 -0.11166199 0.008375156
000190 30 44 f6 bc 57 9e 8e bb 38 b0 40 be 82 88 bc 3d
       -0.030061811 -0.0043523717 -0.18817222 0.09205724
0001a0 44 93 0a 3e 81 ad 01 3e 8a 21 bd 3d a2 d4 ea 3d
       0.1353274 0.12663843 0.09234913 0.11466338
0001b0 8c 11 e3 bd 55 b6 30 3d 09 46 cf 3a 7a 44 b8 b8
       -0.11087331 0.043142635 0.0015813719 -8.7865585e-05
0001c0 46 1b bd 30 6f b3 24 2c b8 e3 7e b6 45 a5 bb ad
       1.3759311e-09 2.3405407e-12 -3.79815e-06 -2.1332833e-11
0001d0 84 1d e4 bc 1b 79 4b 3e f0 0b 00 bd 78 31 a5 3d
       -0.027846105 0.19870417 -0.031261384 0.08066076
0001e0 ce 40 e5 3d 3b 63 d0 3d 9d 63 25 be ec ef e9 3d
       0.11194001 0.10175177 -0.1615128 0.114227146
0001f0 38 cf 23 3e 77 b2 18 be 81 86 54 bd b4 72 e9 3d
       0.15997016 -0.14911829 -0.051886085 0.11398831
000200 ab d9 29 be 96 25 3f be 8d b4 13 be ea 53 9d 3d
       -0.1658694 -0.18666682 -0.14424343 0.07682021
000210 db a3 e2 bc 77 67 1b be 9d 38 73 3d ae 56 c9 3d
       -0.027666023 -0.15176187 0.059380163 0.09830986
000220 18 f4 c5 3d ae bc 19 be 9a c8 3d 3e 32 1c 5e 2c
       0.09665698 -0.15013382 0.18533555 3.156375e-12
000230 0c a2 01 bb 60 7a c0 2b 06 85 58 37 47 cf 55 31
       -0.0019780425 1.3676386e-12 1.2905575e-05 3.1113403e-09
000240 79 9c b1 ab 10 e3 11 3e c9 b2 19 be b0 b1 bd 3d
       -1.2620036e-12 0.14246774 -0.15009607 0.09262407
000250 df 96 1e 3e 01 6e 07 be c3 87 82 3d 23 6b 02 bc
       0.1548724 -0.13225557 0.06373551 -0.007960114
000260 96 18 59 be a4 ff 00 3d 1b 42 9a bd b0 9a 24 be
       -0.21200785 0.031493798 -0.0753214 -0.16074634
000270 3b f3 18 be b1 3c 4b 3c de 04 0d 3e 05 4b 5e 3d
       -0.14936535 0.012404607 0.13771388 0.054270763
000280 b5 e1 c8 bd 40 9f 28 3e ba 40 b6 3c 71 37 30 be
       -0.09808675 0.16466999 0.02224766 -0.17208649
000290 05 c5 35 3c a4 1d 09 3e f9 cd a8 bd 33 bc 4b bc
       0.011094336 0.13390213 -0.08242411 -0.012435007
0002a0 02 28 d5 b1 82 47 95 b9 20 f1 f5 32 22 4d fb 2b
       -6.2036642e-09 -0.00028472772 2.8631405e-08 1.7856031e-12
0002b0 a3 0a 2b 37 02 5c 1a ae eb 62 39 be f1 d4 d4 3c
       1.0194871e-05 -3.5097265e-11 -0.1810414 0.025980445
0002c0 38 d4 33 be 83 f4 07 bd d8 8a f7 3d 17 1a 08 3e
       -0.17561424 -0.03319217 0.12087029 0.13291202
0002d0 cc ee 6c bd 97 81 9e bd 08 a7 ae 3d 36 7a 9d 3c
       -0.057844922 -0.07739561 0.085279524 0.019223314
0002e0 91 2b 3c be b3 0a d7 bd 79 f0 ac bc 55 bc 20 3d
       -0.18375994 -0.105000876 -0.02111076 0.039242107
0002f0 3a 27 13 3e 25 14 f7 3d e5 86 ab 3d da 90 cc bd
       0.14370432 0.12064389 0.083753385 -0.09988566
000300 03 ce 10 3e f6 a2 c2 3d 00 89 9f bc bb 0d 08 bd
       0.14141087 0.095037386 -0.019474506 -0.03321622
000310 74 8b a3 3d 64 e2 cd 33 52 98 11 2e 9a b3 48 39
       0.07985583 9.5872366e-08 3.310447e-11 0.00019140393
000320 cc 02 87 b7 a2 c4 89 b6 d4 68 85 30 28 a4 11 be
       -1.6094556e-05 -4.1058092e-06 9.706818e-10 -0.14222777
000330 ce d5 a6 3c 89 7d 9e 3d 0e 90 02 3d 4c af a9 bd
       0.020365622 0.07738788 0.031875663 -0.08285388
000340 7a 21 82 39 2e e2 24 bd 3d 74 2d be 2e 45 b1 bb
       0.00024820474 -0.040254764 -0.16938873 -0.005409858
000350 55 ec 89 bb e2 a8 8d bd 9e 9d ee bd 41 4a 4a 3d
       -0.004209081 -0.069169775 -0.11651157 0.04938722
000360 73 7d 07 3d 42 53 4c bd ee 40 db 3c b9 1c 31 3e
       0.033078622 -0.04988409 0.02676436 0.17296113
000370 65 05 25 3d 10 fd b5 bd 9c 18 1c 3e 0f c6 02 3e
       0.040288348 -0.088861585 0.15243763 0.12770866
000380 61 3c 52 3c b0 d1 6b bd e5 cb e6 30 99 cc 66 3a
       0.012831778 -0.05757302 1.6792653e-09 0.0008804291
000390 49 0b 25 b3 5e 90 98 32 0e 97 c2 ac 0b 9e df ad
       -3.842732e-08 1.776078e-08 -5.530582e-12 -2.542235e-11
0003a0 77 60 96 3d ee cf d7 bc 7a ee f4 bd 49 83 28 bd
       0.07342618 -0.026344266 -0.11959548 -0.04114083
0003b0 e7 3d 82 bd cf 4f 23 bd 23 e0 87 bd c7 9c d3 bd
       -0.06359463 -0.039871033 -0.066345476 -0.10332637
0003c0 16 14 ec bd c4 5a a3 3d ea 49 16 be 20 8e 35 be
       -0.115272686 0.079762965 -0.14676633 -0.17729998
0003d0 98 88 16 3e e4 21 45 3d 92 b6 f5 3d a8 f0 92 3d
       0.14700544 0.048128024 0.11997713 0.07174808
0003e0 41 4e 9e bd 5c 12 d1 bd 2e c2 e7 bd 28 52 5b bc
       -0.077297695 -0.1020858 -0.11316334 -0.013386287
0003f0 a4 cb 03 3d 26 1e 0d be af fc 20 be 9d 4f a0 b3
       0.03217663 -0.13781032 -0.15721391 -7.465062e-08

net.0.bias f4 [128]
000000 c3 ae 8a bd 80 58 a3 bd a8 1b a7 3d 37 7d 83 3d
       -0.067716144 -0.079758644 0.08159572 0.06420367
000010 34 e3 1c bc d3 1c 89 3d 73 b1 c2 3d c7 55 be 3d
       -0.009575654 0.06694951 0.09506502 0.092937045
000020 94 7b 3e 3e fc 2d 2e 3e 60 f4 ba 3c ea fa 59 3e
       0.18601829 0.17009729 0.022821605 0.21287122
000030 4f 23 14 3e b3 a4 08 3e 4b 18 c7 bd 34 5e d2 ba
       0.14466594 0.13344078 -0.097214304 -0.0016049803
000040 5b dd e4 3c d5 ca d2 bd 12 f0 83 bc b6 c4 d8 bd
       0.027937582 -0.102925934 -0.016105685 -0.10584395
000050 c4 ac d1 3c 88 7c 79 3e 87 7a 1c be 2f 10 67 bd
       0.025595076 0.24363911 -0.15281115 -0.05641192
000060 d2 ab f3 bd 40 c0 5b 3e db 9d 7e 3d 17 91 ef 3d
       -0.118980065 0.21460056 0.06216226 0.116975956
000070 26 7f f9 3d 0d 02 67 bc f0 94 83 3d 38 d5 bb bd
       0.12182455 -0.01409961 0.06424892 -0.091715276
000080 a1 c9 ee bd 5f ef d1 3c 90 41 5a 3e 3f 7c 1f 3e
       -0.116595514 0.025626836 0.21314073 0.1557474
000090 31 4b 76 3d 0b fe a5 3b ea 45 3a 3e c5 6e 85 3d
       0.060130302 0.0050656847 0.18190733 0.06515268
0000a0 37 3f 12 3e 43 00 50 bd c1 6f ad 3d 11 a0 0b 3e
       0.14281927 -0.0507815 0.08468581 0.13635279
0000b0 30 66 65 3e 4e 06 39 3e 5b 8d 2e 3e 5a b8 6f 3e
       0.22402263 0.18068811 0.1704611 0.23410168
0000c0 c6 0d b3 bd 4b 8b 0e 3c 36 c5 3d 3e 47 d3 5e 3d
       -0.087428614 0.008700202 0.18532261 0.05440071
0000d0 f6 dd 4a 3e 89 ef 09 3d 1d 92 35 3e 20 28 5f 3e
       0.19811234 0.033675704 0.17731519 0.2179265
0000e0 bc ca 59 bd 81 97 03 be 22 ce fa 3c 2a 04 46 3e
       -0.05317186 -0.12850763 0.03061587 0.19337526
0000f0 8f 80 ca bd b2 d2 0c bd 01 f5 16 3e da 51 2c 3e
       -0.09887802 -0.034380622 0.14741899 0.16828099
000100 2c 78 60 bd 56 24 f0 3d bf 60 89 3d e5 3c 5d 3e
       -0.054802105 0.117256805 0.06707906 0.2160526
000110 b5 38 54 3e cf 81 c1 3d 9b 62 97 bd 37 c4 e4 3d
       0.20724757 0.09448587 -0.073918544 0.111702375
000120 20 b9 13 3e 9d 8a 96 3d 43 d8 cf 3d fd 53 00 ba
       0.14426088 0.07350657 0.101486705 -0.0004895328
000130 e1 6b 01 be 71 25 7c bd 46 a9 e5 bd 8e 87 18 3e
       -0.12638809 -0.061559144 -0.11213927 0.1489546
000140 d0 b5 44 be 03 60 59 bd 24 0b 4a bd fc 9c 4e 3d
       -0.19209981 -0.05307008 -0.04932703 0.05044268
000150 08 a3 88 3d 05 33 d2 bd cc 60 fc 3b 04 3b 55 3e
       0.06671721 -0.102636375 0.007701969 0.20823294
000160 9b 53 2a bd d6 ef f3 3d b6 6f d0 bd b1 f6 8d 3d
       -0.04158364 0.119109794 -0.10177557 0.06931818
000170 f3 29 a9 bb 37 00 fb 3d 0b e5 52 3d 75 d0 a9 bd
       -0.0051624714 0.122559 0.051487964 -0.08291713
000180 cd de 04 be c7 a2 bb bc 02 a9 03 3e f1 41 e9 bd
       -0.12975617 -0.022904767 0.1285744 -0.113895305
000190 7c 50 c9 3d 9d 8e b9 bd d5 5e 10 3e 30 f2 58 3d
       0.09829804 -0.090604044 0.14098676 0.052965343
0001a0 75 23 19 3d 6b e6 83 3c 52 ce bd bd 3c 64 06 be
       0.03738733 0.016101083 -0.09267868 -0.13124174
0001b0 cd 15 3f 3e 27 14 ed bd 7f b0 35 3e 9e df ae bd
       0.1866066 -0.115761094 0.17743109 -0.08538745
0001c0 8a 53 35 bd 41 ed 5b 3e a7 48 24 be 02 74 52 3d
       -0.044269122 0.21477224 -0.1604334 0.051380165
0001d0 55 0f 36 3e 80 a5 0a be 29 d6 91 bd 8a 30 5d bd
       0.17779286 -0.13539696 -0.07120926 -0.05400137
0001e0 12 86 57 bd b7 c2 2e bd ec ec 0b be 24 33 ef 3c
       -0.052618094 -0.042666163 -0.13664597 0.02919919
0001f0 36 8d 8b bd 99 30 31 3e da 7e 2f 3e c2 83 13 3e
       -0.06814043 0.17303695 0.17138234 0.1440573

net.2.weight f4 [64, 128]
000000 06 a4 b0 36 e6 dd b4 b8 13 2e fd b6 2e 07 fb 3a
       5.2643036e-06 -8.624401e-05 -7.5453513e-06 0.001915192
000010 6a 4a 0c 3a db 40 c9 b9 e1 f5 22 3a 04 65 b6 bb
       0.0005351665 -0.0003838603 0.00062164484 -0.005566241
000020 08 30 ab ba ee b1 9f 38 0f c5 7e bb 81 2c a7 b7
       -0.0013060579 7.614853e-05 -0.003887478 -1.9928675e-05
000030 c4 a0 e0 b7 38 32 7d bb 5c a5 c4 34 3b 3a 12 b9
       -2.6777743e-05 -0.003863467 3.662816e-07 -0.00013945338
000040 9c a4 1d b3 05 24 ad 3b ca 5c 9b 39 b4 d3 1c 3a
       -3.6704122e-08 0.005283835 0.00029633037 0.0005982474
000050 27 8d 7d b7 f6 9f 06 b5 2d 46 b6 2f d7 a9 80 32
       -1.511284e-05 -5.0151664e-07 3.315547e-10 1.4978395e-08
000060 3c 73 a3 30 13 01 49 39 a2 4d 0f 39 de ca 84 b0
       1.1892562e-09 0.00019169254 0.00013666463 -9.661922e-10
000070 8f b7 d5 3a 8a ed fa af 3f c6 1a ba 0f f5 33 b8
       0.0016305315 -4.5643517e-10 -0.0005904175 -4.2905154e-05
000080 0c e8 ad 36 5e ae 83 39 f3 e1 8e b6 f4 74 0b b4
       5.1828156e-06 0.0002511618 -4.2582337e-06 -1.2987931e-07
000090 d0 61 2b 36 fb a7 9c b9 7c c7 e8 b3 bb 00 d1 b8
       2.553792e-06 -0.00029879794 -1.0839628e-07 -9.966033e-05
0000a0 e4 74 b6 ba b0 43 d2 2c 8a c8 0a ba d3 cc f3 38
       -0.0013920334 5.976074e-12 -0.0005294165 0.000116252944
0000b0 2b ee f8 b5 7b 15 e6 33 15 eb 12 b8 1d 6a db b8
       -1.8546756e-06 1.0714117e-07 -3.502805e-05 -0.00010462499
0000c0 6d 22 05 2e 04 31 a3 b8 47 38 e2 3a 1b ec f9 39
       3.0271275e-11 -7.7815756e-05 0.0017259204 0.00047668893
0000d0 d6 91 c7 b8 1f 66 c2 39 dd 60 c0 b9 8b 9a 7b b7
       -9.5162235e-05 0.0003707865 -0.00036693263 -1.4996748e-05
0000e0 df 1f bb 3a be 37 7d b3 7e 58 86 b3 e3 08 6b b7
       0.0014276466 -5.895685e-08 -6.255958e-08 -1.4009161e-05
0000f0 a4 27 47 3b c0 f8 73 39 8d fc cc b8 d3 6b 50 3b
       0.0030388618 0.00023266952 -9.774519e-05 0.003180255
000100 29 68 1a 36 39 3f b9 b7 51 4c 88 39 2c 3d 09 b9
       2.3008417e-06 -2.2083159e-05 0.00025996802 -0.00013088126
000110 21 cd 3e b9 3b 06 c6 33 56 78 ae b7 03 c3 4e b8
       -0.00018196228 9.221227e-08 -2.0798452e-05 -4.9295846e-05
000120 45 52 9b b8 1d ec 2b b6 20 47 fe 33 53 44 6c b7
       -7.4063e-05 -2.5618422e-06 1.1840734e-07 -1.4082604e-05
000130 13 e3 69 b9 19 38 29 b6 9e 5a 06 2e e1 08 fe b7
       -0.00022305203 -2.5215616e-06 3.0548557e-11 -3.0283294e-05
000140 19 0f b5 35 bb 06 03 b4 7a 9d eb 3a 9d 0f dd b7
       1.3489945e-06 -1.2202774e-07 0.0017976009 -2.6352523e-05
000150 35 31 9e 3a ad 47 4d ad 39 62 5e ba f9 10 30 b9
       0.0012069108 -1.1668816e-11 -0.0008483264 -0.00016790991
000160 8b 96 7b 39 24 59 b2 b6 52 30 0a b5 94 88 be 39
       0.00023993307 -5.3151907e-06 -5.147932e-07 0.00036341383
000170 20 47 7b b9 ef a2 99 ba a3 98 7b b9 e1 53 d6 b4
       -0.00023963721 -0.0011721532 -0.00023994087 -3.9921636e-07
000180 56 3c a3 3a d4 ea 98 35 d9 6f 80 b4 bb db 73 b9
       0.0012453895 1.1393226e-06 -2.3923238e-07 -0.00023256142
000190 87 0c 08 b7 b5 2f 8e 31 d9 11 36 32 e5 0c 46 b8
       -8.109148e-06 4.1381676e-09 1.0597852e-08 -4.7218888e-05
0001a0 d8 79 cd b9 6f 2f 6d 36 38 ac 2e b2 a9 ba 37 b7
       -0.00039191428 3.5343362e-06 -1.0167291e-08 -1.095111e-05
0001b0 4d 0e 31 b9 f4 a6 92 3b fa 75 03 b7 1c 9e ce b7
       -0.00016885363 0.004475469 -7.835677e-06 -2.4630739e-05
0001c0 a9 a5 b3 34 6b 06 61 b8 42 4d 85 37 67 7a 53 2e
       3.3461882e-07 -5.3650157e-05 1.5890811e-05 4.808456e-11
0001d0 a6 2f 37 b9 49 81 07 39 bc 0e 80 35 08 6c cd b7
       -0.0001746999 0.00012922766 9.541031e-07 -2.448821e-05
0001e0 20 bd de b0 9a d1 ea 36 d0 98 60 b4 46 62 dd 35
       -1.6206378e-09 6.9981443e-06 -2.0917219e-07 1.6494384e-06
0001f0 60 e8 4e 35 8b 6d f0 b9 b1 9c 5f 37 af 75 00 31
       7.707913e-07 -0.00045857983 1.3328318e-05 1.8693347e-09
000200 59 93 90 bd 87 3e fc bc e5 6f d4 3c bf 33 be 3d
       -0.07059354 -0.030791534 0.025932262 0.092872135
000210 81 5f 31 3d 85 a1 bb 3d ac ea 03 3d b9 d1 61 bd
       0.04330397 0.09161667 0.032206222 -0.055131648
000220 e6 42 06 3d 2c da b2 ba 0b aa 90 3d 72 51 54 bb
       0.032778643 -0.0013645343 0.07063683 -0.0032397178
000230 45 fd 87 3d cd 3a 24 bd fc 73 0b 3d 55 24 24 3d
       0.06640104 -0.04009514 0.03404616 0.04007371
000240 0e 94 95 3d 33 a9 6c 3d 0f 5c 83 3d 07 3e 3e 3d
       0.0730363 0.05777855 0.06414043 0.046445873
000250 66 cc 13 bc b5 ad d5 3d 68 9a 72 bd db 4c 55 bd
       -0.0090209 0.104335226 -0.059229285 -0.05207525
000260 ed 6a 6d 3c be 0a 4a 3d 79 f2 8f 3d 0e fc b8 3d
       0.014490825 0.04932665 0.0702867 0.090324506
000270 e5 e7 f3 3c 05 99 56 3d b0 81 75 3c e3 2a 9a 3d
       0.029773662 0.052392025 0.014984533 0.07527711
000280 47 26 e3 bc 64 35 5b 3d 9d 15 81 bc 85 a5 af 3c
       -0.027728213 0.053517714 -0.015757376 0.02144123
000290 96 81 08 bc 0f 87 d3 3c 44 07 94 bc 3c 33 80 bd
       -0.008331677 0.025821237 -0.01806987 -0.06259772
0002a0 73 7e 3d 3d 26 d7 b3 3c a4 61 09 3d 9f 48 b7 bc
       0.04626317 0.021953177 0.033540383 -0.022373496
0002b0 d8 d9 cf 3d 2f 80 cc 3d 88 10 9e 3a 07 ea 61 bd
       0.10148972 0.099853866 0.001205937 -0.055154826
0002c0 a7 03 0e 3d fa 97 7b bd 65 79 4c 3d 11 f4 09 bd
       0.034671452 -0.061424233 0.04992046 -0.033680025
0002d0 0f df e3 bc 2e 07 d5 bb 8a 40 79 3d 81 f4 7c 3d
       -0.027816324 -0.0065011 0.060852565 0.061756615
0002e0 e9 e6 25 3d 9e 18 cd 3d aa 47 b2 bb 39 03 83 3d
       0.040503416 0.10014461 -0.005440672 0.06397099
0002f0 45 ca 83 3d 06 f8 a6 3d cd 1c 84 bd c7 b8 86 bb
       0.06435064 0.081527755 -0.06450806 -0.0041113826
000300 03 7c a2 bd 06 b8 9b bb c1 02 65 3d 45 96 84 bc
       -0.079338096 -0.004752162 0.05591083 -0.016184935
000310 13 f6 ca bc f8 be a6 bb ee 2c eb 3c cc 7a 5a 3c
       -0.02477554 -0.005088683 0.028707948 0.013334941
000320 f0 cf f9 3c c1 5c 94 3d ca a1 48 bd 7d b8 05 bd
       0.03049466 0.07244254 -0.04898242 -0.032646645
000330 45 90 fa bb 1d 8a 8f bc 14 93 a6 3d c4 62 9b bc
       -0.007646593 -0.017521912 0.08133522 -0.018967994
000340 c9 ad 70 bc 77 10 92 3d fc ce 6c 3d bc fd 2a bc
       -0.014689871 0.07132047 0.057814583 -0.010436472
000350 30 39 2e 3c 83 dc 2d 3d 83 6c b9 3c c9 d7 aa bc
       0.010633752 0.042446624 0.02263475 -0.020854848
000360 a2 69 f6 bc b2 ef aa 3d 3e f5 3c bd cb f5 c3 bc
       -0.030079667 0.083464995 -0.04613232 -0.023920914
000370 4b 93 20 3c 03 52 97 3d 61 3f 11 bd 17 48 19 3c
       0.009800742 0.07388689 -0.035460833 0.009355566
000380 85 61 80 3d ec 50 37 3d 1b ae 71 3d 71 82 bb bc
       0.062686004 0.044754907 0.05900393 -0.022889348
000390 49 c0 e2 bb 79 9f 88 bc ae 3f 16 bc 55 96 6b 3c
       -0.006919895 -0.016677605 -0.009170456 0.014379104
0003a0 59 19 e5 3c 0b f5 f3 3c ba 67 69 bd 36 65 d9 bc
       0.027966188 0.029779932 -0.056983687 -0.026537519
0003b0 66 14 95 3d 23 d4 3f bc 1c 7d 01 3d 51 3d b0 3d
       0.07279281 -0.011708292 0.031613454 0.08605445
0003c0 f9 54 b0 3d a5 db 09 bd 1c 20 49 3c cb d6 62 3c
       0.08609957 -0.033656735 0.012275722 0.013845156
0003d0 63 96 db bc 95 cc 1d bc d2 4f e3 3b 9e 5d 8e 3d
       -0.026805108 -0.009631296 0.0069370056 0.0695145
0003e0 49 83 22 3d 2b ff ce 3d 28 fc 1d 3d 66 f8 dc 3d
       0.039675985 0.10107263 0.038570553 0.10789566
0003f0 e4 99 91 3d 09 52 2a 3d 4f 1e 6c 3d c6 1a 0b bd
       0.071094304 0.04158214 0.057646092 -0.03396108

net.2.bias f4 [64]
000000 88 90 57 bc ce 65 f5 3d d1 c1 f4 3b 8e 78 9e 3d
       -0.0131570175 0.11982308 0.007469394 0.07737838
000010 3b e2 21 bd fc ec a5 bc a4 28 90 bd 79 36 f4 3c
       -0.03952239 -0.020254605 -0.070390016 0.02981113
000020 ac 4e 0e 3d cf 2c bb 3c b6 76 3a bd 29 91 f3 3d
       0.034742996 0.022848515 -0.045523368 0.118929215
000030 f1 7d 06 bd ef 31 65 bd a6 c7 39 3b f3 10 3a 3d
       -0.03283495 -0.055955824 0.002834776 0.04542632
000040 49 38 5c 3d 4f b4 9c bd a4 c5 0a bd 3b 0e d0 bc
       0.053764615 -0.07651579 -0.03387989 -0.02539741
000050 d9 8a 91 bd b6 51 9b bc cb b5 fd 3d 18 0c 93 3d
       -0.07106561 -0.018959861 0.1238819 0.07180041
000060 fd 6c 86 3d 9d ee 3c bd ef 4f 76 3d 3a 28 b8 3c
       0.065637566 -0.046125997 0.060134824 0.022480119
000070 59 73 c3 bd 0e 77 6f 3d 45 5e d0 3d 13 b5 1e bd
       -0.09543485 0.05846315 0.101742305 -0.038746905
000080 af 57 13 bd 0b 32 85 3d 94 90 58 bd 28 44 e8 3c
       -0.035972293 0.065036856 -0.052872255 0.028352812
000090 e9 fc 84 3d 37 f9 3e 3d 19 a7 0e bd 90 c9 bf 3c
       0.06493551 0.04662439 -0.034827325 0.023411542
0000a0 63 fc db 3b 14 6c 01 be 4a 11 c6 bc d3 cf 92 bb
       0.0067134365 -0.12638885 -0.024178166 -0.004480341
0000b0 81 93 b9 3c b2 2a 82 3d b9 a8 21 3d 68 b0 9a bb
       0.022653343 0.063558 0.039467547 -0.0047207363
0000c0 d5 2e 42 3d 29 36 2a bd e3 79 20 3c 4f fc 38 3c
       0.047407944 -0.041555557 0.009794685 0.011290624
0000d0 8c e7 81 3d e1 80 f2 3d d0 b1 b1 bd ac ed 83 3c
       0.06342992 0.11840988 -0.08676493 0.016104542
0000e0 91 ed 74 bd 0f 6a 8b 3d 3c d4 c7 bd 5c 04 0a bd
       -0.059796873 0.068073384 -0.09757277 -0.033695564
0000f0 ad 63 e0 3d a6 ad 9c 3d ba a8 33 bc 58 6d 35 bd
       0.10956512 0.07650308 -0.0109655205 -0.04429373

head.weight f4 [1, 64]
000000 43 4b db 3b 2f fb c8 3d d6 a3 67 3d f1 e7 1d 3e
       0.0066923215 0.098135345 0.05655273 0.1542051
000010 1d bc bf 3d 1d 8f 4a 3d 17 34 96 bd 0b 21 14 bd
       0.09362052 0.04945289 -0.07334154 -0.036164325
000020 e5 64 0f 3e ac 4a ac ba fc 06 ca bc 8a ac 16 3e
       0.14003332 -0.0013144813 -0.024661534 0.14714256
000030 0d 0a 2f bc f8 f4 50 bd 32 4c c4 bc cc 77 39 3d
       -0.010683549 -0.05101487 -0.023962114 0.045280263
000040 7e 7a b8 3d 41 6c bf bd 07 7c 06 3e 79 51 66 3d
       0.090077385 -0.0934682 0.1313325 0.056230042
000050 c8 46 a5 bc f0 82 84 3a 82 2c d6 3c af b3 eb 3d
       -0.020175353 0.0010109823 0.02614427 0.11508881
000060 f4 fb 98 3d b4 4a d2 bc 90 e8 6b bd d8 f9 87 3d
       0.07469931 -0.025670387 -0.057594836 0.06639451
000070 d1 1c 00 be 65 9b 56 bd 8b 61 0c 3d 86 9e 28 3d
       -0.12510993 -0.05239429 0.03427271 0.041166805
000080 12 cd eb 3d 4c 7b 54 bb c7 02 d9 bd a1 ec b3 3d
       0.115137234 -0.0032422123 -0.10596233 0.08785368
000090 d3 26 6f bd 0c 36 86 bd f9 a6 ca 3d e3 6a 72 bb
       -0.058386635 -0.065532774 0.09895129 -0.003698998
0000a0 c1 21 aa 3d 07 aa 40 be 9a 1f b1 bd fc 0a 55 bc
       0.08307219 -0.1881486 -0.08648606 -0.013003107
0000b0 b7 00 1c 3c f2 11 03 bb b1 a8 35 bc 60 10 c8 3d
       0.009521655 -0.001999971 -0.011087582 0.09768748
0000c0 5b c5 c6 3d 63 ba 05 3d 7e 78 a5 bc 8d 26 32 3d
       0.09705611 0.032648455 -0.020199057 0.043493796
0000d0 3e 4f 93 3d 9b af ef 3d 41 5c bc bd 66 b2 a7 3d
       0.071928486 0.11703416 -0.091972835 0.08188324
0000e0 65 e8 ed bc 93 85 53 bd 22 ab 78 bd 2c 12 b8 3d
       -0.029041478 -0.05164106 -0.06071008 0.08987841
0000f0 99 2f f0 3d e5 7b f1 3d 36 da 93 bd 99 02 0c 3e
       0.117278285 0.11791209 -0.07219355 0.13672866
