artifacts/model_exp-10_bottleneck_seed2_20251104T051619Z.pt (torch, 35625 bytes, 5 tensors)

net.0.weight f4 [128, 29]
00000000: f3c7 293c 43be c5bc ecd6 24bc 1cf7 e1bd
00000010: 02d3 013d e2d7 4f3d f826 a1bc cc5b 30be
00000020: c180 743c ec73 2abe 282d 623c 6151 16bd
00000030: 3094 de3c 4a33 003e a0ae 143d 0d81 fd3d
00000040: 8b9c d83d 9b09 f2bd 6105 aabd b72f 263e
00000050: 3aae 30be 666c c7bb b4bd 49bd 6be0 063e
00000060: 0e9f 90bc 1b48 483d 450c 12bc 35f3 d4bd
00000070: 788d d7bd 2c70 c4bd 7447 52be bc14 07be
00000080: 6178 e13c d088 e33d 3689 123d dc0a 95bd
00000090: 8b68 8b3d b228 48bd afe1 84bd ceb5 e3bd
000000a0: 8fda 8cbd 8232 32be 74ac 963d 5833 743d
000000b0: dbfe 433d 807a 0f3e ab45 c83d 5321 0a3d
000000c0: ee12 e63c 0bec 1f3d 7781 ef3d c4eb 163e
000000d0: 8d8e 083e 256d dc3d 8671 39bd 2071 07bc
000000e0: 9692 1abd 293c dd3d 63c4 033d 9cb1 303e
000000f0: b1dd 3c3d 9532 66be c18a ad3c 0357 303e
00000100: 5c8a de3d 58fa 503c 6455 5d3d f6ed 22be
00000110: 66be 9fbc 588e ab3d 2600 05be 8c5e f63d
00000120: 76fc 27be 81ca d03d 6493 623d c005 bd3d
00000130: c6fe a73c f565 eebd c5d6 003c 259c 1dbe
00000140: 5160 463e 87ba babc 7556 3dbe ee37 383d
00000150: 9d27 a53d 113f aabd c0b3 8ebc f186 2d3e
00000160: 1b54 febd ce1f 0ebe 5b8f 9abd e9af 40be
00000170: fa50 373e 5122 833d 9e49 2b3e 2285 f63d
00000180: 9dbd d1bd 68c1 72bd 77c2 07be 9f82 35bc
00000190: 37fe a5bd 0bcc 0dbd 62bf 4dbe db0b 193e
000001a0: 08ab 1a3e 3eb5 ff3d 6724 ed3d f246 1d3e
000001b0: 6e13 03be d6af 3e3d 1f63 303e 6bce 09be
000001c0: 0855 a9bd 4b38 20bc b294 ecbd 5d5c 0fbd
000001d0: dfbc bcbc de67 613e 82cb 35bd 4ad6 a93d
000001e0: e368 dd3d 00ce e03d aafa 31be 8316 073e
000001f0: 9901 2a3e 93e5 2dbe 9f39 40bd f39d 073e
00000200: ae8e 25be dcf2 54be b9d2 1dbe bd33 a33d
00000210: 7c74 e6bc ef79 22be cf42 963d 0e03 cf3d
00000220: b105 cc3d 860d 21be a6d4 443e 6d8d 65bc
00000230: 63fb 34be 7501 e5bc af65 f83d 1e24 af3d
00000240: 8c0f 02bb bb95 453e e256 23be 5fd9 963d
00000250: 5c11 013e 609e 26be 3aa0 3c3d 2a8b f0bc
00000260: 6a88 5dbe e374 ac3c 7d87 9cbd 7387 1fbe
00000270: c6ea 22be 590c 233d f515 0d3e 58b6 b23d
00000280: bac5 ecbd d259 4b3e 6ff7 003b 03aa 3abe
00000290: 2a67 a4bc f1e4 113e 2bfe d6bd 0fcb 37bd
000002a0: 5179 bdbd aeef 15be 0618 d8bd 47c2 983c
000002b0: 76d5 f53d 8756 0dbd 3703 3bbe 6cd5 14bb
000002c0: 25e4 3abe df8e d6bc d694 e13d f3a5 033e
000002d0: 8d14 9bbd 9332 d9bd 4c15 d63d 930f 42bc
000002e0: a0ed 37be 0d08 cebd 055a 1fbd 97e4 013d
000002f0: 2cdd 103e 0172 053e df46 f73d 8140 04be
00000300: 5ea8 203e a98c a83d 8c33 f4bc e5ec 32bd
00000310: 24cb 803d 7524 cebd 9061 9a3d 536c 113e
00000320: f5ee fabd b83a edbd affe 9dbd 575b 05be
00000330: f2bb 943c 7ba9 933d fa14 523c a3d5 d3bd
00000340: c337 323b 5477 51bd a903 4abe b1dc 1fbd
00000350: e172 9fbb f4d3 94bd b12a 13be adcb d83d
00000360: bd3d 2e3c 4ada 60bd 6f95 8f3d b9c7 743e
00000370: 3b08 c33c 8002 d9bd 6f5f 283e 26f7 2a3e
00000380: fc83 063c c262 abbd d677 a0bd 50cf 253e
00000390: 99aa c63d 0a92 c3bd ccda f23b d802 1c3d
000003a0: 1e77 953d 8915 a33c 4fab 07be afd6 5dbd
000003b0: 1204 9bbd 4b7e 45bd a424 d2bd 0f99 c1bd
000003c0: 59d4 0ebe ac7d 903d eaed 31be eba9 44be
000003d0: 2dfa 443e f0ac 463d db6d 0c3e 071f b53d
000003e0: 84c3 9fbd d73e dbbd 719d e3bd 2266 b5bc
000003f0: 0991 883c eb14 28be 086b 30be 9211 d63d
0.010362613 -0.024138575 -0.010061007 -0.110334605 0.031695373 0.05074299 -0.019671902 -0.17222518
0.014923275 -0.16645783 0.013804711 -0.036698703 0.02717027 0.12519565 0.036299348 0.1237813
0.10576733 -0.11818238 -0.08301807 0.1622914 -0.17253962 -0.00608592 -0.04925318 0.13171546
-0.017653968 0.04889689 -0.008914058 -0.103979506 -0.1052503 -0.095917076 -0.2053507 -0.13191503
0.027523221 0.11110079 0.035775386 -0.07277462 0.06807049 -0.048866935 -0.06488358 -0.11118661
-0.06877624 -0.1740208 0.073571116 0.059619278 0.04785047 0.14011574 0.09778913 0.033723187
0.028085198 0.039043467 0.11694615 0.14738375 0.13335629 0.10763005 -0.04527428 -0.008266717
-0.03773745 0.1080249 0.03216971 0.17255253 0.04610986 -0.22480233 0.021184327 0.17220692
0.10866234 0.012754999 0.054036513 -0.15911087 -0.019499969 0.08376759 -0.12988338 0.12029752
-0.164049 0.101948746 0.055316344 0.09229612 0.020507228 -0.116405405 0.007863705 -0.15391596
0.1937268 -0.022794021 -0.18490012 0.044975214 0.08064196 -0.0831281 -0.017419696 0.16946007
-0.124183856 -0.1387932 -0.07546874 -0.18817104 0.17901984 0.0640303 0.16727301 0.12037112
-0.10241244 -0.059266478 -0.13257776 -0.011078506 -0.08105128 -0.03461842 -0.20092538 0.14945929
0.15104306 0.12485741 0.11579209 0.15359095 -0.1280038 0.04655441 0.17225312 -0.13457648
-0.082681715 -0.009779046 -0.11551799 -0.035000194 -0.02303928 0.22012278 -0.044383533 0.082928255
0.10811021 0.109767914 -0.17380777 0.13192181 0.16602172 -0.16982107 -0.04692995 0.13243847
-0.16167709 -0.20795768 -0.15412416 0.07968853 -0.028131716 -0.15866826 0.073369615 0.101080045
0.09962023 -0.15727815 0.19221744 -0.014010769 -0.17674021 -0.027954796 0.121287696 0.08551811
-0.0019845692 0.19295399 -0.15951112 0.07365679 0.12604278 -0.16271353 0.04605124 -0.029363234
-0.21634069 0.02105183 -0.0764303 -0.15579014 -0.15909871 0.039806698 0.13777907 0.087261856
-0.11561151 0.19858482 0.0019678732 -0.18228917 -0.020068724 0.1424749 -0.104976974 -0.044871386
-0.09251655 -0.14642212 -0.10551457 0.018647326 0.12003605 -0.034506347 -0.18262945 -0.0022710217
-0.18251093 -0.026191173 0.11014716 0.12856273 -0.07572279 -0.106053494 0.10453281 -0.0118445335
-0.1796174 -0.10060129 -0.03890421 0.03171214 0.1414687 0.1303177 0.120740645 -0.12915231
0.15689227 0.08229954 -0.029809736 -0.04368295 0.06288746 -0.100655474 0.0753814 0.14201479
-0.12252609 -0.11583465 -0.07714593 -0.13023125 0.018156026 0.0721006 0.012822384 -0.10343482
0.002719388 -0.05113919 -0.19727959 -0.039028827 -0.0048659896 -0.07266989 -0.14371754 0.10585723
0.010634837 -0.054895677 0.07010924 0.23904313 0.023807636 -0.1059618 0.16442655 0.16695842
0.008210178 -0.08368446 -0.07835357 0.16192365 0.09700508 -0.09549339 0.0074113365 0.03808865
0.072981104 0.01990773 -0.13248943 -0.054159816 -0.07569136 -0.048216145 -0.10260895 -0.09453022
-0.13948192 0.0705522 -0.17375913 -0.19205444 0.1923606 0.04850477 0.13713782 0.088438086
-0.078009635 -0.10705345 -0.11114014 -0.022143427 0.01667072 -0.1641423 -0.17228329 0.1045257

net.0.bias f4 [128]
00000000: 87f3 c6bd 7155 87bd af10 c83d dac1 183e
00000010: 5562 2f3b 66f6 903d f9c0 bb3d aaf5 263e
00000020: 4d6f 523e 7f00 6f3e 2e8f 153d 7989 623e
00000030: c8f6 1e3e 0d0f 603e 4428 72bd c854 b839
00000040: 0e0f 023d d9cd dcbd 477a 0fbc 9471 4cbd
00000050: c50d 213d d1bb 883e 666d fdbd 8081 fabc
00000060: 8392 dfbd 9f13 573e 8e52 913d c784 6f3d
00000070: 83fd 393e c7a6 51bc ec04 ca3d 7566 dabd
00000080: d768 bcbd 9ac0 7d3d fdc9 7a3e 8678 323e
00000090: 5419 893d f7e2 af3c ca35 4c3e 4689 8a3d
000000a0: 1a6f af3d 2ee6 cfbd ed74 0c3e 3053 0b3e
000000b0: 4833 213e 60a0 7b3e dcfc 493e 64da 853e
000000c0: 063a e0bd f784 7fbc 60a0 4d3e c9f0 d63c
000000d0: fbdb 313e eed3 fa3c 0725 f33d b79e 6d3e
000000e0: 02a0 20bc 1bba e0bd 1107 fc3c b783 4e3e
000000f0: 59ea a9bd 9ff3 32bd 5cde 223e c298 4b3e
00000100: ccc6 a3bd 4f90 133e 4e77 c63d f97d 6c3e
00000110: 1700 5f3e 3e34 9e3d 3278 54bd 69ad f03d
00000120: 9ee1 8f3d e49d 0d3c 6112 3f3d bc41 973c
00000130: 42eb f2bd c315 22bd bebd 27be 2f89 053e
00000140: f342 02be 4322 62bd 40b4 03bd 7615 873d
00000150: 6790 c93d 4bdd d4bd c336 78bb d520 6b3e
00000160: 4657 4fbd 1dcd 123e 237a 1dbe 7421 ab3d
00000170: afd9 083d 7dc1 273d d99f f6bb 6922 87bd
00000180: ac2e eebc 912b 91bc f5cb a43d 9500 9dbd
00000190: 0eab de3d 6b83 d3bd 495a 373e c139 ab3d
000001a0: ceea 7e3c dcfb a5bd 5262 0dbe a3fb 26be
000001b0: aac8 613e 480a e9bd a8bc 4b3e 1a11 a2bd
000001c0: eb24 7ebd 6448 4a3e d92d 44be 699c a43d
000001d0: 3bc4 2e3e e4ec 15be 9986 21be f4f1 14bd
000001e0: 549b fbbd 0e85 20bc 58d8 0bbe 0183 113d
000001f0: 5058 cfbd a666 573e bcbf 2c3e 0f81 2b3e
-0.09714418 -0.066080935 0.09768807 0.14917699 0.0026761491 0.07078247 0.09167666 0.16304651
0.2055027 0.23340033 0.0365135 0.22122754 0.15523827 0.21880741 -0.05912043 0.00035158382
0.03175264 -0.1078145 -0.0087571805 -0.049913004 0.039319772 0.26705793 -0.12374382 -0.030579329
-0.10916617 0.21003579 0.07095824 0.058476236 0.18163113 -0.0127961105 0.0986422 -0.106640734
-0.09199684 0.061951257 0.24491115 0.17428789 0.06694284 0.02147053 0.19942394 0.06764464
0.08566113 -0.10151325 0.13716479 0.13605952 0.15742218 0.24572897 0.19725364 0.2614318
-0.10948567 -0.015595666 0.2008071 0.026237862 0.17369072 0.030618634 0.11872297 0.23205076
-0.009803774 -0.10972997 0.030765088 0.20167433 -0.082966514 -0.043689366 0.15905136 0.19882491
-0.07996902 0.14410518 0.09690724 0.2309493 0.21777378 0.07724808 -0.05187244 0.11751825
0.07025455 0.008643601 0.046648387 0.018463962 -0.11861278 -0.039571535 -0.16380975 0.13040613
-0.12720852 -0.055208456 -0.03215432 0.0659589 0.09841996 -0.10393771 -0.0037874437 0.22961743
-0.05062034 0.14336057 -0.15378623 0.0835599 0.033410724 0.04095601 -0.0075263795 -0.0659836
-0.02907499 -0.01772097 0.08046714 -0.07666127 0.1087247 -0.103278 0.17905535 0.08360625
0.0155589115 -0.08104679 -0.13807037 -0.1630693 0.22049204 -0.11378914 0.19896185 -0.07913418
-0.062046926 0.19754177 -0.19158114 0.08037645 0.17067043 -0.14641148 -0.15774001 -0.036363557
-0.12285486 -0.009797348 -0.13656747 0.035525326 -0.10124266 0.21035251 0.16870016 0.1674845

net.2.weight f4 [32, 128]
00000000: 71fe 48bd b268 64bd 8555 b73d 3b01 0c3e
00000010: 0973 4d3d d5d3 52bc bdb2 cd3d d144 99bc
00000020: 0105 5cbd eea8 ae3d f8c0 0dbd 2213 74bc
00000030: bd33 30bd 797c 4bbc b8e6 7d3d 3bfa 253d
00000040: b37f cd3d 1671 f13d 71ac de3d 9747 c63d
00000050: 4bbe ab3d ca0f a03d f731 963d fcfa 903d
00000060: 5cca 953d 0913 953d 3008 a43d 7de8 6fbd
00000070: 6208 fb3d 97a1 a03d a46d 15bc 1144 8d3d
00000080: f602 763d 502e 113d a62e 0dbb ce65 373d
00000090: c265 c83d 9da0 c13c 7feb 50ba b5f4 c2bb
000000a0: ab73 54bb b1b6 9d3d 332f 923c 676e 973d
000000b0: 4834 91bc b4e2 2bbd f07a ba3d daa1 df3c
000000c0: 036e f43c 534d 9e3d 9449 883d 6ddb cf3d
000000d0: a553 1c3c e095 e83d 9345 9bbc d738 fb3c
000000e0: 5b6d de3d a8f3 f93d 5254 07bd 6c19 b8bc
000000f0: 926a 943d 67b0 723d 99db 6f3d b489 d63d
00000100: 0227 b03d 7c35 22bd c6de d33d 2b80 16bd
00000110: 6051 9f3c 4cfe c83d 4ddd d2bc 01e0 e93c
00000120: 1632 81bc 5a96 4bbb 5eae cebc 1eac 833c
00000130: 3d3e a5bb d944 e83c 3093 933c dbb8 243d
00000140: f06b c33d 7c49 053d ef7f 513d a742 d23d
00000150: 49d6 d03d 52bc 893d 108c 30bd 3e71 263d
00000160: 5cae a43d 3873 e13c 387e cbbc 36f4 bc3d
00000170: 0b29 dc3c 8e56 8dbd ed8a 2bbc 31d1 20bd
00000180: ad0c a83d 6fca 8dbc 52b2 a93b 024a 80bc
00000190: aabe a4bc 2428 b03c d68d 483d fe5e cc3c
000001a0: b196 e0bc 3a73 9a3d 4f58 71bd d46b c83c
000001b0: 3b89 a93a 5602 ae3d 046b 74bc 97a8 113d
000001c0: b73f c73b 5ff9 d73c e99a d03d 817b 823c
000001d0: c0fb 1bbd 969b 853d cb5c 04bc 6f36 b9bc
000001e0: 91c9 84bd ce20 5c3d 6a5a 11ba 1845 ebbc
000001f0: 877d e0bc 5689 5a3c ea37 8d3d 326a 5a3c
00000200: c1c2 bdbd f1d9 4fbd 5275 9eba 0a22 2c3d
00000210: eebf cb3c 5fb3 893d dce4 6ebb 42f7 b9bd
00000220: d3d4 553b 7f72 2fbd 42f1 373d 431d 56bd
00000230: b775 013d 68be 9ebd 6cda c73c 5b46 5c39
00000240: f125 013d 155a fb3c a5a8 443d a065 b33c
00000250: a396 49bd 718b 803d 1fa6 bbbd 36ab a9bd
00000260: 565d bebc f8ba 7a3c 8ef9 223d 2382 873d
00000270: f53f 62bc 807f f73c 837b 8fbc a173 933d
00000280: 37c5 65bd d243 063d 6330 5fbd b672 9fbc
00000290: 1e13 05bd 53ad 18bc 0f17 4ebd 6bca b5bd
000002a0: f3ad a43c a6f8 a7bb ee82 2abc f81d 52bd
000002b0: ac9b 583d d74f 763d 2593 02bd 36a2 bbbd
000002c0: 2873 e83c 7d51 bebd 7c62 b63c 7030 96bd
000002d0: 7a82 91bd 318d 65bd d174 153d 1154 8a3c
000002e0: 7ccd a03c fddb 8f3d e654 b3bc 3fac f53c
000002f0: 8b05 373d 3ded 5d3d 4dc4 c2bd 1cab 5fbd
00000300: f0f8 c3bd 5823 03bd 6503 a93c 0691 45bd
00000310: 503f 60bd cd59 43bd c0b9 34bb 87e1 77bc
00000320: e579 02bc 20c2 213d 5a53 afbd 6736 39bd
00000330: 0c85 14bd 372d 4cbd ce1c 3a3d bbab 7abd
00000340: a8f8 07bd de45 273d a984 153d 80f0 04bd
00000350: f40c 15bd b8dd efba 280b f6bb 00eb 4cbd
00000360: 0879 75bd 513b 303d 8d87 9abd e24b 92bd
00000370: bd0d cdbc f958 613d 77f4 8bbd 1f07 0dbd
00000380: d71f 083d 81e9 c03c 4743 693c 59b6 39bd
00000390: f863 39bd 3349 32bd 50e8 f3bc 31f1 7ebc
000003a0: 818a b2bc 6217 99bc 2348 a5bd 9dd9 47bd
000003b0: 4a2f d33c e7b4 39bd 5844 273b 8901 953d
000003c0: c46c 813d 6d67 92bd e7c4 3dbb f77a 24bc
000003d0: 6491 64bd 05dc 15bd 69ee 9ebc 1d17 643d
000003e0: e240 433c 9c9d 9f3d f08c bf3c 4b1f 983d
000003f0: ca83 643d 9a89 813b 9425 993c 13c9 b1bd
-0.04907078 -0.055763908 0.089518584 0.13672344 0.050158534 -0.0128678875 0.10043857 -0.018709572
-0.05371571 0.085283145 -0.034607857 -0.01489714 -0.04301809 -0.012419813 0.06198761 0.04052184
0.10034122 0.117891476 0.10872734 0.096816234 0.08385905 0.078155115 0.07333749 0.070791215
0.073139876 0.07279021 0.08009374 -0.058571327 0.12257458 0.07843321 -0.009120379 0.06897748
0.060061418 0.035444558 -0.0021542697 0.044774823 0.09785034 0.023636157 -0.0007969662 -0.0059495815
-0.0032417576 0.07700861 0.017844772 0.073941045 -0.017725125 -0.041964248 0.0910548 0.027298857
0.029837614 0.07729592 0.06654659 0.10149274 0.009541427 0.113567114 -0.018954074 0.030666752
0.10860702 0.12204677 -0.0330394 -0.02247306 0.07246889 0.05925026 0.058559034 0.104754835
0.0860119 -0.039601788 0.10345225 -0.036743324 0.019447982 0.09814128 -0.02574029 0.028549196
-0.015770953 -0.0031064958 -0.02522963 0.016073283 -0.00504282 0.028353142 0.01801452 0.040215354
0.09542072 0.032540783 0.051147398 0.10266619 0.10197122 0.067253724 -0.043102324 0.04063534
0.08041069 0.02752076 -0.02484046 0.09226267 0.02687504 -0.069012746 -0.010470134 -0.039262
0.08205543 -0.017308442 0.005178728 -0.01566029 -0.020110447 0.021503516 0.04896339 0.02494764
-0.027415605 0.07541509 -0.05892211 0.024465479 0.0012934575 0.08496539 -0.014918093 0.03556117
0.0060805934 0.026364027 0.10185797 0.015928032 -0.038081884 0.06523816 -0.008078764 -0.022608964
-0.06483758 0.053742222 -0.0005544784 -0.02871947 -0.027403606 0.0133384075 0.068954304 0.013330983
-0.09265662 -0.050744954 -0.0012089408 0.04202465 0.024871793 0.067236654 -0.0036452329 -0.09080364
0.0032628074 -0.0428338 0.044907816 -0.052274 0.031606402 -0.07751161 0.024396144 0.00021007044
0.031530324 0.030682603 0.048012394 0.021899045 -0.049215924 0.06276596 -0.091625445 -0.08284609
-0.023237865 0.015303366 0.039788775 0.066166185 -0.013809194 0.030212164 -0.01751495 0.07199789
-0.05609628 0.032779522 -0.054489505 -0.019463878 -0.032488935 -0.009318667 -0.05031496 -0.08876499
0.020102477 -0.0051260768 -0.010407193 -0.05129811 0.052882835 0.060134735 -0.03187861 -0.09161799
0.028375223 -0.092928864 0.022263758 -0.073334575 -0.071049646 -0.056042854 0.036488358 0.01688579
0.019629233 0.07024381 -0.021891069 0.02998936 0.04468302 0.054181326 -0.09510098 -0.054606542
-0.095689654 -0.03201613 0.020631501 -0.04823401 -0.05474788 -0.047693063 -0.0027576536 -0.0151294535
-0.007963632 0.039491773 -0.0856082 -0.045217898 -0.036259696 -0.049847808 0.045437627 -0.06119893
-0.03319612 0.040838115 0.036503468 -0.03245592 -0.036389306 -0.001830033 -0.007508654 -0.0500288
-0.059929878 0.04302532 -0.075453855 -0.0714338 -0.025030965 0.05501649 -0.06833737 -0.03443062
0.03323349 0.023548843 0.014237232 -0.045339916 -0.045261353 -0.04352684 -0.029773861 -0.015560434
-0.02179456 -0.018687908 -0.080703996 -0.048791517 0.025779385 -0.045338538 0.0025522914 0.072756834
0.063195735 -0.07148633 -0.0028956474 -0.010039083 -0.055802718 -0.03658678 -0.019400792 0.055686105
0.011917325 0.077937335 0.023382634 0.07427844 0.055789746 0.003953171 0.018694676 -0.0868093

net.2.bias f4 [32]
00000000: abd1 843d 956a 8ebd c4e4 f43d f05e 8e3c
00000010: c051 0c3d 9572 64bd 33c0 22bb 3033 27bc
00000020: bd4d c3bd 7807 5abd 96fa d73d ab96 f73c
00000030: 6d1a 5cbc f6fe 373d 971c d8bc a50f d93d
00000040: f87e 98bd d863 f23d 101d 54bd 9464 70bd
00000050: a247 3fbd 6dd3 c2bd ae0c a6bc 1daf 123d
00000060: 7655 c03b 5d5f 1c3d c3db 26bd 9ba9 83bb
00000070: 3576 11bd 3d5b 05bc 3945 abbd d1e2 ce3d
0.064853035 -0.06953923 0.11957696 0.017379254 0.03425765 -0.055773336 -0.0024833798 -0.010205075
-0.09536312 -0.05322978 0.10545842 0.030223211 -0.013434035 0.044920884 -0.02638082 0.10598687
-0.07446092 0.1183545 -0.05178553 -0.05868967 -0.046699174 -0.095129825 -0.020269718 0.035811532
0.0058695627 0.038176883 -0.040736925 -0.0040180213 -0.03551312 -0.008139429 -0.083628125 0.101018555

head.weight f4 [1, 32]
00000000: a0d5 0d3e 79bf b2bd ae47 a23d 7a23 52bc
00000010: e95e aebd 5a8f b6bd 368b 7ebd 62d4 f6bd
00000020: 06ba bfbd 59be 26be 321b 2e3e 4651 923d
00000030: 8de8 dabd 42a6 373d c746 813d 4721 cf3d
00000040: b5db 88bb 6687 193e ad50 a9bc dcc6 b9bd
00000050: a37b 1bbe 2998 6abc bad4 343e 3eda 70bd
00000060: 448d 053e ba22 f93d 025b 9dbc b9df 273e
00000070: 34fa 13be a67a 0f3e 4b67 2bbd 6120 3f3e
0.13851023 -0.08727927 0.07923828 -0.012825841 -0.085141964 -0.08914061 -0.06214448 -0.120522276
-0.09361653 -0.1628355 0.17002562 0.07144408 -0.10688887 0.04483629 0.06312328 0.10113769
-0.0041765817 0.14993057 -0.020668352 -0.090711325 -0.15183882 -0.014318504 0.17659274 -0.058801882
0.1304217 0.12164827 -0.019208435 0.16393937 -0.14450914 0.1401163 -0.041846555 0.18664695
