artifacts/model_exp-11_skip_seed2_20251104T051618Z.pt (torch, 60507 bytes, 7 tensors)

net.0.weight f4 [128, 29]
00000000: 6de4 0e3d 029a 88bd 71ec 523d 6b93 21bd
00000010: bc25 553d 7c9c 553d a806 d0bc b144 38be
00000020: 5da6 723d 1cfc 3abe 0516 113c b0e6 293c
00000030: ee3d 40bb 497b 203e eb51 873c ac2a 893d
00000040: c39a ab3d 0519 a4bd 9f81 66bd 3862 3c3e
00000050: 7d10 3ebe bc97 3ebc 9224 693b 6be0 063e
00000060: 0e9f 90bc 1b48 483d 450c 12bc 35f3 d4bd
00000070: 788d d7bd b585 ccbd db3e 3cbe 9b47 f9bd
00000080: 6a6c 493d 057c f93d 6b9a f4bb 774c cfbd
00000090: a1ab 9a3d 7c33 30bd 41b8 32bd 47c6 d9bd
000000a0: 738b a9bd 6178 43be 9b84 893d 290c 883d
000000b0: 048b 053d a062 ff3d cd58 d23d a6c6 f03c
000000c0: 7c42 0a3d 6a66 073d 5af1 ab3d e181 0f3e
000000d0: 8d8e 083e 256d dc3d 8671 39bd 2071 07bc
000000e0: 9692 1abd 293c dd3d 3bea 07bc aa28 213e
000000f0: 32a0 cc3d 138c 39be 2aeb 253d d2d3 4e3e
00000100: 593a 263e 62fb ddbc 542a ba3d 4c54 42be
00000110: b47b 77bd 58eb e03d 047c 1dbe c825 2e3e
00000120: b300 11be 1e3e 403d dbf7 80bc ba72 613d
00000130: febc 143d 419f 30be 048b 66bd 5b12 dbbd
00000140: 24bb 2f3e 87ba babc 7556 3dbe ee37 383d
00000150: 9d27 a53d 113f aabd c0b3 8ebc cb37 c13d
00000160: 9475 e3bd 17fe e3bd c72d 9abd 1dd7 3abe
00000170: 1e4b 273e 6034 983d dbe6 d83d aa05 d43d
00000180: 291c b6bd ebbc 8dbd afd3 ecbd 2b50 c2bc
00000190: 47af 15bd f108 8fbc da5b 4abe c130 dc3d
000001a0: 8ac6 133e 85e3 e93d 41fa f13d f3f7 083e
000001b0: 399a f2bd e976 f73c 1f63 303e 6bce 09be
000001c0: 0855 a9bd 4b38 20bc b294 ecbd 5d5c 0fbd
000001d0: b783 23bd 862a 4f3e 456f 84bc 6b2b d63d
000001e0: caa3 083e 409c c83d 7002 2ebe 1f35 0c3e
000001f0: 56b6 363e 6fc6 1dbe e7a6 31bd 2b68 ee3d
00000200: 3f50 3ebe d0ae 4cbe 1e56 17be 72e5 933d
00000210: f203 0cbd f68c 19be ec58 793d 053f dd3d
00000220: 13c8 cc3d fd68 21be ff33 3f3e 6d8d 65bc
00000230: 63fb 34be 7501 e5bc af65 f83d 1e24 af3d
00000240: 8c0f 02bb e2d0 093e b745 2bbe a421 fc3d
00000250: d362 3d3e 9f05 efbd 6c98 5a3d 2259 86bb
00000260: 0025 59be 114f 1e3d 8396 9cbd c292 34be
00000270: 6430 1dbe c6bb 943b fa5d 213e 0725 4e3d
00000280: 2dfd 07be bd29 403e 9049 043d 3646 36be
00000290: 4aec a73c 0013 153e fe00 b3bd 6a49 1abc
000002a0: 5179 bdbd aeef 15be 0618 d8bd 47c2 983c
000002b0: 76d5 f53d 8756 0dbd 5761 44be ff45 ba38
000002c0: e39c 39be ca40 f4bc a0c6 0a3e db42 dd3d
000002d0: 36da 85bd 4916 8ebd 8370 c83d 5d7d c23c
000002e0: fe62 3cbe 4528 05be 1c4d eebc 1907 443d
000002f0: 3394 3b3e 593e 093e 6001 853d 5759 ebbd
00000300: 896f 1b3e 53c7 973d 6aa1 67bd 5af1 33bd
00000310: 78de 833d 7524 cebd 9061 9a3d 536c 113e
00000320: f5ee fabd b83a edbd affe 9dbd 1365 1bbe
00000330: ece3 253c 81b9 df3d 84ca 8e3d 25cf 8abd
00000340: 1e22 34bc 0826 43bd 73f0 34be fc79 14bb
00000350: 6ed6 f3bb 2f56 9bbd 3d13 febd a3a5 243d
00000360: 1f6c 0d3d ae52 6dbd a62e ab3c 66c3 303e
00000370: b3e5 3c3d 44e9 cdbd d146 333e 4931 053e
00000380: 6ca8 f23b f249 94bd d677 a0bd 50cf 253e
00000390: 99aa c63d 0a92 c3bd ccda f23b d802 1c3d
000003a0: b603 aa3d 7cc9 f6bc 451c 00be dcb6 06bd
000003b0: 855d 8bbd fd6e 51bd 670b 85bd 8271 ddbd
000003c0: 7378 c6bd 4af7 a73d 08c8 2abe 8ca5 3fbe
000003d0: 2fc8 1a3e 50b3 583d b3ac 073e 2c74 b13d
000003e0: d4b6 b6bd a2ed e9bd 4311 f6bd 66bf 81bc
000003f0: 1e4f 003d a252 15be 642d 28be 9211 d63d
0.034885813 -0.0667 0.05149502 -0.03944723 0.05203794 0.05215119 -0.025393799 -0.17994954
0.059240688 -0.18260235 0.0088553475 0.010369942 -0.0029333788 0.1567203 0.016518554 0.06697592
0.08379128 -0.080125846 -0.05627596 0.18396842 -0.18560977 -0.011632856 0.0035574776 0.13171546
-0.017653968 0.04889689 -0.008914058 -0.103979506 -0.1052503 -0.0998644 -0.18383352 -0.12171861
0.049175657 0.12181858 -0.007464697 -0.101220064 0.07552267 -0.04301785 -0.04363275 -0.106335215
-0.08278551 -0.1908889 0.067147456 0.06642944 0.03260328 0.12469983 0.10270844 0.029391598
0.03375481 0.033056654 0.083956435 0.14014389 0.13335629 0.10763005 -0.04527428 -0.008266717
-0.03773745 0.1080249 -0.008295591 0.15738168 0.09991492 -0.1811984 0.040507473 0.2019799
0.16233195 -0.027097408 0.09090105 -0.18977469 -0.060420707 0.10982388 -0.1537934 0.170066
-0.14160423 0.04693424 -0.015743187 0.055041052 0.03631305 -0.1724825 -0.05628492 -0.106968604
0.17161232 -0.022794021 -0.18490012 0.044975214 0.08064196 -0.0831281 -0.017419696 0.0943447
-0.111064106 -0.11132448 -0.075282626 -0.18246122 0.16337249 0.07431865 0.10590907 0.10352643
-0.0889209 -0.06920799 -0.11563813 -0.023719868 -0.03654411 -0.017460318 -0.19761601 0.107514866
0.14431205 0.11420349 0.1181531 0.13375835 -0.11845822 0.030208068 0.17225312 -0.13457648
-0.082681715 -0.009779046 -0.11551799 -0.035000194 -0.039920535 0.20231065 -0.016166339 0.104575
0.1334373 0.09795427 -0.16993117 0.13692139 0.17842993 -0.15407728 -0.04337206 0.11640962
-0.18585299 -0.1998856 -0.14778945 0.072214976 -0.03418345 -0.14995179 0.060875818 0.10803036
0.09999099 -0.15762706 0.18672179 -0.014010769 -0.17674021 -0.027954796 0.121287696 0.08551811
-0.0019845692 0.13458589 -0.16725813 0.12311104 0.1849473 -0.11670994 0.053368017 -0.004099981
-0.2120552 0.038649622 -0.07645895 -0.17634109 -0.15350491 0.004538986 0.15758505 0.05032828
-0.13280173 0.18765922 0.032296717 -0.17800221 0.020498414 0.14558029 -0.087404236 -0.009416917
-0.09251655 -0.14642212 -0.10551457 0.018647326 0.12003605 -0.034506347 -0.19177757 8.882209e-05
-0.18126254 -0.02981605 0.13552332 0.10803767 -0.06535761 -0.06937844 0.09787085 0.023741418
-0.18397138 -0.13003643 -0.029089503 0.04785833 0.18318252 0.1340269 0.06494403 -0.114916496
0.15179266 0.07411065 -0.05655042 -0.043931343 0.06438917 -0.100655474 0.0753814 0.14201479
-0.12252609 -0.11583465 -0.07714593 -0.15175276 0.010125142 0.10924054 0.069722205 -0.06777791
-0.010994462 -0.04764369 -0.17669849 -0.0022655716 -0.0074413335 -0.075847976 -0.12406013 0.040197026
0.03452694 -0.057940178 0.020896267 0.17262039 0.046117496 -0.100542575 0.17507483 0.13007082
0.0074053314 -0.072406664 -0.07835357 0.16192365 0.09700508 -0.09549339 0.0074113365 0.03808865
0.08301489 -0.030125372 -0.12510784 -0.032889232 -0.06804947 -0.051131237 -0.064963154 -0.108126655
-0.096909426 0.082014635 -0.16677868 -0.18715495 0.15115426 0.05290538 0.13249473 0.08664736
-0.089215904 -0.11422278 -0.12015011 -0.015838336 0.031325452 -0.14582303 -0.16423565 0.1045257

net.0.bias f4 [128]
00000000: 2922 afbd 73c0 a1bd 8468 993d 33e7 103d
00000010: a20a 7abc 22a0 9d3d de21 ac3d 1bb5 af3d
00000020: 0f6f 3a3e 75c1 273e d18d 993c 5a84 4f3e
00000030: d8a8 073e eb24 0b3e 7c3b c2bd 8dbd 95bc
00000040: 53de 853c dca5 ecbd dcf4 bfbc 6c33 f4bd
00000050: fa48 383b e666 6a3e ddb3 38be cd88 7abd
00000060: 57af 0abe d12e 5b3e 15af 2e3d 532b e43d
00000070: 85e3 de3d 010f 85bc 1d68 8e3d b6d9 cebd
00000080: c972 13be 2bb1 e23c a06c 5d3e 5ced 123e
00000090: 8686 883d 61b2 c1ba 67b5 2d3e 1fb5 863d
000000a0: 57d3 0d3e ade8 49bd ac2b 9a3d 890f 003e
000000b0: 0b64 5b3e 1dd6 283e 795f 1f3e d2bb 653e
000000c0: 6fcc abbd f7f8 8bbb 88e2 3a3e 1959 333d
000000d0: 296c 383e 1914 83bb 9ab5 2f3e ca34 513e
000000e0: 6973 8dbd 5569 10be af64 c13c d7d5 3d3e
000000f0: 7734 cbbd c0fd 20bd 7c99 0d3e fc87 243e
00000100: 0372 7dbd 67ba e83d 3760 573d 0208 583e
00000110: 2076 523e ae9b ac3d 3900 95bd a182 d03d
00000120: f9f4 0b3e 1255 8d3d c3f4 b23d de0b 2d3b
00000130: da49 0dbe 821b 8bbd 0c08 f6bd e454 103e
00000140: c553 4abe 55aa 9abd 57b9 5fbd 8983 4b3d
00000150: 334c 853d 0194 fbbd cf09 403b 77b8 543e
00000160: 399c 76bd 1027 d63d f194 eabd ff23 453d
00000170: 2df5 96bc 0c83 033e ecb5 2b3d e92b d7bd
00000180: 9c8b 03be 0e47 e6bc fb94 f13d 90c1 febd
00000190: d299 c33d 634b cbbd b94d 0f3e 80a7 483d
000001a0: f42a 213c 8322 3eba cf78 cfbd 4b01 09be
000001b0: bb85 263e 9db6 01be 73ae 303e 7dde c1bd
000001c0: 3bac 4bbd cc97 463e f831 32be d408 3f3d
000001d0: f554 363e 8ad4 15be 0fb0 aebd 1bd7 74bd
000001e0: 21f5 5cbd 4fb4 4bbd 4d40 12be d0d6 ad3c
000001f0: 3015 a1bd 1f01 2e3e 3508 223e e713 f83d
-0.085514374 -0.07898035 0.07490638 0.03537674 -0.015261324 0.076965585 0.08404897 0.08579465
0.18206428 0.16382392 0.018744381 0.20265332 0.13248003 0.13588302 -0.09484002 -0.018278861
0.016341364 -0.11555073 -0.023432188 -0.119238704 0.002811967 0.22890815 -0.18037362 -0.06116562
-0.1354345 0.21404578 0.04264744 0.11141076 0.1088324 -0.016242506 0.06953452 -0.10100119
-0.14399256 0.02767237 0.21623468 0.14348358 0.06666283 -0.0014777893 0.16963731 0.06577515
0.13850151 -0.049294163 0.07527861 0.12505926 0.21424882 0.16487928 0.15563764 0.22434929
-0.08388602 -0.0042716223 0.18250477 0.043786142 0.1801001 -0.0040001986 0.17159119 0.20430294
-0.06906778 -0.14102681 0.02360758 0.18538605 -0.09922116 -0.039304495 0.13828081 0.16067499
-0.06187631 0.113636784 0.052581992 0.21096805 0.20552874 0.08428131 -0.07275433 0.101811655
0.13667668 0.069009915 0.08738091 0.0026404778 -0.13797703 -0.06792356 -0.120132536 0.14094883
-0.19758518 -0.075520195 -0.054620113 0.04968599 0.065086745 -0.12284089 0.0029302721 0.20773493
-0.06020758 0.10456669 -0.114541896 0.04813003 -0.018427456 0.12842959 0.04192154 -0.10506422
-0.12846226 -0.028110053 0.11795994 -0.12439263 0.09550823 -0.09926488 0.13994493 0.048987865
0.009836901 -0.00072530675 -0.10130464 -0.133794 0.16261952 -0.12667318 0.17254047 -0.094662644
-0.0497248 0.19393843 -0.17401874 0.04663928 0.17805846 -0.14631858 -0.08529674 -0.059775453
-0.05394471 -0.049732503 -0.14282341 0.021220595 -0.07865369 0.16992615 0.15823443 0.12113171

net.2.weight f4 [64, 128]
00000000: 2b52 c7bd 3967 a3bd d8ae 513d e388 8f3d
00000010: ecba e83c 69ed 8ebd f906 6c3d 58e7 90bd
00000020: 6ebc c9bd b651 2e3d 5dc0 91bd b907 b3bd
00000030: c7e5 babd 857a 5ebd 5f64 1b3d 0623 42bc
00000040: ed95 183d 6beb 9c3d e4a1 983d a74c 8e3d
00000050: 6d53 253d d72d db3c a0d8 3d3d abf7 023d
00000060: 16dd c13c 7be7 b43c a12f 273d 05af c2bd
00000070: 801d 983d 4566 4d3d b024 4cbd db33 fd3c
00000080: fad9 3e3d b1f0 023c 8d5d 71bd 59e4 04bc
00000090: 664b 983d ad30 3abc 1141 23bd c7d5 ddbc
000000a0: 35b3 debc 4ee0 2d3d 2b98 27bd 969a 3e3d
000000b0: dea5 abbd f002 b6bd a596 4e3d af65 e6bc
000000c0: f8a5 2a3c 67c1 203d 1ac5 0f3d 606a 5f3d
000000d0: 5353 27bd c66a 873d 7049 6ebd a15a a5bc
000000e0: d8bd ac3d a042 733d 0b1d 73bd 604e 94bd
000000f0: c1e7 3f3d c180 c13c ec62 ad3c 9c14 733d
00000100: 33cf 763d 0b3e 91bd 67a2 6e3d 6423 94bd
00000110: 1b63 b3bc f148 433d 4e6a 8cbd 9ce5 84bb
00000120: e56e 72bd 849b 4fbd 653a 41bd dc1f 26bb
00000130: 9947 32bd 3246 bdbc 7007 9bbc 74de 12bc
00000140: d44d 863d bdf5 52bc dcc6 b63c 015c 683d
00000150: 5e5c 573d c96d 183c 03e5 b0bd 39c2 8e3b
00000160: 91a2 333d 5271 a3bc df39 98bd b6d9 383d
00000170: 4148 45bc 10bf b7bd 83da 59bd f786 a6bd
00000180: 70da 463d f563 33bd 78a7 24bd 4f24 47bd
00000190: 7316 72bd b444 a8bb ec9b 8c3c 0c4d 87bb
000001a0: 1045 9fbd d620 fc3c bb37 a2bd 8475 a6bc
000001b0: 08c9 6bbd 216d 453d 530b 4bbd 9317 253c
000001c0: 1054 00bd 675c a7bc 9a0e 963d 8aad b0bc
000001d0: 9974 93bd ca0f 343d 6034 4cbd 0dfa 63bd
000001e0: a1fb bcbd 532c c43c c9a9 3abc 2ea0 92bd
000001f0: aba2 89bd 0bcd 01bd 4bbd b33c dfa7 51bd
00000200: d659 98bd d85d dfbc c8b2 d33c 048d ba3d
00000210: d615 473d 45e7 ca3d 9635 fe3c 0ab1 68bd
00000220: 7aaa 013d 6e10 75bb a3fe 8e3d ad12 f0bb
00000230: 0d1a 813d 1b6c 20bd 4989 383d 0ccc 1a3d
00000240: a595 923d 5a9f 713d d18d 823d 3e0f 2d3d
00000250: 9235 43bc fac6 c63d 0d3f 89bd 36f5 64bd
00000260: 52ff ee3b c4cc 443d c626 8a3d 3e91 c23d
00000270: d32b c63c f7fb 653d 54a4 5c3c 6dc7 9a3d
00000280: cb8f 12bd e355 683d e94b a9bc 0b14 813c
00000290: fbe7 08bc 356f ca3c fc9e afbc 33db 6ebd
000002a0: 447f 383d 4a68 9a3c 893c 003d c741 e4bc
000002b0: 947a cb3d c612 c63d fd77 b2bb f76e 66bd
000002c0: 040a 363d d82f 84bd bd02 4d3d f544 20bd
000002d0: c938 18bd 76b0 7fbc 0539 843d 0924 6b3d
000002e0: 7770 363d b711 d73d 8dd7 e7ba 6e72 793d
000002f0: b1bb 933d d324 a33d 8b32 8fbd 4d02 0dbc
00000300: c634 a7bd e2b2 ffbb 562f 5b3d a3d6 96bc
00000310: 1782 cdbc 9335 1ebc 698a e53c 0db6 083c
00000320: 51f0 ca3c 151d 983d 52b8 5cbd de37 e5bc
00000330: 0ec8 7dbc 63a4 b0bc 1e7d 9f3d 1498 dfbc
00000340: 2ce0 b3bc dd6b 983d bdb8 813d 6e1e e6bb
00000350: 97f7 fb3b c5da 1a3d ae62 b03c 24ee b3bc
00000360: d556 f2bc c747 9a3d 438f 5fbd ddfe 13bd
00000370: ddc8 f03b 7617 a33d a124 31bd 694b 783b
00000380: 4609 8d3d dea8 373d affb 633d 8911 c3bc
00000390: a11a 5abc 11c1 9dbc 286c 19bc dc88 9a3c
000003a0: ee1f 6c3c f0fe d03c e0d7 7fbd 4f00 dabc
000003b0: b47c 813d 43eb 62bc 9ca2 063d 61d3 b93d
000003c0: 0c4c b23d 7092 19bd e411 1a3c ed37 883c
000003d0: dbbb e5bc ba92 f4bb 6b54 493b 4525 953d
000003e0: f70f 2e3d 0d5a d53d 18ba 333d db97 db3d
000003f0: 5333 983d 54a5 193d c88f 5f3d 8026 33bd
-0.09732469 -0.079786725 0.051192135 0.07008531 0.028409444 -0.06978876 0.057623837 -0.07075375
-0.09850393 0.042558394 -0.071167685 -0.08741707 -0.09125858 -0.054316062 0.03793752 -0.011849171
0.037252355 0.0766209 0.07452753 0.06948214 0.040362764 0.026755257 0.046349168 0.031974476
0.023664992 0.022083035 0.040816907 -0.095060386 0.07427502 0.05014636 -0.049839675 0.030908516
0.046594597 0.007991956 -0.058927108 -0.008111083 0.07436256 -0.011364144 -0.039856974 -0.027079476
-0.027185062 0.04245024 -0.040916603 0.046534143 -0.08381246 -0.08887279 0.050436635 -0.028124658
0.010415547 0.039246943 0.03510008 0.054544806 -0.04085095 0.06612162 -0.058175504 -0.020184817
0.08434647 0.05938971 -0.05935387 -0.07241511 0.046851877 0.023620965 0.021165334 0.059345827
0.060256194 -0.07091912 0.058260348 -0.07233313 -0.021897843 0.047676984 -0.068562135 -0.004055692
-0.05918779 -0.05068542 -0.04717483 -0.002534858 -0.043525312 -0.02310476 -0.018924445 -0.00896417
0.06557813 -0.012875971 0.02231162 0.056728367 0.052578323 0.009303519 -0.086374305 0.0043566492
0.043856207 -0.019951496 -0.07432913 0.0451295 -0.012041152 -0.08971989 -0.053186905 -0.08131211
0.048548162 -0.0437965 -0.040198773 -0.04861861 -0.05910344 -0.005135143 0.017164193 -0.0041290578
-0.077768445 0.030777376 -0.07920786 -0.020319708 -0.057564765 0.048199777 -0.049571346 0.010076421
-0.03133017 -0.020429803 0.07327004 -0.021567125 -0.071999736 0.04396037 -0.049854636 -0.05565839
-0.09227682 0.023946917 -0.011393019 -0.07159458 -0.067204796 -0.031689685 0.021940848 -0.051185485
-0.0743901 -0.027266428 0.025842085 0.09108928 0.04860481 0.099073924 0.031031411 -0.056809463
0.03165672 -0.0037393826 0.06982162 -0.007326445 0.06303797 -0.039165597 0.0450528 0.03779225
0.07157449 0.05898986 0.063747056 0.042250864 -0.011914628 0.097059205 -0.06701479 -0.055897914
0.00729362 0.048046842 0.06745677 0.09500359 0.024190819 0.056148496 0.013466913 0.07557569
-0.035781663 0.056722533 -0.02066608 0.015756628 -0.00835609 0.02471123 -0.021438114 -0.058314513
0.045043245 0.018848557 0.03130773 -0.027863396 0.09935489 0.096715495 -0.0054464326 -0.056258168
0.044443145 -0.06454438 0.05005144 -0.039128263 -0.03716353 -0.015606036 0.06456188 0.057407413
0.04454085 0.10501426 -0.001768814 0.060900144 0.07213534 0.07966008 -0.06992062 -0.008606506
-0.081643626 -0.007803307 0.05351194 -0.018412894 -0.025086446 -0.009656328 0.0280201 0.008344186
0.024772795 0.07427422 -0.05388672 -0.027980741 -0.015489591 -0.02156276 0.07787536 -0.027294196
-0.02195748 0.07442448 0.06334064 -0.0070226705 0.007689427 0.03780629 0.02153143 -0.02196414
-0.02958242 0.07533222 -0.054579984 -0.03613173 0.0073481635 0.07963459 -0.043247823 0.0037886745
0.068865344 0.04483878 0.055659946 -0.023812072 -0.013312013 -0.0192571 -0.009364165 0.018864088
0.0144119095 0.025512189 -0.062461734 -0.026611475 0.06322613 -0.013850036 0.03286992 0.090735205
0.08705911 -0.03749317 0.0094036795 0.01662823 -0.028043678 -0.00746378 0.0030720483 0.07282499
0.042495694 0.104175664 0.043878645 0.107223235 0.07431664 0.037511185 0.05458048 -0.04373789

net.2.bias f4 [64]
00000000: e8bf 62bd 589e ed3d 4ced 193b cf1b 913d
00000010: 1774 35bd 1aee 72bd 3419 92bd e69d fe3c
00000020: 8654 fb3c ac34 e83c 592e 8ebd 5155 e73d
00000030: 6e15 16bd 5e6a 6fbd 29ee 603b 4044 1d3d
00000040: 91b6 443d b74b aebd 8da3 2cbd 5f63 1dbd
00000050: 906c a0bd dc91 c3bc 3300 f63d f30f 8b3d
00000060: 1292 7b3d 4506 8bbd 6fda 793d a8af 8c3c
00000070: 7798 c7bd 5210 773d 175f c83d ba2f 3ebd
00000080: bb59 2ebd d412 893d 6fe7 5bbd b3c7 c33c
00000090: fc28 873d 5dbd 483d 652f 21bd 49e4 ce3c
000000a0: a546 26ba 9c46 c5bd 59f5 cabc dbd2 86bb
000000b0: 8879 a93c df65 893d 23b2 373d f538 13bc
000000c0: 5973 2c3d 854d 44bd b15d 2f3c cd72 3b39
000000d0: 4490 743d f9ec ea3d 7194 b3bd df84 203c
000000e0: 564a 79bd 1a86 8c3d 86fc ccbd 0a53 24bd
000000f0: 54f7 d53d 6a16 933d d2a1 34bc 291a 51bd
-0.055358797 0.11602467 0.0023487387 0.07085382 -0.044300165 -0.059309103 -0.07133713 0.031081151
0.030679952 0.028345428 -0.06942434 0.1129557 -0.03664153 -0.05845105 0.0034321642 0.038395166
0.04802567 -0.08510535 -0.04214816 -0.038424846 -0.07833207 -0.023873262 0.12011757 0.067901514
0.0614186 -0.06788305 0.06099933 0.017173603 -0.09745877 0.0603183 0.09783762 -0.046432234
-0.042566042 0.06693044 -0.05368751 0.023898935 0.06599614 0.049008716 -0.03935184 0.02525534
-0.00063429243 -0.09632608 -0.024775194 -0.0041144914 0.020687833 0.067088835 0.04484762 -0.008985748
0.04210219 -0.04792549 0.01070349 0.00017876476 0.059707895 0.1147098 -0.08768547 0.009797304
-0.060861908 0.06861515 -0.100091025 -0.040118255 0.10447565 0.071820095 -0.011024909 -0.05105034

head.weight f4 [1, 64]
00000000: 3016 cd3c f6a8 c43d e429 5d3d f0ab 1d3e
00000010: 7128 b53d a78d 07bc 93fd cdbd 9192 f4bc
00000020: 83e1 073e 90e2 75bc d44f c4bd 3e1d dc3d
00000030: 83f4 53ba 6fdb 36bd c892 90bc 1c63 2c3d
00000040: 4f84 8e3d 18c6 b7bd bfc6 b13d a23a e13b
00000050: 2fa2 66bd f28a 4ebd 55fb a33c 1fef eb3d
00000060: 54cd 8e3d af21 8ebd c593 a4bd 396d 7e3d
00000070: 7d0c 4fbd 29ab acbd 1891 d13c ed87 1c3d
00000080: 89b0 bb3d 10fe 0e3b d926 dfbd 4880 b33d
00000090: b2b0 5bbd 9857 a2bd bece c33d d6d3 66bc
000000a0: d065 933d 7673 74bd 9f61 0fbe 7366 553a
000000b0: 4ca5 19bd 87e3 8dbb 9bc4 20bb dd5e c83d
000000c0: bc79 b53d 0ede 0a3d 3873 88bc 59e7 413c
000000d0: 417a 943d 2907 f73d 5ada c9bd 805e 8c3d
000000e0: 21e9 3dbd 5385 aabd 6f5f c0bd 14d2 af3d
000000f0: 172c e43d 33bc e93d fc7f d7bd fbec d83d
0.025034994 0.09602539 0.05399503 0.1539762 0.08845604 -0.008273519 -0.10058131 -0.029855045
0.1326962 -0.01500763 -0.095855385 0.10747765 -0.00080854463 -0.044642862 -0.017648116 0.042086706
0.069588296 -0.0897333 0.08680486 0.0068734447 -0.056307014 -0.050425477 0.020017305 0.11520218
0.06972757 -0.069400184 -0.08035997 0.06211588 -0.05054902 -0.08431084 0.025581881 0.038215566
0.09164531 0.0021818914 -0.108960815 0.08764702 -0.053635307 -0.079268634 0.09560917 -0.014088592
0.071971536 -0.059680425 -0.14002083 0.00081405713 -0.037511155 -0.004330102 -0.0024531248 0.09783719
0.088611096 0.033903174 -0.016656503 0.011834943 0.072498806 0.120619126 -0.098561004 0.06853962
-0.046364907 -0.08326211 -0.093932025 0.08584991 0.11141222 0.11412849 -0.10522458 0.105920754

input_proj.weight f4 [64, 29]
00000000: cd4c b93d ef03 c0bb 0d9e 1cbe 43a2 f83d
00000010: faa5 dd3d dfbd e73b c7db bdbd 2c3e abbc
00000020: 27a2 13be 1469 33be 9a24 0ebe 6bb0 aabd
00000030: 7011 1abe a84c babd fd98 163e c166 283e
00000040: 611c 893d f030 343e 2d31 28bd 9db8 f73d
00000050: 7512 2abe 2560 113e 1dcb 4e3d d51a 61bd
00000060: 90eb 333e 61f4 35be af31 c8ba cd71 dc3d
00000070: dea3 d13d 469b 083e 4f1a 7d3d ad66 2fbd
00000080: 1b04 22bd a47c e7bd 8108 7f3d fb3f fa3d
00000090: 18ae 1d3e 9a50 8f3d e044 adba a5c7 1c3e
000000a0: 4ed7 a03d 127c 073e 3af5 aa3c 1bcc efbc
000000b0: c4f1 99bd cb22 e53d 133f dfbd 742e 12be
000000c0: 4c39 2a3e 32c7 3ebd c340 1bbe a8e6 4c3d
000000d0: 1b29 6bbd 77ad b83d d4a5 153e 1cc9 053e
000000e0: 831d 7fbc 6dd8 03be a11e d2bd ff24 0cbe
000000f0: 3c93 15bd ea51 4bbe 7c52 973d 8afa 303e
00000100: fa0c 9f3d f802 1ebe b86b 96bd a161 9ebd
00000110: 6ff9 093e a10a 16be 4830 47bc 1778 babd
00000120: 2ecf 5c3d e718 0fbe 0fef 20be 78ee af3d
00000130: ee3a 2c3e 9347 05be f0d7 0dbe 44a9 2bbe
00000140: 3673 b2bd a880 033e f9ae 813d c3c2 a0bd
00000150: 4003 1abe e367 c3bd 015e 2a3e 4ae4 543d
00000160: 2efc 123d 5f58 b7bd a4ac 0bbe 93fd 1f3b
00000170: 1a3d 183d 84e6 aebd 803c 0a3e 07f9 32be
00000180: 94c5 8f3d c8f3 5d3d 7295 94bd 6979 2b3e
00000190: 804b 06bc 905a 23be 9686 9dbd 6146 e9bc
000001a0: 2fce 343e 16dd 9a3c e009 3d3e 5594 96bd
000001b0: 1ed5 2b3e fda7 e9ba 51ae e2bd c1be a4bb
000001c0: 0399 bd3d ad9a 033e 3eb1 13bc 5530 19be
000001d0: 38ae a33d ca54 3c3d d7e2 0d3e 6210 043e
000001e0: ad17 40be 3dfa 7fbd 3ac3 393c 54f3 3cbe
000001f0: 14b7 e1bc 3d6d 23be b66e 5c3d cec0 243e
00000200: 4d91 0c3e 7243 4b3d dead 2b3e ee48 0ebe
00000210: cc2b fabc 13fe c13c ba54 e0bd 04b3 a2bb
00000220: 7189 3abc 403b 003d 932d 61bc 2eda e1bd
00000230: 5d48 0cbb f9c8 cfbd e980 073c 8752 c5bd
00000240: c764 ef3d 85c9 2cbd 78e9 033e f125 a1bc
00000250: 7a3e 84bc 6774 2e3e 8262 b53d 4ad8 363e
00000260: 31b3 dd3d d581 373d f0ed 103e bda5 2d3e
00000270: d98b d7bc cf7d 2abe 14ac d83c 5239 9d3d
00000280: f3bc 363d 7741 583b ec45 0b3e 518e e53d
00000290: 0353 c33c 32a2 263b 4b16 d13d d5ea 45be
000002a0: 2d11 09be d5dd 333e c7e1 9b3d 1d2c 833d
000002b0: 810a 173c 67bc 07bd b34f 483d dea1 1e3e
000002c0: ed07 64bd 4097 793d e856 04be 65b5 e5bd
000002d0: 3132 2dbd 9b28 fb3c 6438 f5bd 0574 083e
000002e0: d70e 153e 35ad 023e f013 3a3c fd7b e2bc
000002f0: 6e53 803d e802 adbd ee76 483d 9879 37be
00000300: 6d6a ec3a dca6 f2bc f56d 17be cdd0 fbbd
00000310: 764d 343e ea5a 5f3d 887c f13d 12fd cebd
00000320: 1723 243e bbc4 d8bd 667b 39be 16ac bdbd
00000330: 8ac7 c73d d51f e73d 804b 2b3e 1a9c b93d
00000340: da54 b2bd df6c f13c 3807 e23d a634 ec3d
00000350: 2631 403e 45c1 c1bd a248 a93d 235e a53d
00000360: 04dc c93d 9688 b1bd 612f 393d 5d20 803c
00000370: 8a4a 303e 0555 9ebd a351 29be 2c92 9b3c
00000380: 379e a83d 2a11 123c de90 243e 26b8 1c3d
00000390: 4519 02bd 46ec 71bd 27a4 3f3d 6794 2cbe
000003a0: cb47 61bc 83f6 04be 6233 373d 1036 953d
000003b0: 8cde a33d af2a c1bd 9e18 10be 66ea 8ebd
000003c0: 5c9a 2f3e c043 1a3e 35c9 9f3d 84a6 333e
000003d0: b96e be3d 4c3d b33c ce57 66bd c0a5 053d
000003e0: c18b af3a 4e50 913c 35db c9bc 6fe1 aebd
000003f0: 5bf5 40bc 0fcc 0dbe 8ae8 f23d cfc5 203e
0.09047852 -0.005859844 -0.15294667 0.12140324 0.10822673 0.007072195 -0.09270435 -0.02090367
-0.14417325 -0.17520553 -0.1388115 -0.0833443 -0.15045714 -0.09096652 0.14706798 0.16445448
0.06694866 0.17596793 -0.041062523 0.12095759 -0.16608603 0.14196832 0.050486673 -0.05495723
0.17570329 -0.17769004 -0.0015273596 0.10763893 0.10236333 0.13340482 0.061792668 -0.04282253
-0.039554697 -0.1130307 0.06226397 0.122192346 0.15398443 0.069977954 -0.0013219379 0.15310533
0.07853566 0.13230923 0.020868886 -0.02927213 -0.07516816 0.11188277 -0.10900702 -0.14275533
0.1662342 -0.046576686 -0.15161423 0.05002466 -0.057412248 0.09017461 0.1461404 0.13064998
-0.015571001 -0.12875529 -0.10259748 -0.13685988 -0.036517367 -0.19855466 0.073887795 0.17283073
0.07766147 -0.1543082 -0.073447645 -0.07733465 0.13474058 -0.14652492 -0.012157507 -0.091049366
0.05390852 -0.13974343 -0.15716194 0.08590406 0.16819355 -0.13015585 -0.13851905 -0.16763788
-0.08713381 0.12842047 0.063322015 -0.07849648 -0.15040302 -0.09541299 0.16637422 0.051975526
0.03588503 -0.08952402 -0.13640076 0.0024412617 0.037167646 -0.08540061 0.13499641 -0.17477809
0.07020107 0.054187566 -0.07255067 0.16745533 -0.008196712 -0.15952516 -0.07691686 -0.028475942
0.17656778 0.01890425 0.18460798 -0.07352511 0.16780517 -0.0017826554 -0.110684045 -0.0050276225
0.092577 0.12851973 -0.009014426 -0.14959843 0.07992214 0.0459793 0.13856064 0.12896875
-0.18759032 -0.062494505 0.01133805 -0.18452197 -0.027553119 -0.1595964 0.05381652 0.16089174
0.13727303 0.049624868 0.16765544 -0.13895008 -0.030538462 0.023680722 -0.1095366 -0.004965188
-0.011385308 0.031306505 -0.013743776 -0.110279426 -0.0021405437 -0.10145754 0.008270481 -0.096348815
0.11689144 -0.04218437 0.1288203 -0.019671412 -0.016143072 0.17036591 0.088566795 0.17855945
0.10825194 0.04480155 0.14153266 0.16957755 -0.026311802 -0.16649555 0.02644924 0.076769486
0.04461379 0.0032998004 0.13600892 0.11208785 0.023843294 0.0025426266 0.1020933 -0.19327863
-0.13385458 0.17565091 0.07611423 0.06404898 0.009218813 -0.03313866 0.048904132 0.15491435
-0.05567162 0.06093526 -0.12923777 -0.11216239 -0.042284194 0.03065901 -0.11973646 0.13325508
0.14556442 0.12761386 0.0113572925 -0.027647013 0.06265913 -0.0844782 0.048941545 -0.17917478
0.0018037088 -0.02962058 -0.14788039 -0.12295685 0.17607674 0.05453006 0.117913306 -0.10106863
0.1602901 -0.10584398 -0.18113479 -0.092613384 0.09754856 0.11285368 0.1672802 0.09062977
-0.087075904 0.02947086 0.11036533 0.115334794 0.18768749 -0.09460691 0.08265807 0.08074596
0.09856418 -0.0866863 0.0452112 0.015640432 0.17215934 -0.0773106 -0.16535048 0.018990599
0.08233302 0.008915225 0.16070887 0.038261555 -0.03176238 -0.05906322 0.046787407 -0.16853486
-0.013750027 -0.12984662 0.044726737 0.07285702 0.08001432 -0.094319694 -0.1407189 -0.06978302
0.17148727 0.15064907 0.07802049 0.1754399 0.092984624 0.021879815 -0.05623608 0.032628775
0.001339309 0.017738488 -0.024640659 -0.08539092 -0.011777247 -0.13847373 0.118607596 0.15700458

input_proj.bias f4 [64]
00000000: aeda 233e 89f7 0b3e 2c1d 183e fafd b43d
00000010: a9c9 273d 18bd 82bd 2d26 f5bd fc33 133e
00000020: e489 e03d 0c76 0a3d ba52 4cbe 865b adbd
00000030: 31cc ba3d 055c ec3d b9cc 693d 2abe 243e
00000040: 0a83 aabd 0bd6 d13d 3f16 eebd 6fb4 12be
00000050: 41f0 2abe 5887 81bd 8ed1 443d 5af7 583e
00000060: f508 7ebd 671c 0abe b0c8 4abe 3cf7 3c3e
00000070: e739 53be ff89 58be 2eaf 243d ab33 833c
00000080: cb1b bf3b 4746 163e dfba 8f3d 7b19 103e
00000090: ca24 ed3d e747 90bd 819d 433e 9d03 07bd
000000a0: eb3d 0c3e 48f9 5abe bd08 3fbe f246 ae3d
000000b0: c2e2 3abe c084 083d 9e82 e63d 39ac e93d
000000c0: bb32 843b 6964 0f3e 14cf 2a3d 9d07 d7bd
000000d0: bd45 4a3e dc24 013e 1ef2 03bc a6b3 c63c
000000e0: 9a71 89bd fbc6 36be 3210 8dbd fc13 5c3d
000000f0: fde3 9a3c 7674 263e 6dc1 52be 46e9 87bd
0.16001388 0.13668646 0.14854878 0.08837505 0.040963802 -0.06383723 -0.11970172 0.14375299
0.109638005 0.033803985 -0.19953433 -0.08464722 0.09120978 0.11540989 0.057080004 0.16088167
-0.08325775 0.102459036 -0.11625337 -0.14326642 -0.16693212 -0.06324643 0.04805141 0.21188107
-0.06202026 -0.13487397 -0.19803119 0.18453687 -0.20627557 -0.21146391 0.040206127 0.016015848
0.0058321706 0.14675246 0.07018065 0.1407222 0.115792826 -0.07044964 0.19103052 -0.03296243
0.13695495 -0.21384156 -0.18655677 0.085096255 -0.18250564 0.033329725 0.11255382 0.11409802
0.004034368 0.14003147 0.04170139 -0.10499499 0.19753166 0.12611717 -0.008053331 0.024255585
-0.06711121 -0.17849343 -0.06887855 0.053729996 0.018907541 0.16255364 -0.20581599 -0.0663629
