artifacts/model_exp-06_do-0.05_20251104T051226Z.pt (torch, 52221 bytes, 5 tensors)

net.0.weight f4 [128, 29]
0	0x3e2084ea	0.15675703
1	0x3e16b8a7	0.14718877
2	0xbd5db034	-0.05412312
3	0x3e152178	0.14563549
4	0xbd96b5dd	-0.073589064
5	0x3d881cc7	0.06646114
6	0xbdcd6a02	-0.10029985
7	0x3e1ab93f	0.15109728
8	0x3e4b5542	0.19856742
9	0xbdff769c	-0.12473795
10	0x3e35b819	0.17746009
11	0x3d8469dd	0.06465504
12	0x3e2ab898	0.1667198
13	0x3c09f07e	0.008419154
14	0x3d709b0d	0.058741618
15	0xbd39b9a0	-0.04534304
16	0x3e41bf91	0.18920733
17	0x3d694033	0.05694599
18	0xbd846f33	-0.06466522
19	0x3daa81ec	0.08325562
20	0xbd456f0f	-0.048201617
21	0xbcbc7468	-0.023004726
22	0xbd4f1956	-0.05056127
23	0x3dfc485d	0.1231849
24	0xbe1619b0	-0.14658237
25	0xbdaf52f8	-0.08560747
26	0xbd56c6ca	-0.052435674
27	0xbde4aa96	-0.11165349
28	0x3c8f93bf	0.017526506
29	0xbe4e0c06	-0.20121774
30	0x3e287641	0.1645136
31	0xbe341922	-0.17587712
32	0x3ddd2345	0.10797743
33	0x3bd2df53	0.0064353137
34	0xbb8b5b10	-0.004252799
35	0x3dfe70e4	0.12423876
36	0x3d68e740	0.056861162
37	0x3e3d72b8	0.18500793
38	0x3cdbb2d4	0.02681867
39	0xbd39e187	-0.045381095
40	0x3d4c9b16	0.04995259
41	0xbcf11331	-0.029428096
42	0x3d86fc79	0.06591124
43	0x3e206b0e	0.15665838
44	0x3e00c294	0.12574226
45	0xbdd4f18c	-0.10397634
46	0x3dea5acb	0.11443099
47	0x3d0d2713	0.034461092
48	0x3dcf944d	0.10135708
49	0xbde96cb0	-0.113976836
50	0xbe17e220	-0.14832354
51	0xbd81dd0b	-0.06340989
52	0xbe11d9d8	-0.14243257
53	0x3e1c06f2	0.15237024
54	0x3d5b1437	0.053486075
55	0x3d9d86ef	0.07691752
56	0x3d708d02	0.058728226
57	0xbb53b44c	-0.003230351
58	0x3e14cc00	0.14530945
59	0xbe00acdf	-0.12565945
60	0xbd0874ec	-0.03331463
61	0xbe1d3e8e	-0.15355894
62	0x3d3d66e8	0.046240717
63	0xbd8c7149	-0.06857545
64	0x3d572d85	0.052533645
65	0xbd8495ae	-0.06473862
66	0x3e15475a	0.14578
67	0xbdf7da07	-0.12102132
68	0xbdd26faa	-0.102752045
69	0xbdc52df4	-0.096279055
70	0x3e370ddd	0.17876382
71	0x3d44894d	0.047982503
72	0x3e450986	0.19241914
73	0xbe1a0dfd	-0.15044399
74	0xbe498f43	-0.19683556
75	0xbdea288f	-0.11433517
76	0xbdd96b34	-0.106161505
77	0x3daa8ac0	0.08327246
78	0x3d605256	0.05476602
79	0x3e1800d2	0.14844063
80	0xbdc34392	-0.095343724
81	0xbe01a0fe	-0.1265907
82	0x3dc9c7f0	0.09852588
83	0xbd99b879	-0.075058885
84	0x3de6d0ca	0.11270292
85	0xbd347e27	-0.04406562
86	0x3dd98d27	0.10622626
87	0xbe4c53a8	-0.19953787
88	0xbd96364f	-0.07334577
89	0x3d55c1aa	0.052186646
90	0x3caadfe5	0.020858714
91	0xbd3d1bea	-0.0461692
92	0x3da2e490	0.07953751
93	0x3db6a48e	0.08918105
94	0xbdf3c569	-0.119028874
95	0xbe11b9cb	-0.1423103
96	0x3e420336	0.18946537
97	0xbd837c23	-0.064201616
98	0xbd697318	-0.056994528
99	0xbe094398	-0.13404691
100	0xbdf149c4	-0.11781648
101	0x3d4bbc44	0.04974009
102	0x3af06ef0	0.0018343609
103	0xbe1434c4	-0.14473253
104	0x3cbeffe4	0.023315378
105	0xbdd78b13	-0.10524573
106	0xbe193647	-0.14962111
107	0xbddc531a	-0.10758038
108	0xbe518bc5	-0.20463474
109	0xbdf642a2	-0.12024428
110	0x3e3e13e1	0.1856227
111	0x3d0fa8ea	0.0350732
112	0x3d6a6386	0.05722382
113	0xbe315a10	-0.17319512
114	0xbdf9c614	-0.121959835
115	0xbd7d2c3f	-0.061809774
116	0xbbbcb0b7	-0.0057583707
117	0xbe0ca189	-0.13733496
118	0xbddf41ba	-0.10901208
119	0xbe18fb8e	-0.1493971
120	0xbc96eda9	-0.018423872
121	0xbd418234	-0.047243312
122	0x3c20adbe	0.009807048
123	0xbe3f4f54	-0.18682605
124	0xbe224dd3	-0.1585
125	0xbe0c8097	-0.13720928
126	0xbde747f9	-0.112930246
127	0xbe1cd4db	-0.15315573
128	0x3e24ec3e	0.16105744
129	0xbd1d43ce	-0.03839474
130	0x3e22e062	0.15905908
131	0x3d9a4692	0.075329915
132	0xbe2d52d0	-0.16926122
133	0x3e1acbb3	0.15116768
134	0xbcff349a	-0.031153012
135	0xbd8d8107	-0.06909376
136	0xbe287907	-0.16452418
137	0xbe243be2	-0.16038468
138	0x3d07c653	0.03314812
139	0xbd262672	-0.040564008
140	0x3d940fa8	0.07229549
141	0xbe1c0d02	-0.15239337
142	0x3e0d2ca6	0.13786563
143	0xbe0b94f1	-0.13631035
144	0xbd035635	-0.032064635
145	0x3cbc78bb	0.023006788
146	0x3db2a4ab	0.08722814
147	0x3e066397	0.13123928
148	0x3e10fed6	0.14159712
149	0xbe2dfee0	-0.16991758
150	0x3d7407df	0.05957782
151	0xbd779da3	-0.06045307
152	0xbc9bd96d	-0.019024575
153	0xbdfebb03	-0.124380134
154	0x3e1b75a9	0.15181603
155	0xbdebbeeb	-0.11511024
156	0x3dac6d56	0.08419292
157	0x3d8b24fe	0.06794165
158	0x3d858152	0.065188065
159	0xbd9dae05	-0.07699207
160	0x3e19b4c0	0.15010357
161	0x3c9a42b1	0.018830629
162	0x3b219539	0.0024655594
163	0xbe1d8765	-0.1538368
164	0x3d538a0b	0.05164532
165	0xbd5f805f	-0.054565784
166	0xbd8a37a1	-0.067488916
167	0x3e0e4d58	0.13896692
168	0x3d2993a0	0.04140055
169	0xbdd269cb	-0.10274085
170	0xbdc07c97	-0.093987636
171	0xbc114b26	-0.008868014
172	0x3dd458d9	0.10368509
173	0xbd425c70	-0.047451437
174	0xbdf684e1	-0.120370634
175	0xbd9ba94a	-0.07600649
176	0xbe1a285f	-0.15054463
177	0x3d48bdaf	0.04900902
178	0x3e07890e	0.13235876
179	0xbe274941	-0.16336538
180	0x3d450519	0.048100565
181	0x3dc60c94	0.09670368
182	0x3d4c060f	0.049810465
183	0xbdb14988	-0.08656603
184	0x3de4bac4	0.11168435
185	0x3dc06b1a	0.09395428
186	0x3da33dca	0.0797077
187	0xbd32e2d0	-0.043673337
188	0xbd8e0eca	-0.069364145
189	0x3d421ba0	0.047389627
190	0x3cf4e98b	0.029896518
191	0xbd1eb075	-0.0387425
192	0x3e037d26	0.12840709
193	0x3e2f4e70	0.17119765
194	0x3cab576c	0.02091571
195	0xbd036489	-0.0320783
196	0x3c8c1086	0.017097723
197	0xbc35a885	-0.0110875415
198	0x3d36dbd8	0.044643253
199	0x3d5525e1	0.052038077
200	0xbe2cb4f5	-0.16865905
201	0xbd8c58b7	-0.068528585
202	0x3e2021f4	0.15637952
203	0x3d8fcd47	0.070215754
204	0xbcb64e86	-0.02225424
205	0xbe11358d	-0.14180584
206	0xbe09be05	-0.13451393
207	0xbe3cf455	-0.1845258
208	0xbd083686	-0.033255123
209	0x3d71781c	0.058952436
210	0x3df9fcbd	0.12206409
211	0x3da59486	0.08084969
212	0xbe31e578	-0.17372692
213	0xbe1c8e32	-0.15288618
214	0xbbd1982f	-0.0063963155
215	0x3e444f04	0.19170767
216	0xbc2cead4	-0.010554034
217	0xbd8647d4	-0.06556669
218	0x3daf723d	0.08566711
219	0xbd8ab5fa	-0.067729905
220	0xbdc3877f	-0.09547328
221	0x3e0be937	0.13663183
222	0xbd8a8e85	-0.06765465
223	0xbcf7dfbd	-0.030258054
224	0xbe3c73c8	-0.18403542
225	0x3df34d03	0.11879923
226	0x3e1010d6	0.14068922
227	0x3d8a99e3	0.06767633
228	0xbe04968e	-0.12948057
229	0xbe3bab2b	-0.18327014
230	0xbe1a6ffe	-0.15081784
231	0x3e0dcbe1	0.13847305
232	0x3da92a31	0.082600005
233	0x3e152e29	0.1456839
234	0x3de18f02	0.11013605
235	0x3d20dd30	0.03927344
236	0xbbc828ab	-0.0061083636
237	0xbdfe044f	-0.124031655
238	0xbe1245f3	-0.14284496
239	0xbe1befdc	-0.15228218
240	0x3d84425f	0.06457972
241	0xbda07d9c	-0.07836458
242	0xbca69727	-0.020335747
243	0xbdb10c24	-0.08644894
244	0xbcace3e5	-0.021104762
245	0xbde4938d	-0.111609556
246	0xbdd5e35f	-0.10443758
247	0x3d30a8bc	0.043129668
248	0xbd99ce2c	-0.07510027
249	0x3dd0eca6	0.10201387
250	0xbd228760	-0.039679885
251	0xbe1b048c	-0.15138453
252	0xbd58f7ee	-0.05297082
253	0xbd95ee45	-0.07320837
254	0xbd7715eb	-0.060323637
255	0xbe35061e	-0.17678115

net.0.bias f4 [128]
0	0xbd3be547	-0.045872953
1	0x3d93288a	0.071854666
2	0x3e36ac6a	0.17839208
3	0x3bdd6ded	0.006757489
4	0x3d96f878	0.073716104
5	0xbc2532a2	-0.010082873
6	0x3d27db4f	0.040980633
7	0x3e24fff4	0.16113263
8	0x3d9c7f9d	0.07641528
9	0xbdf865fb	-0.12128826
10	0x3e672067	0.22570954
11	0x3de2b518	0.11069697
12	0xbc52c9f6	-0.012865534
13	0x3e52eacb	0.20597379
14	0x3d2316d8	0.039816707
15	0x3e2e02b3	0.16993217
16	0xbde4e775	-0.111769594
17	0x3e5b3851	0.21408202
18	0x3e59a5c7	0.21254645
19	0xbdf0daee	-0.117605075
20	0xbe0dec14	-0.13859588
21	0xbcdd9684	-0.02704931
22	0xbd49177c	-0.049094662
23	0x3d45f246	0.048326753
24	0x3df44463	0.11927106
25	0xbc90ee03	-0.017691618
26	0x3e00944f	0.12556575
27	0x3d35bb47	0.044368055
28	0xbca69f24	-0.020339556
29	0xbdec73ba	-0.115455106
30	0x3de57ae9	0.11205084
31	0xbe48976b	-0.19589011
32	0x3c5b6030	0.013389632
33	0x3d9c6fd7	0.07638519
34	0xbd82e0be	-0.063905224
35	0x3dc70207	0.097171836
36	0x3d9a025e	0.07519983
37	0x3e249f9c	0.16076511
38	0x3e2df347	0.16987334
39	0xbe1a8fcb	-0.15093915
40	0xbe0e668c	-0.13906306
41	0xbd330522	-0.043706067
42	0xbdcf715e	-0.10129045
43	0x3dd03a24	0.101673394
44	0xbdb7885b	-0.089615546
45	0xbdec862a	-0.11549027
46	0x3dcc3ad4	0.09972158
47	0x3e012268	0.12610781
48	0xbd77185d	-0.06032597
49	0xbe423ac6	-0.18967733
50	0x3d8b062e	0.06788288
51	0x3e106d7b	0.14104263
52	0x3e473fc8	0.19457924
53	0x3d013df3	0.03155322
54	0x3e3242c0	0.17408276
55	0xbe122b76	-0.14274392
56	0x3e642cee	0.22282764
57	0xbe0d71cb	-0.1381294
58	0xbdbb1e19	-0.091366
59	0x3e0a96b7	0.13534056
60	0xbc1df627	-0.009641207
61	0x3e110a76	0.14164147
62	0xbdbf0aa2	-0.093282
63	0x3e347080	0.1762104
64	0x3e59ab81	0.2125683
65	0x3dc16149	0.09442384
66	0x3e48e403	0.1961823
67	0xbdd0caae	-0.10194908
68	0xbc84f071	-0.016227933
69	0x3dc905a0	0.09815526
70	0x3e407e88	0.18798268
71	0xbd6c07ee	-0.05762475
72	0x3e289c5d	0.16465898
73	0xbcf6c2d8	-0.030122206
74	0xbd74ecd3	-0.059796166
75	0x3d48cf77	0.04902598
76	0xbe0ef03b	-0.13958828
77	0xbe19acc2	-0.15007308
78	0x3dd54b86	0.104147956
79	0x3d7e6d43	0.06211592
80	0x3dd31864	0.103073865
81	0x3c87e0af	0.01658663
82	0xbddba662	-0.107250944
83	0xbddf1150	-0.10891974
84	0x3e67ebb0	0.22648501
85	0xbdfaf8e0	-0.122545004
86	0x3daed82a	0.08537324
87	0x3e385467	0.18000947
88	0x3e44f4a4	0.19233948
89	0xbd099fe5	-0.033599753
90	0xbc4d1009	-0.01251603
91	0xbe3382f6	-0.17530426
92	0x3e39e026	0.18151912
93	0xbe39afc7	-0.1813346
94	0xbe1629a4	-0.14664322
95	0xbdb8dfa6	-0.090270326
96	0x3e59f772	0.21285799
97	0x3e1b8192	0.15186146
98	0x3ddd7a1f	0.108143084
99	0x3ddfe841	0.10932971
100	0xbd10661f	-0.03525364
101	0xbd879820	-0.066208124
102	0xbd8fdf59	-0.07025022
103	0x3d5c2196	0.053742968
104	0x3d0fcaea	0.035105623
105	0x3d6f07e8	0.05835715
106	0xbde1d3ef	-0.11026751
107	0x3c7da7cc	0.0154819
108	0xbd92d992	-0.071704045
109	0xbbfbf176	-0.0076886965
110	0x3bff66e4	0.007794248
111	0x3d8500c7	0.06494289
112	0xbe2e154c	-0.17000312
113	0x3e37cc88	0.17949116
114	0xbd6d5116	-0.057938658
115	0x3dceb466	0.10093002
116	0x3e32579f	0.17416237
117	0x3da4448e	0.08020888
118	0x3e25f35c	0.16206115
119	0x3e3c0521	0.18361332
120	0x3e2f841d	0.17140241
121	0x3c1e8849	0.009676048
122	0x3e219d03	0.15782551
123	0xbd50972c	-0.05092542
124	0xbd63d14c	-0.055619523
125	0x3e13fbdb	0.14451544
126	0x3da4e78f	0.08051979
127	0x3cdfb0bd	0.027305955

net.3.weight f4 [64, 128]
0	0xbd3cda58	-0.046106666
1	0x3d2c0fb4	0.042007163
2	0x3d9f31f3	0.07773199
3	0x3c44108d	0.011966837
4	0x3d41cff8	0.047317475
5	0x3d74e296	0.0597864
6	0xbda0a0c8	-0.078431666
7	0x3c892b34	0.016744234
8	0xbc73a099	-0.014869832
9	0xbb2ac396	-0.002605652
10	0x3dbbc13d	0.09167717
11	0x3dfa8f1d	0.12234328
12	0x3d1990c1	0.037491564
13	0x3db7feed	0.0898417
14	0xbd373dad	-0.044736553
15	0x3d4a148c	0.049336
16	0x3ca67962	0.020321552
17	0xbcbe4006	-0.023223888
18	0x3d5b47d1	0.053535286
19	0x3d1bffdf	0.038085815
20	0x3bd5d473	0.00652557
21	0x3d80c08f	0.06286728
22	0x3d8f1454	0.06986299
23	0x3dd3c030	0.10339391
24	0x3cc038a6	0.023464512
25	0x3cdf3e3e	0.02725136
26	0x3d1218fd	0.035668362
27	0x3d6ac228	0.057314068
28	0xbd2eb214	-0.042650297
29	0x3cfd05d1	0.030886563
30	0xbd2671fa	-0.04063604
31	0xbd919c60	-0.07109904
32	0xbd545492	-0.051838465
33	0x3dbb5fa8	0.09149104
34	0xbcea40e6	-0.0285954
35	0x3bbafbcf	0.0057062875
36	0x3ca116b6	0.01966415
37	0x3dbe9cef	0.093072765
38	0x3d9bde5b	0.0761077
39	0xbd154a09	-0.03644756
40	0x3e03168a	0.12801567
41	0xbd9432d6	-0.07236259
42	0x3d28210f	0.041047152
43	0x3de583b7	0.11206763
44	0x3dd933a3	0.10605552
45	0xbb90cb9b	-0.004418803
46	0xbd1f13d9	-0.038837288
47	0x3d8ba348	0.06818253
48	0x3d99b611	0.075054295
49	0xbcd2b027	-0.025718762
50	0x3bcf5f40	0.0063284934
51	0xbce087db	-0.027408531
52	0x3d87e483	0.06635382
53	0x3d6d147b	0.05788086
54	0x3d8b4193	0.06799617
55	0xbb2af003	-0.0026083
56	0xbd45516b	-0.04817335
57	0xbc79c4b1	-0.015244649
58	0xbd4d2df5	-0.050092656
59	0x3b67f6b2	0.0035394845
60	0x3d823a79	0.06358809
61	0xbd0cf5b8	-0.034414023
62	0x3c76e51c	0.015069272
63	0xbd637ebf	-0.055540796
64	0xbd13ef4b	-0.03611688
65	0xbd419b34	-0.047267154
66	0xbc52b00a	-0.012859354
67	0xbcc8122f	-0.024422733
68	0x3d6cac37	0.057781424
69	0x3da46a30	0.08028066
70	0x3df5e934	0.120073706
71	0x3d8b7fe8	0.068115056
72	0x3d2707c1	0.04077888
73	0x3a8082ef	0.0009804646
74	0x3daaf74d	0.0834795
75	0x3bb97cd5	0.005660633
76	0x3da82467	0.08210068
77	0xbda3a59a	-0.0799057
78	0xbd2714b3	-0.040791225
79	0x3d6bede2	0.05759991
80	0xbced22b3	-0.02894721
81	0x3d378796	0.04480704
82	0x3dbd5dd6	0.092464134
83	0x3d908f94	0.07058635
84	0x3df33fc3	0.11877396
85	0xbd003994	-0.03130491
86	0xbcfca29b	-0.030839255
87	0x3c643575	0.013928761
88	0x3c9797fe	0.018505093
89	0x3c7971f7	0.015224925
90	0x3c6bd337	0.014393619
91	0x3dd60a0b	0.10451134
92	0xbb8d9964	-0.004321264
93	0x3d9915d4	0.074748665
94	0x3d69c037	0.057068076
95	0x3d88fdbe	0.066890225
96	0x3d44942c	0.04799287
97	0xbbc797a2	-0.006091074
98	0x3d8fd630	0.07023275
99	0xbc85bd5d	-0.016325647
100	0xbcae9e57	-0.021315737
101	0x3de4b1d0	0.111667275
102	0x3dbb8a9d	0.09157298
103	0xbd02f049	-0.031967435
104	0x3dabfa08	0.08397299
105	0x3d31db63	0.043422114
106	0x3d3f9d67	0.04678097
107	0x3df0073e	0.11720131
108	0x3c0f7269	0.008755305
109	0xb9103704	-0.00013753405
110	0x3db14629	0.0865596
111	0x3c3097ed	0.010778409
112	0x3b98e0e4	0.004665481
113	0x3c6b2563	0.014352175
114	0x3dd2a66d	0.102856494
115	0x3d9cd779	0.07658286
116	0x3c38fee8	0.011291243
117	0x3cbf74f3	0.023371195
118	0x3cca1f28	0.02467306
119	0xbb1f9b5d	-0.0024354078
120	0x3d2c7704	0.04210569
121	0xbd2f934b	-0.04286508
122	0x3ccc72c8	0.024957076
123	0x3bb5c754	0.0055474434
124	0x3c1d3de2	0.009597274
125	0x3df4a043	0.1194463
126	0x3d533968	0.05156842
127	0x3d7b4eee	0.06135457
128	0xbd95f5a9	-0.073222466
129	0xbb98c9fc	-0.0046627503
130	0x3c104708	0.008805998
131	0x3ce8d794	0.028423108
132	0xbd2f70ff	-0.04283237
133	0xbd16a8ed	-0.036782194
134	0xbdb971b5	-0.09054891
135	0x3d17a2d5	0.037020523
136	0x3d27734d	0.040881444
137	0x3cb67a24	0.022275038
138	0x3cd3c73b	0.025851836
139	0x3d0fb479	0.03508422
140	0x3d833b30	0.064077735
141	0x3c4eda6d	0.012625319
142	0x3c65d594	0.014027972
143	0x3c512e39	0.012767368
144	0xbd8ab80a	-0.06773384
145	0x3b560a13	0.0032659813
146	0x3c1d4cf1	0.009600864
147	0xbdb027d8	-0.086013496
148	0xbd2b52b2	-0.04182691
149	0xbd8e10f4	-0.06936827
150	0xbd95a745	-0.07307295
151	0x3d372d00	0.04472065
152	0x3d50a859	0.0509418
153	0xbce5b923	-0.028042382
154	0x3c2a0be4	0.0103788115
155	0xbd1b9904	-0.037987724
156	0x3ac262f1	0.0014830512
157	0xbd030aa5	-0.031992573
158	0xbd829fa6	-0.06378107
159	0xbd5ae502	-0.053441055
160	0x3d911f65	0.07086066
161	0xbb882f9e	-0.004156067
162	0xbd85ae52	-0.065273896
163	0xbc20a515	-0.009804984
164	0xbdd421cc	-0.10358009
165	0xbc78a2fe	-0.015175579
166	0x3d4312a9	0.047625218
167	0xbb9bc154	-0.004753271
168	0x3b89555c	0.004191084
169	0xbdd20e87	-0.10256677
170	0xbcfc21e0	-0.030777872
171	0x3d1417fd	0.03615569
172	0xbda48e36	-0.08034937
173	0xbd6b29e4	-0.057412997
174	0x3d21593a	0.039391734
175	0x3c1ab6b2	0.009442972
176	0x3cc401ed	0.0239267
177	0xbdc45eb6	-0.09588377
178	0x3d19d704	0.03755857
179	0xbd14866a	-0.036261
180	0x3ae6ead5	0.0017617593
181	0x3d62997e	0.055322163
182	0xbdcb2128	-0.099184334
183	0x3c0f1daf	0.008735104
184	0xbdc7838a	-0.09741886
185	0x3d4e6c76	0.050396405
186	0x3bc725bd	0.006077497
187	0xbbc3642f	-0.0059628705
188	0xbd54eb7e	-0.051982395
189	0x3c87d892	0.016582761
190	0xbd70615c	-0.0586866
191	0xbac6cab0	-0.0015166607
192	0x3d65f796	0.05614432
193	0xbdadc823	-0.08485439
194	0xbd304830	-0.043037593
195	0x3b8bc25b	0.0042651123
196	0xbb77cadd	-0.0037810125
197	0xbc8eddbf	-0.017439721
198	0x3d6fb775	0.058524568
199	0xbd316516	-0.043309294
200	0x3bd5dc24	0.006526487
201	0x3cf9cc18	0.030492827
202	0xbd0e7edd	-0.034788955
203	0x3d1f265e	0.03885495
204	0x3d18c4ce	0.037297063
205	0x3c8c5ad5	0.017133156
206	0xbd11cd4f	-0.03559619
207	0x3d73473c	0.059394106
208	0xbd91442f	-0.07093083
209	0x3c0b358d	0.008496654
210	0x3ab639cf	0.0013902726
211	0x3d3a27cb	0.045448106
212	0xbdb8efff	-0.090301506
213	0xbb4b75b0	-0.003104549
214	0xbd90dcb2	-0.07073344
215	0x3cfedb21	0.031110348
216	0x3c776bf9	0.015101426
217	0xbdb0be46	-0.08630042
218	0xbcb45ebe	-0.022017833
219	0x3bfed82c	0.0077772345
220	0x3ca5a0a1	0.020218195
221	0x3d715413	0.05891807
222	0x3ccbf8bf	0.024898885
223	0xba014cb1	-0.00049323874
224	0x3cf1631c	0.029466204
225	0xbdccff71	-0.10009659
226	0x3d2ff86e	0.04296153
227	0xbcd98d6d	-0.026556695
228	0x3ceffa3b	0.029294124
229	0x3c0e6239	0.00869041
230	0xbcabfbb5	-0.020994047
231	0x3d3bb79b	0.045829397
232	0xbd8b1fbb	-0.067931615
233	0x3c24a742	0.010049643
234	0x3c91c9c1	0.0177964
235	0xbd45a90e	-0.048256926
236	0x3c80403b	0.015655627
237	0xbdd45c30	-0.10369146
238	0xbd802f1d	-0.06258986
239	0x3cdb9437	0.026804073
240	0x3cf8341d	0.030298287
241	0xbdc42c64	-0.09578779
242	0x3c52fb81	0.012877346
243	0xbc2777f3	-0.010221469
244	0x3d8e00c3	0.06933739
245	0xbdd221f1	-0.1026038
246	0xbd1677b0	-0.036735237
247	0xbd8ad6f6	-0.06779282
248	0xbd8cbbb3	-0.06871738
249	0xbd021349	-0.031756673
250	0xbdc61d91	-0.09673608
251	0x3d5e30b5	0.05424567
252	0xbd44726a	-0.047960676
253	0x3c6b5b6d	0.014365059
254	0xbd8a0e93	-0.06741061
255	0xbc7faf33	-0.015605736

net.3.bias f4 [64]
0	0x3dfbfafa	0.12303729
1	0xbd39613c	-0.045258746
2	0xbd2fe7f4	-0.042945817
3	0xbcea0faa	-0.028571922
4	0x3d46af30	0.048506916
5	0x3da2ce46	0.079495
6	0x3d4d52af	0.05012768
7	0x3d9dd10f	0.077058904
8	0xbdcfba4d	-0.10142956
9	0xbd245487	-0.040119674
10	0x3ccd9104	0.025093563
11	0xbc61745a	-0.0137606505
12	0xbd93cd67	-0.07216912
13	0x3d278dd3	0.04090674
14	0xbd0dfab3	-0.034662914
15	0x3d41c3e7	0.047305968
16	0x3abcca66	0.0014403581
17	0x3cd2a5ec	0.025713883
18	0x3c01c524	0.007920537
19	0xbb857a84	-0.004073443
20	0x3de78a2d	0.11305652
21	0xbbc45b18	-0.0059923045
22	0x3df47ec2	0.1193824
23	0xbce87ec0	-0.028380752
24	0xbd464079	-0.04840133
25	0xbc563583	-0.013074282
26	0x3d67a1a6	0.056550644
27	0x3ccd0ff7	0.025032027
28	0x3d218262	0.039430983
29	0x3dfabab5	0.12242643
30	0xbc84f080	-0.01622796
31	0xbcc5db10	-0.024152309
32	0x3d81bcbc	0.06334826
33	0x3cf86dfc	0.030325882
34	0x3d216f56	0.03941282
35	0x3d9f73ef	0.077857845
36	0x3d990e9f	0.07473492
37	0xbd93ea6d	-0.072224475
38	0x3cd6e746	0.026233327
39	0x3df029b3	0.117267035
40	0x3c8a8bc7	0.016912354
41	0xbd212de1	-0.039350394
42	0x3c52309b	0.012828971
43	0x3cafdeb1	0.021468492
44	0xbcce139b	-0.025155833
45	0x3a146ec4	0.00056622573
46	0x3d2cb604	0.04216577
47	0x3d8b3f31	0.06799162
48	0x3d86f824	0.06590298
49	0x3ce0a227	0.02742107
50	0x3d481921	0.04885209
51	0xbcba6c97	-0.022756858
52	0x3d186a30	0.037210643
53	0x3d3ceed6	0.04612621
54	0xbd8fd993	-0.07023921
55	0x3e05eaef	0.13077901
56	0x3ba13fc4	0.0049209315
57	0xbcf047d9	-0.029331135
58	0xbd5ffd04	-0.054684654
59	0xbd0a7c87	-0.033810165
60	0xbdb60993	-0.08888545
61	0x3dbae72a	0.09126122
62	0xbb6369d7	-0.0034700537
63	0xbd8114ce	-0.06302796

head.weight f4 [1, 64]
0	0x3d30b5fe	0.04314231
1	0xbdbc2fd9	-0.09188814
2	0x3d6db09f	0.058029767
3	0x3c1b8a8d	0.009493482
4	0x3a8bbc3c	0.0010660957
5	0x3d320db7	0.04347011
6	0xbd1f865d	-0.0389465
7	0x3dd97cf4	0.10619536
8	0xbd9fa7bc	-0.07795665
9	0x3cbb5029	0.022865372
10	0x3dfbb840	0.12291002
11	0x3d4c0f98	0.04981956
12	0xbd9feb54	-0.07808557
13	0x3e1014a1	0.1407037
14	0xbd6b00a5	-0.05737366
15	0xbd0aec53	-0.033916783
16	0x3dbe481e	0.09291099
17	0xbd7b0b20	-0.061289907
18	0x3cd1df2d	0.025619114
19	0x3d8aa730	0.0677017
20	0x3db9809e	0.09057735
21	0xbd7e2557	-0.06204733
22	0x3e0ab8be	0.13547036
23	0x3dd7ee7b	0.105435334
24	0xbd0d5ee5	-0.034514327
25	0x3cf149f7	0.029454214
26	0xbd002d79	-0.031293366
27	0xbd42bb97	-0.04754218
28	0x3e02255a	0.12709561
29	0x3dee6b44	0.11641553
30	0x3d56c68e	0.05243545
31	0x3df9a2b1	0.12189234
32	0xbdd747fa	-0.10511775
33	0x3d219249	0.03944615
34	0xbd3ea4ae	-0.04654377
35	0x3db94b84	0.090476066
36	0x3d19cc9f	0.037548658
37	0xbdabbeb0	-0.0838598
38	0x3d03462c	0.032049343
39	0x3d9e91c7	0.077426486
40	0xbcb8c38e	-0.022554185
41	0x3bbc3131	0.0057431688
42	0xbd9a4ef3	-0.075345896
43	0x3e03b859	0.12863292
44	0xbdd7ee37	-0.10543483
45	0xbd770f95	-0.060317595
46	0xbda5df46	-0.08099227
47	0xbd271235	-0.040788848
48	0xbd62eb19	-0.055399988
49	0x3d8b9fd6	0.06817596
50	0x3df98791	0.1218406
51	0x3d0897e6	0.033347987
52	0x3d580264	0.052736655
53	0x3dec7a0b	0.11546715
54	0xbde4502b	-0.11148103
55	0x3d2a9cfb	0.041653614
56	0x3da100d6	0.078614876
57	0x3d3058ae	0.04305332
58	0xbd2437b4	-0.040092185
59	0xbcce0fe5	-0.025154063
60	0xbd53339f	-0.0515629
61	0x3e1207fd	0.1426086
62	0xbd28b612	-0.04118926
63	0xbc3cc1cb	-0.011520813
