artifacts/model_exp-04_wd-1e-3_seed0_20251104T051620Z.pt (torch, 52229 bytes, 5 tensors)

net.0.weight f4 [128, 29]
00000000: 8f73 52bd 2c88 963d 4c7c 28be 38c3 1bbe
00000010: 473a abbd 7bd6 513d 5553 f6bb 2f6f 093e
00000020: fc8f 4fbc 66cb 3f3d d082 8dbd 85b2 a7bc
00000030: a139 09be 788f 09be 26c8 b7bd d10d 9c3c
00000040: 8d42 013e 331a 053e befd e4bd ba70 42bd
00000050: 2f82 eb3d 469c 1f3e 1afa 19bd a76f 1439
00000060: 8310 4cad 8009 f22c 5448 a63a 0064 cfba
00000070: e42b b1b6 899c 94bd 8bfc 7cbd 3093 153e
00000080: 8aa3 f8bd 5d1f 97bd 45e0 b1bd 8287 3bbe
00000090: 8c1a f5bd 458f 4d3e 0c15 203d d7ef a53d
000000a0: f9f9 8f3c e251 a6bd f9ff d33c c433 48be
000000b0: 1d41 01be 982e a9bd 0d1e 193e 7485 003e
000000c0: da62 43bd 1a9b 073c 5020 003e e8db 563e
000000d0: a203 3030 1980 d32d 25e6 bb37 929c 03b5
000000e0: 30b2 112e a29d 70b9 dad9 07be fcb8 b2bd
000000f0: 196b 273d 4204 b73c 3e5b 0ebe 2a58 723d
00000100: f342 ae3d 95be 13bd 45be fdbb 51ca e63c
00000110: ec36 dc3d b22c 453e f7de d1bd ddb0 cfbd
00000120: eb4b 713d 9daa 3d3e 0193 673e 85a5 3b3e
00000130: 4f0e 353d ad89 01be 945e 953d 958a ccbd
00000140: 0e92 2abe 35e0 8a3a 9887 3939 c304 3ebb
00000150: c680 002e bcae 102e cc9c 782d c688 89bd
00000160: 8c36 563d 3b27 06be 83f8 283d e346 8d3d
00000170: 34c4 f03d 07d7 4d3d b905 47be 2026 e9bd
00000180: 5af2 a73d 04ba 2b3d eaeb 10be 9ff3 6dbd
00000190: c34a 043e ff54 fc3d 16eb 59bd c21a 50bd
000001a0: 7e60 27be 8987 95bc 8411 06be 843f 09be
000001b0: 9f10 1ebc eb48 633c 5fa5 ae2f d82f 4035
000001c0: 4779 00b6 4d8d a93a 6cf9 0e38 55dd 22ba
000001d0: ca11 15bd 958b 18bc 8ad0 b93c 5d2f 163d
000001e0: def9 863d 5451 0c3b 1b62 9ebd 670b 683d
000001f0: b990 06be 83ff d6bd 7a2b c0bc 2863 9abd
00000200: 3f55 55bd 8000 f1bd 5e70 23bd d87f 263d
00000210: 7fe8 b2bd 2584 8cbb 4b3b d93d 65e2 5cbc
00000220: c862 633c 14e9 8bbc b363 203d 7369 e536
00000230: 97ec f83a 7b5b de36 a4d6 fd3a 66bd 1cad
00000240: 6f52 9aba 14cc 91bd f418 e93d 0ac1 643c
00000250: db70 cbbd 7db8 ecbd c2a1 e4bd 510b e2bd
00000260: fdfd 79bd a940 f63d dfab 913d 4cae 20be
00000270: 7155 093e 930e c6bd bf5e 2abc 6cc3 93bd
00000280: cc27 4abd 3067 3dbd 810b fabd 845e bcbd
00000290: 75a7 96bc c89e 44bc ef66 14bd bae3 a23d
000002a0: 582b 9dba f428 50ab 4e32 7b3a ca94 262f
000002b0: 4114 a23a 2163 43af e8ce 4abe a696 9d3d
000002c0: c966 41ba 4e09 babd 3d2f 0c3e b3f3 d0bd
000002d0: 860e 3c3d f5d4 8cbd 93a1 013e 8d0d 293d
000002e0: d887 d33d 39c8 ba3d f265 05bd 219d 9bbc
000002f0: 8ba9 2fbe 94fe 873d bd4b 1c3e f6be 0d3e
00000300: 8911 a5bd 4876 2c3c 4689 e6bd 7cd7 6bbd
00000310: e658 92bd bd80 82af 1c18 68b5 8386 862b
00000320: 75a9 562c ea47 2037 2924 2bb9 d151 abbd
00000330: 0ebe cbbd 745a ce3d fa2c 99bd 9cf8 ea3d
00000340: cc0c 553d 8918 193d 7910 de3b 19ca 00bd
00000350: bba1 2c3d 14ae e0bc 76af 9abc c95c b53c
00000360: c5c9 0abe e57d 8dbd 8c56 ee3d 600a e0bd
00000370: e791 0dbd ebaf 063e 5ada 1a3d 8756 fab9
00000380: 2f7c ecbd 2f5b 803d 99d3 8bb8 dfe8 f32e
00000390: b8be bd2e 4252 a22d 8576 88ab db09 ff39
000003a0: 95e6 a43d 4a56 e43d f4b6 c83d 9bc4 0bbe
000003b0: c4ee 833d c15b b1bd b970 bdbc bd99 883d
000003c0: 466b 843d 6c8a 0b3e f621 00bd f82a 223d
000003d0: 465a f03d 59cf 26be 2942 043e baf1 1ebe
000003e0: 3485 fbbb 1b79 49bc 240c 5cbd 3e93 c33c
000003f0: 82e8 033e 0bfa d33a 3f45 d2bd d92f 0eaf
-0.051379737 0.073501915 -0.16453665 -0.15211189 -0.08360725 0.051229935 -0.007517258 0.1342132
-0.012668606 0.046824835 -0.06909716 -0.020470867 -0.1340089 -0.13433635 -0.08973722 0.019049557
0.12623043 0.12998275 -0.1118121 -0.047470786 0.1149944 0.15586957 -0.03759203 0.00014155974
-1.1599724e-11 6.8791084e-12 0.001268635 -0.0015822649 -5.2801206e-06 -0.07256419 -0.06176428 0.14606929
-0.121405676 -0.07379029 -0.08685354 -0.18313411 -0.11967954 0.20074184 0.039082572 0.081023864
0.017575251 -0.08121087 0.025878893 -0.19550997 -0.12622495 -0.0826084 0.1495287 0.12550908
-0.047701694 0.008276725 0.12512326 0.20982325 6.403359e-10 2.404481e-11 2.2399307e-05 -4.902914e-07
3.3127445e-11 -0.00022946906 -0.13266698 -0.08726689 0.04087362 0.022340897 -0.13901994 0.05916611
0.08508863 -0.036070425 -0.007743629 0.028172644 0.10752663 0.19255331 -0.10247605 -0.10141156
0.05891029 0.18522115 0.22614671 0.1832486 0.0442031 -0.12650175 0.0729343 -0.0998737
-0.16657278 0.0010595383 0.00017693487 -0.0028994537 2.9218204e-11 3.2897005e-11 1.4131984e-11 -0.067155406
0.052298114 -0.13100903 0.041252624 0.06898286 0.11756173 0.050253894 -0.19435777 -0.11384225
0.08200522 0.041925445 -0.14152494 -0.058093663 0.12919144 0.12320899 -0.05320271 -0.05080677
-0.16345403 -0.018253105 -0.13092619 -0.13403136 -0.009647517 0.0138723655 3.176792e-10 7.1595196e-07
-1.914408e-06 0.0012935788 3.408773e-05 -0.00062127906 -0.036393918 -0.009310623 0.022682447 0.036666263
0.06590627 0.002141078 -0.07733556 0.0566515 -0.13141145 -0.10497954 -0.023458231 -0.07538444
-0.05208325 -0.117676735 -0.039902084 0.040649265 -0.08735751 -0.004288214 0.10607012 -0.013481711
0.013878532 -0.017078914 0.03915758 6.8370077e-06 0.0018991408 6.6267653e-06 0.0019366336 -8.909628e-12
-0.0011773835 -0.07119003 0.113817126 0.01396204 -0.09933635 -0.11558626 -0.11163665 -0.11037315
-0.061033238 0.12024052 0.0711286 -0.15691489 0.134115 -0.096707486 -0.010398566 -0.07215008
-0.04935436 -0.046240985 -0.122092254 -0.09197715 -0.018390397 -0.012000747 -0.036230978 0.07953592
-0.0011991067 -7.395328e-13 0.0009582386 1.5150473e-10 0.0012365655 -1.7770364e-10 -0.19805491 0.076947495
-0.0007377682 -0.09083806 0.13689895 -0.10202732 0.045912288 -0.06876556 0.12659292 0.04127269
0.103286445 0.09120221 -0.032567926 -0.018995823 -0.1715452 0.06640354 0.15263267 0.13842377
-0.08059985 0.010526247 -0.112566516 -0.05757855 -0.07145862 -2.3738336e-10 -8.646182e-07 9.558607e-13
3.0505297e-12 9.553487e-06 -0.00016321302 -0.083652146 -0.099483594 0.10075846 -0.07479282 0.114732
0.052014157 0.037376914 0.006776866 -0.031442735 0.042146426 -0.027426757 -0.018882494 0.02213897
-0.13553531 -0.06908778 0.11637601 -0.10939479 -0.03456297 0.13153045 0.037805893 -0.00047748184
-0.11547124 0.06267392 -6.6674496e-05 1.1091727e-10 8.6286034e-11 1.8453798e-11 -9.696277e-13 0.00048644733
0.080517925 0.11149271 0.098005205 -0.13649218 0.06442025 -0.08660079 -0.02312504 0.06669948
0.06465773 0.13627023 -0.031282388 0.03959176 0.11735968 -0.16290034 0.12915863 -0.15521899
-0.007675791 -0.01229694 -0.053722516 0.023873921 0.12881663 0.0016172541 -0.10267114 -1.2931824e-10

net.0.bias f4 [128]
00000000: 6e18 073e 3512 0abe 5ba6 bd3d 0cb3 b23d
00000010: e792 66bd 9a12 ff3d 0f1e 04be fc4e 8cbd
00000020: 8f66 3d3e a6e5 633e afa3 013e e8cc 93bd
00000030: d5bb fcbd 08f9 10be 8ffa f5bb cb41 bd3d
00000040: 605e b73d 83e3 233c 9e21 573e e748 483e
00000050: 7a6a 0abd 4131 03bd 3be6 f53c e301 b93d
00000060: f385 303c 868c dc3d 21b3 1e3e 102c 2e3d
00000070: 9a1e 0a3e b3b1 1a3d c0d9 e63d 4315 9d3d
00000080: e715 77bc e361 27bd e00f 043e 255d b3bd
00000090: f3e5 123e 2f6c b6bd 8f62 2b3e 8648 d93d
000000a0: b8c2 82bd bb51 0b3e 3fc2 ecbc e59f af3d
000000b0: dad3 aa3d a362 7e3d 47fb dd3d d376 163d
000000c0: a9fb 97bc 0752 173e 190b ec3d 3efb 533d
000000d0: 8c19 353e 29c6 a9bd 307e a2b8 51cd c63c
000000e0: 3bd7 fe3d 59b0 18be 9937 efbd 1651 953a
000000f0: 1543 18be c3a3 02be 9eb8 403e 77e8 043d
00000100: 3e5c f6bd 90fd c43b 4357 053d 4298 a1bd
00000110: fdd0 dfbd 5f8c c53d ee32 093c c099 683e
00000120: b2b8 a2bd 0209 cebd c54c f03c ec3a b7bd
00000130: 0dcf 383e fdeb ff3d 4d1d 613e 5aec 9dbd
00000140: fa46 293e 70c4 2c3e 1289 f8bc 5c34 673d
00000150: ff02 083e 77eb fd3d a7eb 19be a122 553e
00000160: 64cb 9fbc 8faf e53d f61f cfbd ec70 d6bd
00000170: b00b b4bd c0b3 f43d 9cdc dabd 3e4d 273e
00000180: 0b5e af3d 9bda 1f3e 1c40 293d f7aa 25bc
00000190: 8d18 68bd 1f94 d6bd 43aa 653e fa96 923b
000001a0: ee14 64bd fb4a 32be dffc 7c3d e326 20be
000001b0: 2259 9d3c 4734 0e3e 4460 8dbd 4a2f 033e
000001c0: ed9b 83bd f88d eabd 3e59 1dbe 0dff 083e
000001d0: fd68 d1bd 3c46 193e d824 823d 02e3 9e3d
000001e0: f3ef b8bd 67bd 743e e105 26be 6aec e1bd
000001f0: f8ef 243e a6d5 593d 5caf 95bd 4392 60bd
0.13192913 -0.13483508 0.092602454 0.08725557 -0.05629244 0.1245472 -0.12902091 -0.068510026
0.18496154 0.22255573 0.12660097 -0.07216817 -0.123405136 -0.14157498 -0.0075066756 0.09241065
0.089535475 0.0100029735 0.21008918 0.1955906 -0.03379295 -0.032029394 0.030017009 0.09033563
0.0107741235 0.1076899 0.1549802 0.04252249 0.13488236 0.037767123 0.11272001 0.07670071
-0.0150809055 -0.040864836 0.12896681 -0.08758 0.14345531 -0.08907353 0.16736816 0.10609536
-0.06384796 0.13605396 -0.028901218 0.08575419 0.08341189 0.062105786 0.10838943 0.036734413
-0.018552618 0.14777385 0.11525554 0.051753275 0.17685527 -0.08289749 -7.748266e-05 0.024267824
0.12443396 -0.14911021 -0.11680526 0.0011391963 -0.1486934 -0.12757783 0.18820426 0.03244826
-0.120293126 0.0060116723 0.032553922 -0.07890369 -0.10928533 0.09645914 0.008373959 0.22714901
-0.07945384 -0.10060312 0.029333482 -0.08946785 0.18047734 0.12496183 0.21983834 -0.07711096
0.16530982 0.1687181 -0.030338798 0.05644642 0.13282393 0.12398427 -0.150313 0.20813991
-0.019506164 0.11215126 -0.10113518 -0.10470757 -0.08791292 0.11948347 -0.10686609 0.1633806
0.08562859 0.15610735 0.041320905 -0.010111562 -0.05666404 -0.104774706 0.22428231 0.004473564
-0.055684023 -0.17411415 0.061764594 -0.15639834 0.01920754 0.1388713 -0.06903127 0.12811008
-0.06426225 -0.1145286 -0.15366074 0.13378544 -0.10225103 0.14968199 0.06354684 0.07758142
-0.09030142 0.23900376 -0.1621318 -0.110314205 0.16107166 0.053182267 -0.07308838 -0.054826986

net.2.weight f4 [64, 128]
00000000: 995d b2bd 1605 9cbd 01ea f4bc 42dc 393d
00000010: e804 043c f8fc 1aba 11f9 edbc ae63 533d
00000020: 977d 80bc 5dfc 393c 9598 5cbc 7b1d 34bb
00000030: 3a21 303c 652d 273d 4fe9 e63c 83dc 9ebb
00000040: 2eb7 793c d9a4 1fbd 2743 183d 4520 d33b
00000050: 8a67 293d 8325 c7bc e584 a2bd df09 b63a
00000060: 96cf 933c aa3e 443d 108e 803c acce 393c
00000070: 4922 3b3d bd64 24bd c3d9 583d 8ba4 c53c
00000080: fe3d 183d f9f5 173d efed 96bd d845 b83c
00000090: 31b7 693d 1564 8dbd 6caf c2bc a3c4 7cbd
000000a0: 43f0 e5bc 9de0 1fbb af1d cd3c 7cbc 18bd
000000b0: 6527 b0bd b951 dd3c e803 dd3c 450d ebbc
000000c0: f70e 473d 890f 413d 4018 03bd 9fe2 3bbc
000000d0: 5acb 17bb 5396 f9bc 5519 01bd a2b0 43bd
000000e0: dfe5 7ebd f1d0 b03c ce89 1abd fc97 50bd
000000f0: 2537 463d a3a0 dcba c6dc 263d b48f 713d
00000100: 82df c8bc 379d 5fbb 9f19 5b3d 6ec5 7cbd
00000110: 3057 cebc a98e 97bb ddcc acbc 0a8a 933b
00000120: 5e90 bc3c 7b62 27bd 57a0 20bc 93cb 513d
00000130: 8005 77bd f36e 8abd e9c7 9cbd b6c7 fc3c
00000140: 6c43 b2bd 3f5a 45bd c5db 133d 6693 67bd
00000150: 830a 443d fb04 5abd dc44 63ba 5212 b3bb
00000160: 46bc 4fbc 685a 043d 1a24 443d 6f72 57bd
00000170: 722e da3c f322 c93b c022 7dbc b904 8ebd
00000180: 67d6 093c 41b8 283d 1ec7 93bd 73cb 94bd
00000190: e61e b4bd 490f 343b 5289 18bd 7bf6 0cbd
000001a0: a4d6 4d3d 28ed 09bd 58d0 63bd 64b2 f2bb
000001b0: 7ed0 6cbd e800 1cbd 152c d23c 53b7 693b
000001c0: a049 70bd 7420 6c3d 3da0 d03c 1c05 8cbd
000001d0: e1ab 9f3c 3fe2 863c f1fa 91bd 5aa5 88bd
000001e0: b11d 96bd 3ab2 a13c 8680 21ba 3b9b 933c
000001f0: 5a06 49bd 1de4 253d df14 68bb 5b98 96bd
00000200: fe15 6c3b 7506 753d 1560 5b3d 0a59 a1bb
00000210: 8ec1 69bd 4513 18bd aec6 bb3d ea2d 19bd
00000220: fd04 ae3d 232b 37bc ca48 933c 70e8 a0bd
00000230: 254e 4bbc f9b4 a83d 8995 8dbd 14af 963d
00000240: d4b9 56bd 5a49 c43c b8b6 2fbd 1791 3ebd
00000250: 4740 36bd 0414 22bc b71a 013d 6f30 2fbd
00000260: c863 203d 43b6 a33d 4173 bc3d a584 d83d
00000270: ebd5 c23d 915d 05bc 1e2e 043c 9779 ac3d
00000280: 7a47 5c3d 8d84 de3b ff59 b73d 3f83 88bd
00000290: c93c ce3d 6426 8a3d 6410 3cbd a1be 64bd
000002a0: 3468 983d 6a08 c73d c558 9c3c 6cfe 8fbc
000002b0: adcd 853d 1629 633d 7d1d ca3c 9072 c03d
000002c0: 815f 7c3d 4ca1 4e3d bdce 8a3d 4e7c 85bd
000002d0: dcfb 39bc 1ce8 4e3c acd8 6d3d 0c99 8dba
000002e0: 45b0 1b3d 2f03 613d d530 5dbd 9e42 193d
000002f0: abea a63c e2a9 4fbd 80b3 0c3d a6d1 0d3a
00000300: 300f efbc 0c02 7fbd 180c b33d 8f07 3abd
00000310: 6420 583d 991a b13d 87c1 6e3b 6591 c2bc
00000320: 484f 5bbd e32c af3c b637 bdbc 6cca b03c
00000330: 0df7 6c3d 0a27 b9bb 9f4d b53d d677 82b9
00000340: e2d9 89bc c5ab 0fbd 24b2 173d 5584 d4bc
00000350: 750a 493d 0ffa 843c 6399 523d 599d e7bc
00000360: a4ac cbbc 2baa 953c fa2f 18bd e494 413d
00000370: ab77 c7bc e3f3 493d 59e0 793d 1431 a63d
00000380: 4768 2b3b 340c a83d 00af 88bc 76ba 53bd
00000390: ec83 2d3c 702b 16bd c375 33bd 6825 153d
000003a0: 4c36 b13d 1780 c6bc 7c80 f43c 81d3 4fbd
000003b0: de61 c93c f99f 443d 7a7b d9bb 28d2 983d
000003c0: fc3b 79bd d7e8 4cbc 6c8d 20bd e7db d93d
000003d0: 0a33 ba3d 6151 de3d 4f6b bb3d f2be 4b3d
000003e0: 047e 0ebd 0807 9dbc 9aad 1d3d 145a 80bd
000003f0: 06a9 aa3d 8dc9 b33d ea58 ad3c 6597 53bd
-0.087092586 -0.076181576 -0.029896738 0.04537607 0.00805781 -0.0005912329 -0.029049428 0.051608734
-0.015684886 0.011351672 -0.013464113 -0.0027483392 0.010750109 0.040814776 0.028187422 -0.0048480644
0.015241427 -0.03897557 0.037173416 0.006443056 0.04135851 -0.02430988 -0.07935504 0.001388844
0.01804332 0.047911324 0.01569274 0.011340778 0.045686994 -0.040135134 0.05294205 0.024126312
0.037168495 0.037099812 -0.07369601 0.022494242 0.05705947 -0.06903855 -0.023765288 -0.061710965
-0.028068667 -0.0024395355 0.025038568 -0.037289128 -0.08601264 0.027016507 0.026979402 -0.02869285
0.048598256 0.047133956 -0.03200555 -0.011467605 -0.0023161978 -0.030467188 -0.0315183 -0.047775872
-0.06223094 0.021584006 -0.037729077 -0.050926194 0.048392434 -0.0016832541 0.04073789 0.058974937
-0.02452064 -0.0034120807 0.05349123 -0.06171172 -0.025188059 -0.0046251607 -0.02109378 0.0045025395
0.023018058 -0.040865403 -0.009803853 0.051219534 -0.06030798 -0.06759443 -0.07655317 0.030856948
-0.08704266 -0.04818177 0.03609826 -0.056537054 0.047861587 -0.053227406 -0.00086696236 -0.0054648304
-0.012679165 0.03231278 0.04788599 -0.052599367 0.026633475 0.0061381995 -0.01545018 -0.069344945
0.008412934 0.041191343 -0.07215713 -0.07265367 -0.08794956 0.002747493 -0.037240334 -0.03441475
0.050253525 -0.033673435 -0.055618614 -0.0074065197 -0.05781602 -0.0380868 0.025655786 0.0035662248
-0.058663964 0.057648137 0.025467033 -0.06836912 0.019491138 0.016465304 -0.071279414 -0.06672163
-0.07329882 0.019738305 -0.0006160814 0.018018356 -0.049078323 0.04050075 -0.003541283 -0.07353278
0.003602385 0.05982061 0.053558428 -0.0049239444 -0.057069354 -0.03712775 0.091687545 -0.037397303
0.08497045 -0.011179718 0.017979044 -0.07856834 -0.012408768 0.08237643 -0.06913287 0.07357612
-0.052423313 0.023960758 -0.042898864 -0.046525087 -0.044494893 -0.009892467 0.031519618 -0.0427708
0.03915766 0.07993748 0.092016704 0.10572175 0.09513458 -0.008139984 0.008067636 0.08421629
0.053779103 0.0067907036 0.08952712 -0.06665658 0.100701876 0.06745604 -0.04591407 -0.05584586
0.0744175 0.09718402 0.019085297 -0.017577372 0.0653337 0.055459104 0.024672264 0.09396851
0.061614517 0.050446793 0.067777134 -0.0651785 -0.011351552 0.012628581 0.058067963 -0.0010803058
0.0380099 0.054934677 -0.054001648 0.037417047 0.02037557 -0.050699122 0.034350872 0.0005409963
-0.029182047 -0.06225781 0.08742541 -0.045417365 0.052765265 0.08647651 0.003643127 -0.02375097
-0.053542405 0.021383708 -0.023097854 0.021580897 0.057852793 -0.005650406 0.08852696 -0.00024884817
-0.016827527 -0.03507592 0.037035123 -0.025942007 0.04908224 0.016232518 0.051415812 -0.028273271
-0.024862595 0.018269619 -0.03715513 0.047261134 -0.024349054 0.049304854 0.06100497 0.0811483
0.0026154683 0.082054526 -0.016685009 -0.051691495 0.010590535 -0.03666252 -0.04381348 0.036412627
0.086529344 -0.024231 0.029846422 -0.050738815 0.0245828 0.048004124 -0.006637034 0.07461959
-0.06084822 -0.012506685 -0.03919737 0.10637646 0.09091766 0.108553655 0.09151327 0.049742647
-0.034788147 -0.019168392 0.038495637 -0.06267181 0.0833302 0.08778677 0.021160562 -0.051658053

net.2.bias f4 [64]
00000000: de97 b23c 7f23 f03d af51 eabb 7874 cc3d
00000010: 1fe8 2f3d 6692 1b3d 3ae4 97bd 8267 d13d
00000020: ebb9 ef3b da9b 4bbd b673 d3bc a561 9a3c
00000030: 9744 ed3d f333 e43c 9f17 fa3c 075b 0abc
00000040: 5b39 eebc 17fb 0d3d a26a c9bc eb16 fc3c
00000050: 5656 013c 3f9e f63c ccd5 fbbc 3415 9b3d
00000060: cf2a 3fbd 7a75 263d 2220 17bd 1ba3 e73d
00000070: 907e aa3d d603 6bbd f107 663d 4327 53bd
00000080: 68d3 f4bc dcb5 1d3d 03c0 a1bc c313 253d
00000090: 88ae d73d e1c7 683d 854e c73c 05c9 56bc
000000a0: 2101 6b3d 3821 c23c 167b 5abc ba82 0ebd
000000b0: 4ef8 9f3c dc51 1bbd 4142 1539 26e9 3c3d
000000c0: 18fa 69bd 5ab0 d2bb c7d4 c73d e2f5 93bd
000000d0: 9a44 453d c61b 753c c226 b33d 7fbb d43d
000000e0: f2a0 363d 8132 3dbd db66 61bd b132 f73d
000000f0: 93fe c63d 62d9 11bc 26e6 24bd 0dce b93d
0.021800932 0.1172552 -0.0071508507 0.09983152 0.042945977 0.037981413 -0.07416578 0.10224821
0.0073158643 -0.04970918 -0.025812011 0.018845389 0.11585348 0.027856803 0.030528842 -0.008444554
-0.029080084 0.034663286 -0.02458698 0.030772647 0.007894119 0.030104754 -0.030741595 0.075724036
-0.046671685 0.040639378 -0.03689588 0.11310407 0.08324921 -0.057376705 0.056159917 -0.051551115
-0.029885963 0.038503513 -0.019744879 0.04030205 0.10531336 0.056831244 0.024329433 -0.01310945
0.057374123 0.02369748 -0.01333501 -0.03479264 0.01952758 -0.037919864 0.00014234429 0.046120785
-0.057123274 -0.006429714 0.09757381 -0.07224633 0.048161127 0.014960235 0.08747627 0.103873245
0.044587083 -0.046190742 -0.05502973 0.120702155 0.09716525 -0.008901926 -0.04025855 0.09072504

head.weight f4 [1, 64]
00000000: 3954 50bc 324b e33d 112a 3fbd bf7c 0a3e
00000010: 0b41 a13d df3e 76bc 6a54 b0bc bc46 1b3e
00000020: 5b47 713d 6157 8cbd a282 cd3d f97e 95bd
00000030: ef4f 043d ac17 02bd 55c4 d6bd 43e3 f43d
00000040: 4145 ef3d 1df5 b73d 0c54 80bc f381 fbbc
00000050: 3483 d6bc 17ef c13d 750c ff3d 94a1 f83d
00000060: 9da7 4dbc 1e6a 8a3d 433d 5cbb 63c1 6d3d
00000070: 0fd1 3c3d e84d b2bd 1c2f 003e 850c 5cbd
00000080: a3eb c63b f344 70bd efde e8bc e9dd f13d
00000090: e5dc e93d 36d2 023e ee3d bcbd e4b5 003e
000000a0: 2ec3 81bd d014 593b 6968 f73d 1afb 1e3d
000000b0: 39bb 873d 1c93 463d dd23 aebd a0cc 2bbd
000000c0: 598f 4cbd fd43 5e3d bcb0 203d 3d76 83bd
000000d0: 1123 e03d c703 0e3d a75d a73d 19de 6a3d
000000e0: 6227 d1bd d575 293d 1131 d0bd 0489 693d
000000f0: 92c1 0a3e a582 413d d8d1 9f3d df85 983d
-0.012715393 0.11098327 -0.046670977 0.1352415 0.07873734 -0.015029638 -0.021524627 0.15163702
0.05890594 -0.06852604 0.10034682 -0.07299609 0.032302793 -0.031760857 -0.10486666 0.11957409
0.11683131 0.089822985 -0.015665077 -0.030701613 -0.02618561 0.09469431 0.12453548 0.121401936
-0.012552169 0.067585215 -0.003360585 0.058045756 0.04609781 -0.08706266 0.12517971 -0.053722877
0.0060705706 -0.058659505 -0.028426616 0.11809904 0.114190854 0.12775502 -0.091915 0.12569386
-0.06336056 0.0033123977 0.120804615 0.038813688 0.06627507 0.04848014 -0.08502934 -0.041943192
-0.049941394 0.054264057 0.039231047 -0.064190365 0.109441884 0.03467157 0.0817216 0.057340715
-0.1021259 0.04137214 -0.10165609 0.057015434 0.13550404 0.047243733 0.078036964 0.07447409
