artifacts/model_exp-07_do-0.1_20251104T051227Z.pt (torch, 52209 bytes, 5 tensors)

net.0.weight f4 [128, 29]
000000 d8 5e 18 3e 48 9e 10 3e 3c 9a 5c bd 19 74 06 3e
       0.1487993 0.1412288 -0.053858027 0.13130225
000010 ce 61 a6 bd 0e 5a 9c 3d 54 10 d7 bd 2f 8f 10 3e
       -0.081241235 0.07634364 -0.10501161 0.1411712
000020 b8 8d 59 3e f2 b0 03 be 36 24 32 3e 17 6b 98 3d
       0.21245468 -0.12860468 0.17396626 0.07442301
000030 31 d8 2c 3e 0f 52 38 3c 72 f0 5d 3d 0e cb 3b bd
       0.16879345 0.011250033 0.054184385 -0.045847945
000040 5f a9 39 3e 4e 6b 85 3d 59 4d 73 bd 62 2c ae 3d
       0.18131016 0.06514607 -0.059399936 0.08504559
000050 fa 85 63 bd 63 b9 97 bc 19 15 3a bd 5d 48 fc 3d
       -0.055547692 -0.018521016 -0.045430277 0.1231849
000060 b0 19 16 be f8 52 af bd ca c6 56 bd 96 aa e4 bd
       -0.14658237 -0.08560747 -0.052435674 -0.11165349
000070 bf 93 8f 3c 29 73 50 be 54 b7 25 3e 51 97 33 be
       0.017526506 -0.2035643 0.16183215 -0.17538191
000080 c7 65 e4 3d f4 af d8 3b a6 30 71 bc d3 1e 05 3e
       0.11152225 0.006612772 -0.014721071 0.1300004
000090 a4 0b 67 3d 28 d0 3a 3e e1 65 0b 3d 3e 86 43 bd
       0.056407586 0.18243468 0.034032706 -0.047735445
0000a0 e7 2f 28 3d 55 56 11 bd 8c b1 6f 3d 1a 3c 28 3e
       0.04106131 -0.035482723 0.05851893 0.16429177
0000b0 ab c2 01 3e 04 32 d1 bd f5 9a e6 3d d8 d8 03 3d
       0.12671916 -0.10214618 0.112600245 0.03218922
0000c0 0b c2 be 3d 67 51 ec bd ed e2 16 be 4f 93 84 bd
       0.093143545 -0.11538964 -0.14735003 -0.064734094
0000d0 d8 d9 11 be f2 06 1c 3e 37 14 5b 3d ef 86 9d 3d
       -0.14243257 0.15237024 0.053486075 0.07691752
0000e0 02 8d 70 3d 4c b4 53 bb ca 0f 0c 3e fb 5e 16 be
       0.058728226 -0.003230351 0.13677898 -0.1468467
0000f0 3f d9 a9 bc ac 40 17 be 74 06 45 3d c6 87 7d bd
       -0.020733474 -0.14770764 0.048101857 -0.06189706
000100 7e a3 39 3d 67 b5 9f bd be da 22 3e e4 47 f5 bd
       0.045321934 -0.077982716 0.15903756 -0.11976603
000110 6b 2e d9 bd 30 20 b9 bd c0 d7 38 3e 34 40 54 3d
       -0.10604557 -0.090393424 0.18051052 0.05181904
000120 bb 03 36 3e 92 8b 26 be e8 3d 43 be 5d 21 e2 bd
       0.1777486 -0.1626418 -0.19066584 -0.1104152
000130 01 4d ce bd 2c dc a7 3d b2 a0 62 3d ab fd 17 3e
       -0.10073281 0.08196291 0.055329032 0.1484286
000140 56 ea b4 bd fe a0 01 be f0 c7 c9 3d 79 b8 99 bd
       -0.088337585 -0.1265907 0.09852588 -0.075058885
000150 ca d0 e6 3d 27 7e 34 bd 27 8d d9 3d ad 74 42 be
       0.11270292 -0.04406562 0.10622626 -0.18989821
000160 64 b9 ab bd e2 86 54 3d ff 49 a2 3c b1 25 3b bd
       -0.0838497 0.051886447 0.019810675 -0.045690242
000170 e7 e7 b0 3d 88 3c b7 3d 39 96 fa bd 01 d2 0e be
       0.08637982 0.08947092 -0.12235684 -0.13947298
000180 fd 6c 41 3e d7 07 8d bd 2f 7b 77 bd af 98 03 be
       0.18889232 -0.06886261 -0.06042021 -0.12851213
000190 f9 02 f3 bd 03 db 4f 3d cc 0b b1 3b 89 30 13 be
       -0.11865801 0.050745975 0.0054030176 -0.14373983
0001a0 aa a5 b8 3c 8c 6d d9 bd 54 b6 1a be 4f c0 de bd
       0.022539932 -0.106165975 -0.15108615 -0.10876524
0001b0 d9 d8 4d be 24 c0 f6 bd e1 13 3e 3e ea a8 0f 3d
       -0.20102252 -0.12048367 0.1856227 0.0350732
0001c0 86 63 6a 3d 10 5a 31 be 14 c6 f9 bd 3f 2c 7d bd
       0.05722382 -0.17319512 -0.121959835 -0.061809774
0001d0 25 76 49 bc ee 04 0b be 0b f9 cf bd 30 30 10 be
       -0.012296234 -0.135761 -0.10154923 -0.14080882
0001e0 c0 27 76 bc 7a d0 48 bd 69 71 96 3b 7b 87 31 be
       -0.015024126 -0.049026944 0.0045911563 -0.17336838
0001f0 17 1a 1e be 73 5f 0f be e2 39 fa bd dd 2a 1b be
       -0.1543964 -0.14001255 -0.122180715 -0.1515307
000200 00 6e 1c 3e 83 c2 17 bd 14 a2 1e 3e c9 4b 99 3d
       0.15276337 -0.037050735 0.15491515 0.07485158
000210 82 18 23 be 49 1e 1d 3e 21 1b 0b bd 34 c0 86 bd
       -0.15927318 0.15343584 -0.03396142 -0.065796286
000220 dc f3 21 be e6 5f 29 be 65 2a 1e 3d 72 26 26 bd
       -0.15815681 -0.16540489 0.03861465 -0.040564008
000230 a8 0f 94 3d 02 0d 1c be a6 2c 0d 3e f1 94 0b be
       0.07229549 -0.15239337 0.13786563 -0.13631035
000240 35 56 03 bd 21 86 d4 3c fd d5 aa 3d 30 9e 05 3e
       -0.032064635 0.025942864 0.08341596 0.13048625
000250 59 d1 0f 3e 53 14 30 be 5d 16 50 3d 86 56 7e bd
       0.14044704 -0.17195253 0.050802577 -0.062094234
000260 c9 54 8a bc 7a ac 01 be 9a b7 1b 3e 9d 5f e6 bd
       -0.016886132 -0.12663451 0.15206757 -0.112487055
000270 35 b4 b1 3d 4b 74 9d 3d a2 3d 83 3d 01 e5 96 bd
       0.0867695 0.07688197 0.0640824 -0.07367898
000280 68 42 18 3e ba ed 97 3c e0 14 1f ba 15 86 1d be
       0.14869082 0.018545974 -0.0006068479 -0.1538318
000290 8a a9 47 3d c8 2b 66 bd f1 ad 8c bd d6 bf 0b 3e
       0.04874567 -0.056194097 -0.06869114 0.13647398
0002a0 a0 93 29 3d cb 69 d2 bd 97 7c c0 bd 26 4b 11 bc
       0.04140055 -0.10274085 -0.093987636 -0.008868014
0002b0 d9 58 d4 3d 70 5c 42 bd b4 aa 03 be 40 33 9c bd
       0.10368509 -0.047451437 -0.12858087 -0.07626963
0002c0 eb 5e 1e be 0a a8 3d 3d 32 db 03 3e 72 21 28 be
       -0.15465896 0.046302833 0.12876585 -0.16419008
0002d0 77 26 32 3d 20 11 bb 3d 9e 82 5b 3d 29 fc b7 bd
       0.043493714 0.09134126 0.053591363 -0.089836426
0002e0 23 9c e0 3d 4c 7d c4 3d 6f d9 95 3d c2 63 3d bd
       0.10967281 0.09594211 0.07316863 -0.046237715
0002f0 90 0e 8f bd d1 0e 3d 3d fc cb 0a 3d a0 6a 26 bd
       -0.069851995 0.04615671 0.03388594 -0.04062903
000300 74 e8 02 3e 7e 02 2f 3e 2b 8b ba 3c 0e bf 0a bd
       0.12783986 0.17090794 0.022771439 -0.03387361
000310 70 11 8b 3c 85 a8 35 bc d8 db 36 3d e1 25 55 3d
       0.016976088 -0.0110875415 0.044643253 0.052038077
000320 f5 b4 2c be b7 58 8c bd f4 21 20 3e df 0c 9d 3d
       -0.16865905 -0.068528585 0.15637952 0.076684706
000330 ae a3 d9 bc df d9 0f be 37 ee 08 be 13 c3 3d be
       -0.026567306 -0.14047955 -0.13372122 -0.18531446
000340 16 a0 d3 bc ab 7e 6d 3d 4a 26 f5 3d b2 dd ab 3d
       -0.02583317 0.057982128 0.11970194 0.083918944
000350 c4 1f 32 be ee cc 0c be f2 36 8a bb fd c9 41 3e
       -0.1739493 -0.1375005 -0.004217976 0.18924709
000360 56 8f bb bb 0b 55 94 bd 37 5d bf 3d 95 ed 6f bd
       -0.005723874 -0.07242783 0.09343951 -0.058576185
000370 1e 09 bf bd 46 b7 0d 3e 3f cc 87 bd a6 c2 d1 bc
       -0.09327911 0.13839445 -0.06630754 -0.02560551
000380 d1 c1 36 be d4 07 fe 3d d6 10 10 3e e3 99 8a 3d
       -0.17847373 0.12403837 0.14068922 0.06767633
000390 8e 96 04 be 2b ab 3b be fe 6f 1a be e1 cb 0d 3e
       -0.12948057 -0.18327014 -0.15081784 0.13847305
0003a0 9a 0a a9 3d 82 41 17 3e 0a df dc 3d f4 aa 1f 3d
       0.08253975 0.14771083 0.10784729 0.038981393
0003b0 89 58 ee bb 5d 10 fb bd b9 59 10 be 16 e7 1f be
       -0.007273738 -0.122589804 -0.14096726 -0.15615496
0003c0 6d 90 82 3d 9c b2 9e bd 50 0c cd bc 85 1d b0 bd
       0.06375203 -0.07748911 -0.025030285 -0.085993804
0003d0 84 ca b3 bc ca a3 e4 bd 06 54 da bd 17 74 2b 3d
       -0.021947153 -0.11164053 -0.106605574 0.04185876
0003e0 b5 d2 9a bd 5f 25 d1 3d a9 73 1f bd f3 f9 1a be
       -0.075597204 0.10212206 -0.03892866 -0.1513441
0003f0 08 21 58 bd 3a 30 93 bd 93 a1 82 bd 1e 06 35 be
       -0.052765876 -0.07186933 -0.06378474 -0.17678115

net.0.bias f4 [128]
000000 45 ae 47 bd 49 e5 9d 3d 7a 7a 37 3e 2a ed b9 3b
       -0.04875018 0.07709748 0.17917815 0.005674024
000010 8c 92 88 3d a3 e5 1b bc b7 f0 30 3d 5d 06 27 3e
       0.066685766 -0.009515199 0.043198314 0.16311021
000020 e5 92 9d 3d aa 4b 02 be b0 15 65 3e 5e 0a ea 3d
       0.076940335 -0.12724176 0.22371554 0.11427759
000030 df b5 0f bc 9a f8 4c 3e 8e 34 20 3d 46 f2 2b 3e
       -0.008771389 0.20016709 0.03911262 0.16791639
000040 ee 45 d5 bd 13 dd 57 3e d2 92 5a 3e e2 31 f1 bd
       -0.10413729 0.21080427 0.2134507 -0.117770925
000050 10 3d 0d be e7 6e d6 bc cb fb 5d bd 96 0a 52 3d
       -0.13792825 -0.02617593 -0.054195207 0.051279627
000060 68 59 ee 3d f8 33 2a bc 12 01 0a 3e 50 55 36 3d
       0.11638147 -0.010388367 0.13476971 0.044514954
000070 cd a0 a5 bc 66 75 e1 bd cd fa e9 3d 4f 56 43 be
       -0.020218277 -0.1100872 0.114247896 -0.19075893
000080 5b f5 a8 3c 6b ef 97 3d e4 0e 80 bd 4d 0c c4 3d
       0.020624807 0.07418712 -0.0625284 0.09572659
000090 d7 51 92 3d 5e c9 24 3e 17 7a 31 3e 33 17 15 be
       0.07144516 0.1609244 0.1733173 -0.14559631
0000a0 0c fd 09 be 03 c7 36 bd 9b 9a cb bd 6b 1a ca 3d
       -0.13475436 -0.044623386 -0.09941598 0.0986832
0000b0 51 04 c0 bd 0a ac dd bd ca bc c1 3d d3 7f 06 3e
       -0.09375823 -0.108238295 0.09459837 0.13134699
0000c0 30 1a 7a bd 2b 0a 3b be c5 9d 8d 3d a6 8b 0d 3e
       -0.06106013 -0.18265598 0.06914858 0.13822803
0000d0 1e 65 4b 3e 32 a9 bd 3c 32 d7 34 3e 6a 8f 10 be
       0.19862792 0.023151968 0.17660215 -0.14117208
0000e0 e0 cb 64 3e eb 27 0e be dd 00 ba bd 29 4f 15 3e
       0.22343397 -0.13882415 -0.09082196 0.14580978
0000f0 30 79 c7 bb 44 60 09 3e 6f 45 bf bd 42 67 33 3e
       -0.0060874447 0.13415629 -0.09339415 0.17519858
000100 bc 8a 52 3e 44 a4 c8 3d 0e 33 48 3e 93 64 cc bd
       0.20560735 0.09796956 0.19550726 -0.099801205
000110 b7 bc 0f bc 82 c3 c8 3d 7b 2e 41 3e 20 9f 66 bd
       -0.0087730205 0.09802915 0.18865387 -0.056304097
000120 ea cb 29 3e 87 c3 d0 bc 1a f0 74 bd be 7c 5f 3d
       0.16581693 -0.02548386 -0.05979929 0.054562323
000130 cc cc 07 be d0 8b 1a be 45 d6 d0 3d b1 29 73 3d
       -0.13261718 -0.15092397 0.10197119 0.059365932
000140 e7 26 d6 3d 51 c4 91 3c ed 36 d6 bd 23 19 de bd
       0.10456639 0.017793806 -0.10459695 -0.10844638
000150 57 0e 68 3e 2c ef fc bd 58 1f bb 3d 0e b0 31 3e
       0.2266172 -0.12350306 0.09136838 0.17352316
000160 1a 17 44 3e 1e da 01 bd 76 6c 0c bc 87 a4 33 be
       0.19149438 -0.031702153 -0.008570781 -0.17543231
000170 46 98 40 3e 75 24 38 be af 3d 16 be 3c ee b3 bd
       0.18808088 -0.17982657 -0.14671968 -0.08785674
000180 13 17 5b 3e 69 95 16 3e 24 62 ec 3d ca 97 e1 3d
       0.21395521 0.14705433 0.11542156 0.110152796
000190 62 c2 09 bd c2 14 93 bd c0 56 8a bd 6c 98 67 3d
       -0.033632644 -0.071816936 -0.067548275 0.056541845
0001a0 0c ca 1e 3d 1b ec 54 3d fa ac e8 bd c5 b8 93 3c
       0.038766906 0.05198298 -0.11361118 0.01803244
0001b0 6c 4c 94 bd 52 6b 47 bc 46 25 80 3c 29 91 85 3d
       -0.07241139 -0.012171583 0.015642773 0.06521828
0001c0 81 7b 29 be 0c 2e 3d 3e fe 46 61 bd 8c df c5 3d
       -0.16551019 0.18474597 -0.054999344 0.09661779
0001d0 9f 4d 34 3e 88 af 9d 3d 37 3c 27 3e 8b cd 49 3e
       0.17607735 0.076994956 0.16331564 0.19707315
0001e0 ea fd 2c 3e dd 26 1d 3c 73 3a 21 3e aa 65 67 bd
       0.16893736 0.009591785 0.15744953 -0.05649344
0001f0 5e f1 7e bd 65 26 0f 3e 6a d8 9f 3d 52 88 dc 3c
       -0.062241904 0.1397949 0.078049496 0.026920471

net.3.weight f4 [64, 128]
000000 c5 95 2f bd 75 e9 39 3d a4 ff 9f 3d 8d 83 4c 3c
       -0.04286744 0.045388658 0.078124315 0.012482536
000010 88 cb 32 3d 83 f0 81 3d da 9d 94 bd fb e7 9f 3c
       0.043651134 0.06344702 -0.0725667 0.019519797
000020 28 aa 02 bc b1 af 51 bb 92 af bb 3d 8f 9c 00 3e
       -0.007975139 -0.003199559 0.09164347 0.12559722
000030 10 73 24 3d 75 b7 ae 3d 92 56 2d bd f0 f7 51 3d
       0.040148795 0.085310854 -0.042318888 0.051261842
000040 47 60 a9 3c f1 5b b1 bc b1 ec 59 3d 23 c7 23 3d
       0.020675791 -0.021650286 0.053204242 0.039984833
000050 3d e3 cd 3b c1 02 85 3d dd 02 98 3d d6 0b d5 3d
       0.0062831924 0.06494666 0.07422421 0.10402648
000060 36 d4 b5 3c d9 c2 ec 3c e5 4a 0f 3d d5 75 6d 3d
       0.022195917 0.028901504 0.034983534 0.0579737
000070 3b d9 2c bd af 1e f9 3c 67 ee 25 bd 53 d9 85 bd
       -0.042199355 0.030410139 -0.04051056 -0.06535592
000080 ad e2 49 bd 2e 49 b8 3d 7a 14 e2 bc 0b 58 b8 3b
       -0.04928844 0.08998333 -0.027597655 0.00562573
000090 79 f0 b8 3c ab 47 be 3d 7b 38 9c 3d 4e ee 18 bd
       0.022575604 0.09291013 0.0762796 -0.03733664
0000a0 bc 45 03 3e fd 44 90 bd d1 51 3c 3d d8 37 e5 3d
       0.1281957 -0.070444085 0.045976464 0.11192292
0000b0 be e8 d4 3d d3 e1 c6 ba 06 56 26 bd 0a df 86 3d
       0.103959545 -0.0015173502 -0.040609382 0.0658551
0000c0 5f 61 97 3d d0 d2 a3 bc 64 db 39 3c 4b ee de bc
       0.07391619 -0.019997984 0.011343811 -0.027213236
0000d0 d9 15 8a 3d 12 71 76 3d c7 fe 90 3d d8 1b f3 3a
       0.06742448 0.060166426 0.07079845 0.0018547727
0000e0 87 8a 40 bd c1 ba 24 bc cd 0d 47 bd ad 1b ec 3b
       -0.04700711 -0.010054291 -0.048597146 0.0072054476
0000f0 6c 6e 8e 3d 64 71 0c bd bd 40 81 3c 88 7c 63 bd
       0.06954655 -0.034287825 0.01577794 -0.055538684
000100 7d 4b 2c bd 08 87 3a bd f7 10 2d bc fc 2a a0 bc
       -0.04206418 -0.045538932 -0.010563127 -0.019551747
000110 be f3 77 3d 93 6f a5 3d 89 02 f3 3d 7b 80 90 3d
       0.060535185 0.08077922 0.11865718 0.07055756
000120 ed 74 33 3d dd b2 3d 3b bd 3c b6 3d 3c d5 b4 3b
       0.04381268 0.0028945722 0.08898304 0.0055185836
000130 81 dc b5 3d 8d 57 92 bd 42 95 20 bd 4e de 70 3d
       0.088799484 -0.07145605 -0.039204843 0.058805756
000140 dc 3f d0 bc 09 4f 36 3d 8d ab c8 3d 65 13 95 3d
       -0.025421076 0.044508968 0.09798346 0.0727909
000150 81 a1 f1 3d 10 af d9 bc 9d 43 e7 bc d3 9f 60 3c
       0.117983826 -0.026572734 -0.028230483 0.01370998
000160 c6 7f 80 3c f5 99 34 3c 6f 0d 61 3c b6 72 d1 3d
       0.015685927 0.011023034 0.013736113 0.102269575
000170 32 69 23 3a 76 b1 a7 3d 67 42 74 3d 41 f0 85 3d
       0.0006233632 0.08188145 0.05963364 0.065399654
000180 6e 36 47 3d 09 cd 40 bb 8b df 95 3d 70 7b 57 bc
       0.048635893 -0.0029419085 0.07318028 -0.013151988
000190 1c a7 9c bc 1c 65 e2 3d 11 9e be 3d 32 1e ce bc
       -0.019122653 0.11054441 0.093074925 -0.025160883
0001a0 4c 8d b2 3d 81 19 30 3d 32 d6 4d 3d 7d 77 f2 3d
       0.087183565 0.042993072 0.0502531 0.11839197
0001b0 12 67 4a 3c 12 81 86 ba d3 1d b4 3d 9a 40 58 3c
       0.012353675 -0.0010261855 0.08794751 0.013198996
0001c0 a7 2d e7 3b 55 bf 62 3c f0 a0 da 3d 5d 05 9d 3d
       0.0070550027 0.013839562 0.10675228 0.076670386
0001d0 01 9f 35 3c ce c8 ba 3c 85 4e c8 3c 56 04 61 b9
       0.011085273 0.02280083 0.024451504 -0.00021459287
0001e0 82 b7 2f 3d cb 93 1d bd fd 67 d6 3c 18 c1 95 3b
       0.042899616 -0.038471024 0.026172632 0.0045701377
0001f0 32 36 f8 3b a9 14 f2 3d a9 56 52 3d 6f c4 82 3d
       0.00757482 0.11820347 0.051352177 0.06385123
000200 81 dd 96 bd 5f 99 9f bb 1c fa 10 3c 52 3e e3 3c
       -0.07366467 -0.004870578 0.008848693 0.027739678
000210 bf 71 32 bd 26 47 17 bd 23 2e b9 bd 90 a7 1a 3d
       -0.043565508 -0.036933087 -0.09042003 0.037757456
000220 ab a0 26 3d 5b 0d b5 3c 49 27 d6 3c 45 f1 0e 3d
       0.04068057 0.022101095 0.02614178 0.03489806
000230 da 49 84 3d 84 30 4c 3c 06 73 63 3c fc 2f 48 3c
       0.064593986 0.012462739 0.013882404 0.012218472
000240 5b fb 89 bd ec 35 65 3b 82 3e 1c 3c cd 6b b0 bd
       -0.067373954 0.0034974767 0.009536387 -0.08614311
000250 8f 20 29 bd 13 50 8c bd 17 01 94 bd db 3f 36 3d
       -0.041290816 -0.068512104 -0.0722677 0.04449449
000260 52 20 4e 3d a8 6d ed bc 69 31 2f 3c a5 c3 1b bd
       0.05032379 -0.028982952 0.010692933 -0.038028378
000270 25 28 9b 3a f9 6c 02 bd 07 a6 81 bd ce 80 5a bd
       0.0011837526 -0.031842206 -0.06330495 -0.053345494
000280 a7 db 90 3d 6f 7a 7c bb dc 46 88 bd 14 76 1b bc
       0.07073145 -0.0038525125 -0.0665414 -0.009488601
000290 d2 c2 d4 bd 62 f6 7e bc 56 47 41 3d 6d c1 c6 bb
       -0.103887215 -0.015561672 0.047187172 -0.0060655386
0002a0 d3 5a 98 3b 80 e5 d0 bd 4b ad fe bc 86 77 12 3d
       0.004649499 -0.10200024 -0.031088492 0.035758518
0002b0 f7 dc a5 bd 3c 1b 6d bd 28 93 23 3d f3 6f 11 3c
       -0.08098786 -0.0578873 0.03993526 0.008876788
0002c0 a0 df c0 3c 71 b7 c4 bd df c0 1a 3d 0e ca 12 bd
       0.023544133 -0.09605301 0.037781592 -0.035837226
0002d0 f3 c3 30 3a 6e d8 60 3d 7a b6 ca bd b4 29 0c 3c
       0.0006743066 0.054893903 -0.09898086 0.008554865
0002e0 d5 d3 c6 bd 74 4c 50 3d 3e b1 d1 3b 00 b9 c5 bb
       -0.097083725 0.05085416 0.0063993027 -0.0060340166
0002f0 ef dd 54 bd 8d eb 87 3c 25 84 73 bd 18 01 f0 ba
       -0.051969465 0.016591812 -0.059452195 -0.0018310873
000300 1f 33 67 3d 16 18 ae bd 36 c9 31 bd e4 a5 96 3b
       0.056445237 -0.08500688 -0.04340478 0.0045974124
000310 6c e3 5f bb 1f 5f 8f bc 56 ba 6c 3d 54 98 31 bd
       -0.0034162654 -0.017501412 0.05779489 -0.043358162
000320 43 72 dc 3b bf 9c f8 3c 7a d3 0b bd 01 e6 1d 3d
       0.0067274882 0.03034818 -0.034137227 0.038549427
000330 16 59 18 3d 77 4e 92 3c 41 d5 10 bd 75 3e 74 3d
       0.037194334 0.01785968 -0.035359625 0.059629876
000340 08 a1 90 bd 4d 4a 01 3c 69 33 89 b7 77 d2 38 3d
       -0.07061964 0.00789125 -1.6355612e-05 0.04512259
000350 e9 54 b8 bd 9e 00 58 bb e8 de 90 bd 0a 69 fb 3c
       -0.0900057 -0.0032959352 -0.07073766 0.030689735
000360 34 fa 6b 3c 12 04 b0 bd 1c 68 b2 bc c1 0f 03 3c
       0.014402915 -0.08594526 -0.021778159 0.0079993615
000370 6a 9e a3 3c e7 94 71 3d 90 c7 c2 3c 05 a0 99 b9
       0.019972999 0.058979895 0.0237768 -0.00029301658
000380 78 e9 ea 3c 6f 76 cd bd 04 d7 31 3d 7e fd d7 bc
       0.02867578 -0.10032355 0.043417946 -0.026365992
000390 db 30 f6 3c 80 28 14 3c 9e 60 a5 bc 50 16 3d 3d
       0.030052593 0.009042859 -0.020187672 0.046163857
0003a0 f4 0c 8d bd b1 13 2a 3c 1a ae 94 3c bc e1 47 bd
       -0.06887236 0.010380671 0.018149424 -0.04879926
0003b0 1a 84 7e 3c 00 d1 d6 bd 9a f0 80 bd b1 77 d1 3c
       0.015534425 -0.10489082 -0.06295891 0.025569769
0003c0 f0 ac fe 3c f8 2f c6 bd 17 96 54 3c 60 db 21 bc
       0.031088322 -0.09677118 0.012975237 -0.009878963
0003d0 3a 46 8d 3d f5 9d d2 bd 8b 62 1b bd b7 5f 8a bd
       0.0689816 -0.10284034 -0.037935775 -0.067565374
0003e0 96 3f 8d bd fc 3e 02 bd 80 42 c7 bd 17 99 5c 3d
       -0.06896894 -0.031798348 -0.09729481 0.053856935
0003f0 d8 b2 47 bd 18 08 65 3c 7d c2 8a bd f9 35 7f bc
       -0.048754543 0.0139789805 -0.06775377 -0.015576833

net.3.bias f4 [64]
000000 e1 20 05 3e ba ad 39 bd 92 50 1b bd 21 79 4d bc
       0.13000824 -0.045331694 -0.037918635 -0.012541086
000010 9b 18 46 3d 32 7d b9 3d e3 48 4b 3d f5 d1 a2 3d
       0.04836331 0.09057082 0.049630057 0.079502024
000020 c6 71 d1 bd 00 35 b6 bc df d7 d6 3c 2a 2e ed bb
       -0.10226779 -0.02224207 0.026225982 -0.007238169
000030 75 48 94 bd e7 3f 27 3d 1a 63 11 bd ff 3a 3f 3d
       -0.072403826 0.040832426 -0.0354949 0.046687122
000040 86 6b 01 3c 45 cb c7 3c 49 78 cf 3c fe 7c 63 b8
       0.007899171 0.024388919 0.025325911 -5.4237426e-05
000050 2b dc ea 3d 1d 54 d2 bb 4a 0e f3 3d 24 a7 ba bc
       0.11467775 -0.0064187185 0.1186796 -0.022784777
000060 28 fb 49 bd f4 51 05 3c 90 5b 65 3d 6f 72 c4 3c
       -0.049311787 0.008137215 0.055995524 0.023980347
000070 f6 52 24 3d 2a 4f 00 3e e3 27 32 3d 67 a4 a9 bc
       0.04011818 0.12530199 0.04349507 -0.020708276
000080 8f 60 7f 3d a0 f9 1e 3d bd f3 1f 3d 33 42 a4 3d
       0.062347945 0.03881228 0.039050806 0.08020439
000090 50 3e ad 3d d1 df 94 bd fb bf 2d 3d 07 1d f8 3d
       0.08459151 -0.07269252 0.042419415 0.121149115
0000a0 63 11 84 3c 9f a3 20 bd 50 fc 41 3c 26 d1 ca 3c
       0.016121572 -0.03921854 0.011839941 0.024757933
0000b0 1f b1 d2 bc 3a 5c bf b9 28 fc 2a 3d 6d 61 8a 3d
       -0.025719224 -0.00036499073 0.04174438 0.06756864
0000c0 41 f8 84 3d fd 0d 0f 3d 4a d1 55 3d 60 2b 38 bc
       0.06492663 0.03492545 0.052201547 -0.01124081
0000d0 7e 5a 3a 3d 99 ff 49 3d f2 88 8f bd b6 65 0e 3e
       0.045496456 0.049316023 -0.07008542 0.13905987
0000e0 8d 57 06 3c 73 3b b4 bc 6d 35 61 bd fd d4 0e bd
       0.008199585 -0.022001004 -0.05498259 -0.03487109
0000f0 cb 82 b9 bd 5b 09 bc 3d 0f fa 7e bb c2 31 85 bd
       -0.0905815 0.09181472 -0.003890637 -0.06503631

head.weight f4 [1, 64]
000000 9f b8 36 3d f3 6d bc bd d4 79 6d 3d 09 c7 37 3c
       0.044609662 -0.09200659 0.057977512 0.011216887
000010 cb 7c 43 3a ec 40 41 3d 5d ac 1e bd b9 d8 d6 3d
       0.0007457255 0.047181055 -0.038738597 0.10490555
000020 bb 39 9f bd 66 e3 f3 3c 4c f4 f3 3d d5 8e 50 3d
       -0.07774683 0.029771518 0.1191183 0.050917465
000030 ec 68 9e bd a6 91 0a 3e b3 d5 6a bd 8a 1e 09 bd
       -0.07734856 0.13532123 -0.057332706 -0.03347639
000040 13 e1 bb 3d 8a 9d 78 bd c4 a8 0d 3d d0 15 89 3d
       0.09173789 -0.060697116 0.034584776 0.066936135
000050 bd 25 b4 3d 43 e0 7c bd 88 6e 05 3e 51 00 d5 3d
       0.087962605 -0.06173731 0.13030446 0.10400451
000060 8d 5d 08 bd a9 16 19 3d ed ec fa bc 49 fb 40 bd
       -0.033292342 0.037375126 -0.030630553 -0.047114644
000070 ca ea fb 3d 0c 71 eb 3d ed 8b 91 3d 14 2b f5 3d
       0.12300642 0.11496171 0.07106767 0.11971107
000080 86 3a d5 bd 76 33 2c 3d 97 91 3c bd 67 44 b5 3d
       -0.10411553 0.042041264 -0.046037283 0.08850937
000090 cb b5 29 3d 03 88 aa bd 73 d5 22 3d da dd 9e 3d
       0.041433137 -0.083267234 0.039754342 0.077571586
0000a0 cc dc b5 bc de a4 d1 3b 3a ab 98 bd 0f 81 00 3e
       -0.02220001 0.0063978275 -0.07454534 0.12549232
0000b0 fb 67 d7 bd 69 ee 75 bd a3 a3 a5 bd a3 d4 25 bd
       -0.105178796 -0.06004182 -0.08087852 -0.04048599
0000c0 94 8a 5c bd 0c 65 8e 3d 0a f6 f1 3d fa b5 12 3d
       -0.053843096 0.06952867 0.11814506 0.035818078
0000d0 93 a6 6b 3d 20 75 e6 3d f9 8c e4 bd de ca 34 3d
       0.057531904 0.112528086 -0.11159701 0.04413878
0000e0 81 f6 9b 3d d9 a8 31 3d be 83 1e bd 5f a3 c8 bc
       0.07615376 0.043373916 -0.038699858 -0.024491964
0000f0 ad 83 50 bd 0f d1 0c 3e 85 6f 25 bd af ba 1f bc
       -0.050906826 0.13751625 -0.040389556 -0.009749099
