artifacts/model_exp-11_skip_seed1_20251104T051617Z.pt (torch, 60507 bytes, 7 tensors)

net.0.weight f4 [128, 29]
000000 b4 13 e4 3d b0 e6 0f bd b6 9a ac bd 4a 3a 2b 3d
       0.111365706 -0.03513211 -0.08427946 0.041803636
000010 6f 47 57 be f8 f5 08 3e 25 3e 4f bd 35 5a fa 3d
       -0.21023344 0.1337508 -0.050596375 0.12224237
000020 f3 16 0c 3d 6b 41 5e bd 82 ff 87 3c 34 ea 8b 3c
       0.034201574 -0.054261606 0.016601328 0.01707945
000030 68 fb ce 3c e9 13 ce bd 9d 6d 92 bc ff c2 c1 bc
       0.025266364 -0.10062391 -0.017874533 -0.023652552
000040 34 20 de 3c a6 ad 47 3d db ab 41 3e 5f 8e a0 3d
       0.027114965 0.04874959 0.18913214 0.07839655
000050 f5 97 84 bd 51 b3 c3 bd d7 96 67 bc 66 0a a4 bd
       -0.06474296 -0.09555686 -0.014135084 -0.08009796
000060 59 bc 73 bd 32 ad 11 3c b5 b5 e2 3d 8e b5 ce 3d
       -0.059505794 0.008891391 0.11069814 0.100932226
000070 1e e2 39 be bd 95 21 3e a9 d2 40 3d 36 3b 3c 3e
       -0.18152663 0.15779777 0.0470759 0.18381962
000080 2a 2b ea 3d db 9f 1d be 87 18 18 be 98 45 b1 bd
       0.11434014 -0.15393011 -0.14853106 -0.08655852
000090 44 db 5a 3e 77 a0 84 bd 78 7c cc 3d a4 c2 8a bd
       0.21372706 -0.06475919 0.09984678 -0.06775406
0000a0 d0 55 69 3e 08 7d a1 bd 45 9f 0b 3e cc e8 ef bc
       0.22786641 -0.07885176 0.13634975 -0.02928581
0000b0 20 f5 f6 bd 85 1e ed 3d 86 95 69 bd ec bb d9 3d
       -0.12058473 0.11578087 -0.057027362 0.106315464
0000c0 d0 42 18 bd 09 ce 12 bd 33 8f 1f be c9 fb 69 bd
       -0.037173092 -0.03584102 -0.1558197 -0.057124887
0000d0 ac 5d ce 3d f5 e2 38 bd 9d 66 3d 3e 75 6c 18 3e
       0.1007646 -0.045138318 0.18496175 0.14885123
0000e0 2c 75 0e bc b6 d8 fd bd 70 35 23 3e a2 8f 33 3c
       -0.008694928 -0.1239485 0.15938354 0.010959538
0000f0 65 d3 0f be 34 91 c6 3d 9e 67 ca 3d fd f2 21 3e
       -0.14045484 0.09695664 0.09883045 0.15815349
000100 19 31 09 be f8 74 87 bc c0 b2 08 bd ab 93 46 3d
       -0.13397636 -0.016535267 -0.033373594 0.04848067
000110 5b 74 0c be 0c cb f8 bd 37 0b f1 3d ec 2a 3a bd
       -0.13716261 -0.12148103 0.11769717 -0.04545109
000120 9d 33 e5 3d df fb 39 bc 65 b1 4a 3c d3 ac 3b 3d
       0.11191485 -0.011351555 0.012371396 0.045819115
000130 e5 36 bd 3d cf ad aa 3d 6e 09 56 be ad 09 b0 3d
       0.09238986 0.083339326 -0.20902035 0.085955955
000140 27 85 11 be ae 78 0f be 0d 06 39 3c f3 9c 01 bd
       -0.1421095 -0.1401088 0.0112929465 -0.03164382
000150 99 5c df 3d 65 3f dc bd ae 0a 29 be 87 b0 31 3e
       0.109063335 -0.10754279 -0.1650798 0.17352496
000160 f4 70 04 bd 41 44 b8 3d 44 cd 7e 3d eb 69 ff bd
       -0.032334283 0.089973934 0.062207475 -0.12471374
000170 62 27 8b 3b 05 a1 79 3c 29 ea 2f be f4 f8 a2 bd
       0.004246638 0.015236144 -0.17179169 -0.0795764
000180 9c d8 9c 3d 91 87 26 3d f7 9c da bd b8 3e 77 bd
       0.076585025 0.04065663 -0.1067447 -0.060362548
000190 9c b5 17 3e c8 81 23 bd 5b e6 07 3e 32 b9 0b 3e
       0.14815372 -0.03991869 0.13271467 0.13644865
0001a0 8e e5 87 bd b0 7b 24 be 2f 54 5e 3e 93 a0 47 3d
       -0.06635581 -0.16062808 0.21711801 0.04873712
0001b0 76 89 ef 3d 9d ed 65 3d fc a0 74 3d 23 09 0e 3e
       0.116961405 0.05613481 0.05972384 0.13870673
0001c0 10 4e 34 3e d0 5c fc bd 33 32 be 3c 00 e7 0d 3e
       0.17607903 -0.1232239 0.023217296 0.13857651
0001d0 a6 96 b5 3d 95 71 9e 3d eb 7f 35 be d6 85 46 be
       0.088666245 0.07736508 -0.17724578 -0.19386992
0001e0 75 bd 1c be 88 a4 d5 bb 0d 1d 18 3e 96 7c 00 be
       -0.15306647 -0.006519858 0.14854832 -0.12547526
0001f0 22 ad 0b 3e f4 e9 e5 bd 4a f1 63 be 38 98 a5 bd
       0.13640264 -0.11226264 -0.22260013 -0.08085674
000200 20 99 e6 3d 8c 7c 16 3e a8 ed ef bd 4f f5 70 3d
       0.11259675 0.14695948 -0.11715251 0.058827695
000210 08 fb 54 3e 37 1a 33 3e e8 b3 03 3e ff 2c 14 3e
       0.20798886 0.17490469 0.12861598 0.1447029
000220 69 01 17 3e 10 38 0a 3d 7f 93 dd bd 89 ae 1f be
       0.14746632 0.03374487 -0.10819148 -0.15593924
000230 5e 43 ae bd af 23 b1 bc b4 1b e9 bd b9 22 8b 3d
       -0.08508943 -0.02162346 -0.11382237 0.06793732
000240 21 66 6b 3d 61 75 8f bd 95 8a 11 3d 97 38 77 3d
       0.057470445 -0.0700481 0.035532553 0.060356703
000250 1f 30 d6 3d 13 88 0d 3e 7a d7 97 bd a2 37 24 3e
       0.10458397 0.1382144 -0.07414146 0.16036847
000260 8f 25 cf bc e1 05 2f 3c e4 fb 39 be 34 dd fb bd
       -0.025286464 0.010682554 -0.18162495 -0.122980505
000270 64 65 17 be e4 85 92 bd 37 e3 f9 3d 7d 8d d2 bd
       -0.14784771 -0.07154444 0.12201541 -0.10280893
000280 36 a4 09 be 70 5a 18 3e 6f 1f e1 3d ed f5 19 3e
       -0.13441548 0.14878249 0.109923236 0.1503522
000290 68 c3 90 bd 84 15 9b 3d cf d6 7b bd 1f b4 39 bc
       -0.07068521 0.07572463 -0.061484154 -0.011334448
0002a0 20 89 17 be e6 53 ad bd 2e f1 68 bd a6 a1 a2 3d
       -0.14798403 -0.08463268 -0.056870632 0.07940988
0002b0 7f f4 0a 3d f8 e1 3b 3d 63 b5 35 3e fb d0 37 3e
       0.033924576 0.045869797 0.17744975 0.17950813
0002c0 12 41 1c 3e a5 97 47 3b 1e f2 f5 bd 33 9b 38 3e
       0.15259197 0.0030455377 -0.12009071 0.18027954
0002d0 05 61 9f bd 0a 4f 9f bc 00 f3 40 be 18 72 48 bd
       -0.07782177 -0.019446868 -0.18842697 -0.048936933
0002e0 4b 32 d2 bd 6e c8 64 3e ab 0f 27 be 2f f8 1f be
       -0.10263499 0.22342083 -0.1631457 -0.15622018
0002f0 18 a1 0b bd a0 20 f1 bd 90 47 c4 3d 1b d6 12 bd
       -0.034089178 -0.11773801 0.09583962 -0.035848718
000300 d7 4b 8c bd 56 10 c8 3c 72 b4 1a 3e 1c 23 03 be
       -0.06850403 0.024421852 0.15107897 -0.12806362
000310 87 e4 fb 3d b4 52 f4 3d 95 01 3a 3e e1 17 05 be
       0.122994475 0.11929837 0.18164666 -0.1299739
000320 2b 36 38 3d 80 9a 0c be a3 57 22 3e b0 7d 95 bd
       0.044973534 -0.13730812 0.15853743 -0.072993636
000330 b2 4f 06 3e 29 54 c8 bc a7 b8 a0 bd f6 83 65 bd
       0.13116339 -0.024454193 -0.0784772 -0.05603405
000340 7c 11 2e 3d cd f6 84 3d ff 4b e0 3c 77 f8 b2 3d
       0.042497143 0.06492386 0.027379988 0.08738797
000350 ae e5 5c be 01 3a 11 3e 47 38 16 3e ff 46 2d 3e
       -0.21571991 0.14182283 0.14669906 0.16921614
000360 1c 5a 08 3e 75 7b bb bd 22 8e b5 bd e3 dc 07 3e
       0.13315624 -0.09154407 -0.08865 0.13267855
000370 a5 73 1a be 61 c4 36 3e 69 df 34 be f1 13 23 be
       -0.15083177 0.1784835 -0.17663349 -0.15925576
000380 f8 d8 b5 3d c8 73 2c be 7f 41 2e bd 84 55 0a 3e
       0.08879274 -0.16841042 -0.04254293 0.13509184
000390 07 9e 16 3e 5d d6 33 3e 35 57 1a bd 37 cc 13 be
       0.1470872 0.17562242 -0.037680823 -0.1443337
0003a0 c8 0c 51 3e 9c 82 5a bd ad 2d a3 bd 55 8b df 3c
       0.20415032 -0.053347215 -0.07967696 0.027288118
0003b0 86 22 21 be 91 1b 0d 3e b3 9b ba 3d c3 6c 23 be
       -0.15735826 0.13780047 0.091117285 -0.15959458
0003c0 d2 3b 1d be 0a 98 ae bc 2d 84 7a 3d 11 00 9f 3b
       -0.15354851 -0.021312732 0.06116121 0.004852303
0003d0 c9 c1 e0 bd 45 12 1b 3c 6f cb 35 be ab 0b 27 be
       -0.109744616 0.009464805 -0.17753385 -0.16313045
0003e0 85 bd 26 be fe 04 1f 3e 27 af 3b 3e 96 19 b1 bd
       -0.16283233 0.15529248 0.18328534 -0.08647458
0003f0 26 6f d7 bc 03 e9 a8 3d 23 6a a1 3c 30 70 be bd
       -0.026298117 0.082475685 0.01970393 -0.09298742

net.0.bias f4 [128]
000000 9f 5d 00 3e 37 93 42 3e 60 90 15 3e be b8 f7 bd
       0.12535714 0.1900147 0.14605856 -0.12095784
000010 2b 3c 9a bd e6 4a e9 3d 1a a8 f9 bc 3d 91 c5 bb
       -0.075310074 0.11391239 -0.030475665 -0.0060292766
000020 e8 58 67 bc f5 0d ea bd ca 09 61 3c 3d cc 93 3d
       -0.014120318 -0.11428443 0.013735244 0.0721669
000030 b8 42 0c bc fc f1 8e bd 2b 1f a7 bd c7 26 1f 3e
       -0.008560829 -0.069797486 -0.08160242 0.15542136
000040 d1 75 18 3e 7e 57 5d bd 85 72 dd bd 49 fa 2b bb
       0.14888693 -0.054038517 -0.108128585 -0.002624171
000050 c7 21 94 bd c8 ba 3b be e4 f9 e1 bd 71 4a 3d 3e
       -0.07233005 -0.1833297 -0.11033991 0.18485428
000060 8a 23 54 bd 4c 8e 36 3e 63 1b e5 3d cf 19 28 3d
       -0.051791705 0.1782772 0.11186864 0.041040238
000070 6a 47 44 bd 5c 10 07 3e 93 8b 5e 3b 8a 6b 9d bd
       -0.04791967 0.13189834 0.0033957704 -0.07686527
000080 ec e4 f0 3d bf e5 d9 bc d8 ce f9 3d cd fd d2 3d
       0.117624134 -0.02659881 0.121976554 0.10302315
000090 1d ce 11 be de 3a 24 bd 45 5f 1b 3d b3 62 86 3c
       -0.14238782 -0.040095203 0.037932653 0.016404485
0000a0 eb db ab 3d 94 60 62 bc 5f f7 9b bc 3f f1 ba 3c
       0.083915554 -0.013816971 -0.019038854 0.022820113
0000b0 3a 47 08 3e 41 02 d5 bc 98 4c 9a bc a9 48 58 3e
       0.13308421 -0.026002051 -0.01883535 0.21121468
0000c0 c7 c1 4e 3e 45 c0 22 3e 9f fe 52 3e 53 ee a6 bd
       0.20191108 0.15893658 0.20604943 -0.081509255
0000d0 17 ad a7 3a fa ac 24 be 78 30 2f bd 49 ea 0f 3e
       0.0012792674 -0.1608161 -0.042770833 0.14054216
0000e0 4e a0 4a 3e 44 80 16 be 71 79 06 3e e8 00 21 bd
       0.19787714 -0.14697367 0.13132264 -0.039307505
0000f0 41 a5 3a 3e 74 1c 95 3d 61 7c b9 bd 72 61 36 3e
       0.18227102 0.07280818 -0.090569265 0.1781061
000100 b3 07 b7 bd 4a 1e 98 bc bd 56 85 bd bd 7f b4 3d
       -0.089370154 -0.01856913 -0.06510685 0.08813427
000110 06 2f ef 3d 1d 96 79 bd 90 59 e0 bd 31 88 af 3d
       0.11678891 -0.060934175 -0.10954583 0.08570898
000120 83 89 06 3e 5d 1d a5 3d b0 32 01 be 5a ae c9 3d
       0.13138394 0.08062241 -0.12616992 0.09847708
000130 73 17 ea bd 82 8a b8 3a da 09 88 3c 7d 51 10 be
       -0.11430254 0.0014079364 0.01660626 -0.14093585
000140 c9 85 02 3e b4 81 e2 bd d5 c5 68 3d f3 96 81 bd
       0.12746347 -0.11059895 0.056829292 -0.063276194
000150 4a 82 0a 3e a2 6e 79 3d ba 1f 05 3e e2 3f c8 3c
       0.13526264 0.060896523 0.13000384 0.024444524
000160 4a f0 bb bd 5c dd d9 bc 39 e7 dc 3d 01 88 8a 3d
       -0.09176691 -0.02659481 0.1078629 0.06764222
000170 06 4a 35 bd e1 63 a4 bd f3 e5 81 3c 67 70 09 bd
       -0.044260047 -0.08026863 0.015856719 -0.03355446
000180 9d 19 18 bd 68 a6 4d 3e e4 36 57 bd 30 71 61 3e
       -0.0371338 0.2008301 -0.052542582 0.22015834
000190 65 36 4d 3e f1 02 e7 bd b2 1d ee 3d 72 c7 0d be
       0.20040281 -0.11279858 0.11626758 -0.13845614
0001a0 af dd 8c 3d 5b 93 df bd 5b 30 9a bd bb 4d c0 3d
       0.0687822 -0.10916778 -0.07528754 0.09389826
0001b0 24 0d 51 3d 89 ee 7c bd 4a 64 d8 3b 60 d0 c4 3d
       0.051037923 -0.061750922 0.0066037523 0.09610057
0001c0 09 06 10 be a0 ca 88 3d 41 2a 50 be 6e a2 d4 bc
       -0.14064802 0.06679273 -0.20328619 -0.025956359
0001d0 19 f4 45 3e 2f 44 b1 bc 7b 22 bf bd 62 e2 24 be
       0.19331397 -0.021638958 -0.093327485 -0.16101983
0001e0 76 4d 7c 3e ea 58 63 3d af ce de bd 7b 09 64 39
       0.24638924 0.055504717 -0.108792655 0.00021747306
0001f0 e4 87 4b 3e f5 73 16 be a3 62 02 3d 19 16 c9 bd
       0.19876057 -0.14692672 0.03183235 -0.09818668

net.2.weight f4 [64, 128]
000000 83 42 a3 bd 7d 63 02 bd 16 5b a8 3c cd 6e d3 bd
       -0.079716705 -0.03183316 0.020551246 -0.10323868
000010 84 3d 81 bd 1e 4d ab bd f3 34 09 bd 62 03 5e bd
       -0.06310561 -0.08364318 -0.033497762 -0.054202445
000020 3f 5f 0c 3d 6f f9 54 bc 4c 35 c0 bc 61 ad ba bd
       0.03427052 -0.012998923 -0.023462914 -0.09115101
000030 96 c7 24 bc a4 0a cd bd 5c 7b b8 bd 3a 92 c1 3c
       -0.010057351 -0.10011795 -0.09007904 0.023629297
000040 1c 0b cd bd ab 3a 2f bc 7c 98 0e 3c 7a 07 a5 bc
       -0.100118846 -0.01069514 0.008703347 -0.020145167
000050 f1 78 3f 3d 3c e5 f6 bc 50 ed 47 3d 70 72 7d bd
       0.046746198 -0.030138604 0.048810303 -0.061876714
000060 47 b2 a8 bd c4 38 92 bd 9f 72 10 3d d1 e6 8e bb
       -0.08237129 -0.071397334 0.03526556 -0.0043610116
000070 4e d2 bc bc b6 87 b9 bc 65 af 43 bd 73 8f d9 3b
       -0.0230495 -0.02264772 -0.04777469 0.006639415
000080 f5 f9 a6 bc d4 8e c3 bc 1e 1e 56 bd ae 36 92 bd
       -0.02038286 -0.023871817 -0.052274816 -0.071393356
000090 61 e0 03 bb 9a 5a b2 bb 67 d9 b8 bd 3e 12 84 3d
       -0.0020122754 -0.0054429295 -0.09025841 0.06448792
0000a0 2f 11 d6 3c 28 b2 25 3d eb 35 56 3c 4a f9 11 bd
       0.02613124 0.040453106 0.0130743785 -0.03563813
0000b0 8a b9 9a 3c 11 f2 f0 3c a3 00 a5 3c 5b 71 2f bd
       0.0188873 0.029412301 0.020141905 -0.042832714
0000c0 7d 70 74 bd 7c 22 86 bc bc 54 65 3d 00 05 7c bd
       -0.05967759 -0.016373865 0.055989012 -0.061528206
0000d0 a7 07 4d bd 6d 71 6a bd 14 58 b2 bd e7 a3 a7 3c
       -0.050056126 -0.057237078 -0.08708206 0.020463897
0000e0 12 92 cf bc ee cb 83 bb 1d d5 92 3d 94 7f 09 3a
       -0.025338206 -0.004022113 0.071695544 0.0005245146
0000f0 b9 14 64 3d b8 c4 48 39 84 40 c3 bc 7b 9f 21 3d
       0.055683825 0.0001914677 -0.023834474 0.039458733
000100 15 eb 69 3c de da ba bc 55 fa 36 bc de d7 6a bd
       0.014277239 -0.022809442 -0.011168082 -0.057334773
000110 21 2e af bc 71 2b 3b 3d 29 50 73 3d b0 fe 8d 3d
       -0.0213843 0.045695726 0.05940262 0.069333434
000120 58 8d a1 bd a5 29 85 bc a6 e7 b5 3c 5a 2e 40 3d
       -0.07888287 -0.01625521 0.022205185 0.046919204
000130 ef e0 7f bd 5b c6 a9 bd 86 12 93 3c 19 10 83 bd
       -0.062470373 -0.082897864 0.017953169 -0.06399555
000140 5f 42 98 3d a4 bf 8c bd 59 b9 f5 3c c0 88 27 bd
       0.07434534 -0.0687249 0.029995607 -0.0409019
000150 69 59 b0 bd 45 ea cb bd 65 0b c8 3c 50 ee 22 bd
       -0.08610804 -0.09956793 0.024419496 -0.039778054
000160 5a 8a 8e bd cb d5 93 3d 40 c3 18 3d ee 5e 34 3d
       -0.06959982 0.07218512 0.03729558 0.044035845
000170 88 96 4b bd a9 3d 95 bc 88 c2 a2 3b 6f ed bb bc
       -0.049704105 -0.018217878 0.0049670376 -0.022940366
000180 2c ce ed 3c 8b 03 0b bd e0 54 03 bd e0 0b ba bc
       0.029028974 -0.033938926 -0.032063365 -0.02271074
000190 d2 5d 43 bd 70 0e 96 bd 09 c2 be bc 77 75 39 bd
       -0.047696896 -0.073269725 -0.023285883 -0.04527804
0001a0 bc 77 2b bd 11 2b 50 bd 24 60 e6 3c 58 69 eb bc
       -0.041862234 -0.05082232 0.028122015 -0.028736755
0001b0 d9 01 60 3d 77 ad 4f 3c 6c 03 2f bd 01 0f 98 3d
       0.054689262 0.012675635 -0.042727873 0.07424737
0001c0 1e 0e 22 bd f9 d4 b0 bd 71 15 41 3d ba a5 7d bd
       -0.039564244 -0.08634371 0.04713959 -0.061925627
0001d0 8a 1e 44 3d b8 3a 61 3d 64 ea 1e bd c5 ff 43 bd
       0.047880687 0.05498764 -0.03879775 -0.047851343
0001e0 de ae 8a 3c a0 d9 f1 3c b7 45 6c 3d 63 fb 11 3c
       0.016929086 0.029522717 0.057683673 0.008910033
0001f0 ec fa b1 bb 30 10 82 3d 2c 32 f8 3b 01 21 a9 bd
       -0.0054315235 0.06350744 0.0075743403 -0.08258248
000200 69 41 17 bd 45 05 9c bc 52 52 90 3c 74 f5 c0 bd
       -0.036927614 -0.019045481 0.017617378 -0.094218165
000210 d3 7e c6 bd be 99 82 bd 1d f5 e3 ba d0 2c 55 3d
       -0.096921586 -0.0637698 -0.0017391775 0.05204469
000220 aa b0 a9 bd 23 20 c4 3c be e7 1a bc 5f 8c 89 3d
       -0.08285649 0.023941105 -0.009454666 0.06716227
000230 ff b3 6f bd 44 ce 17 bd 4b 1e 87 3c 34 bf c6 bd
       -0.058521267 -0.037061945 0.016493937 -0.09704438
000240 2f 51 32 3d f0 4c 29 bd d6 26 ec 3b 22 1c 80 bd
       0.043534454 -0.04133314 0.007206778 -0.06255366
000250 22 ec 68 3d 40 c7 8a 3c 97 9a 1c 3b b4 b2 5e bd
       0.05686582 0.016940713 0.0023895854 -0.054369643
000260 a9 3a a0 bd ce 06 d0 ba b9 2e 96 bd b0 9a 68 bc
       -0.078236885 -0.0015871169 -0.073331304 -0.014197037
000270 c6 69 85 3d 2e e5 53 3c ff fa 16 bd a0 98 38 bd
       0.06514315 0.012933059 -0.036860462 -0.04506743
000280 a1 ce c8 3c 22 83 ab bd 25 50 a4 bd 6f 97 a7 bc
       0.02451259 -0.08374621 -0.08023099 -0.020457951
000290 92 8f 28 3d 23 4d 7d bd 3f a4 c7 bc 57 d2 4a bd
       0.041152544 -0.06184114 -0.02437031 -0.049517002
0002a0 87 54 47 3d db f4 53 bd 5a 73 ab bc ec da df 3c
       0.048664596 -0.051747184 -0.020929027 0.02732607
0002b0 89 58 4f bd a7 63 8f 3d 2e 04 79 bd 01 93 34 bd
       -0.050621543 0.07001429 -0.060795 -0.044085506
0002c0 f6 aa 4f bb 3b cf 59 bd d5 1d c6 bd e3 8b 9b bd
       -0.0031687594 -0.053176146 -0.09673659 -0.07595041
0002d0 02 78 b8 bd f4 51 8f 3d c8 cf d0 bb cf 6e 5c bd
       -0.09007265 0.06998053 -0.0063724257 -0.053816613
0002e0 7f 8e ae 3c 61 f3 b1 bb 6c dc 5a bd 63 1f 4b 3d
       0.021308182 -0.0054306244 -0.053432867 0.04959048
0002f0 63 21 8f bd 1f 85 9c bd 48 92 4b 3d 77 d4 05 3d
       -0.0698879 -0.07642578 0.04970005 0.032673325
000300 a7 fb f6 3c 8a bc 79 3c 1a 60 36 bd 76 d8 c1 bd
       0.030149294 0.015242705 -0.044525243 -0.09465115
000310 89 31 46 bc 53 c8 0d 3d 32 43 54 3d f7 22 f4 bc
       -0.012096771 0.034614872 0.051821895 -0.029801829
000320 a5 76 40 bd 8d 2c 08 bc a6 ab 70 3d 76 96 84 bc
       -0.04698815 -0.008311403 0.058757447 -0.016185027
000330 f6 14 85 3d 4c 1d 3a bd 51 45 18 3c 60 21 90 bd
       0.064981386 -0.045438096 0.00929387 -0.07037616
000340 45 e7 c7 bb 77 17 61 3d 7d 97 a8 bd 57 81 87 3d
       -0.0061005675 0.05495402 -0.08232019 0.066164665
000350 a6 53 64 3d 7c 87 5a 3d 18 aa 43 bd 18 36 78 3d
       0.055743836 0.053351864 -0.047769636 0.060598463
000360 bd 8d 16 3a f9 8b 82 bd 72 0e 9f 3d bf 8b ce bd
       0.00057431665 -0.06374354 0.07766427 -0.10085248
000370 fc ea 86 3d 77 28 55 3c 43 23 33 3d 30 b3 8a 3c
       0.065877885 0.013010136 0.0437348 0.016931146
000380 e9 b3 ba bd 17 ed c9 3c 7a 25 9a bd a8 1b 30 bd
       -0.091163464 0.024649186 -0.07526679 -0.042995125
000390 ff 77 0b bd cb aa 63 bd fd 83 a8 bc 93 05 53 3d
       -0.034049984 -0.055582803 -0.02057075 0.051518988
0003a0 2b e5 02 3d 75 0b 92 bd 41 cd 37 3d f0 0f 02 3c
       0.031956833 -0.071310915 0.04487348 0.00793837
0003b0 e0 fe 69 ba 53 64 bb 3a a1 40 61 bd 20 34 aa bd
       -0.0008926224 0.0014296867 -0.054993276 -0.08310723
0003c0 e5 80 fc 3b 55 48 86 3d 7d 9a a4 bd 69 19 84 3d
       0.007705795 0.06556765 -0.08037279 0.06450159
0003d0 a4 91 01 3d 41 33 36 3d d2 6b 25 3d 45 1d 69 3d
       0.031633034 0.044482473 0.04038603 0.05691268
0003e0 77 87 fa ba 61 a0 4a bd 6d 20 82 bd aa 6a 9e bd
       -0.0019113858 -0.049469355 -0.06353841 -0.07735188
0003f0 6c 61 16 bc 42 bd 1b bb 49 ff 8b 3b 3c ff 8f bd
       -0.009178501 -0.002376393 0.0042723757 -0.07031104

net.2.bias f4 [64]
000000 48 e7 b1 b8 2e c7 e8 bc 9f 53 c1 3d 7e 33 b0 3b
       -8.483097e-05 -0.028415289 0.094397776 0.005377232
000010 45 ec d4 3b 40 32 a0 3d 35 35 9d 3c 50 38 95 bd
       0.006497892 0.078220844 0.01919041 -0.072861314
000020 56 46 cd 3d 2d ab 4b bd b9 1f 74 bb df d2 01 3d
       0.10023181 -0.049723793 -0.0037250353 0.031695243
000030 2a a4 7f 3d 23 03 12 3d cd d3 be bd 6b 0a 5f bc
       0.06241242 0.035647523 -0.093177415 -0.013613324
000040 c5 90 88 3d 8e 85 fe bb fa ab 63 bc 98 f8 09 bd
       0.066682376 -0.007767386 -0.013895983 -0.033684343
000050 d5 71 20 bc 02 36 4d bd b4 14 cd bb 82 0a d1 bc
       -0.009792765 -0.050100334 -0.0062585715 -0.025517706
000060 5b c2 a9 bc 34 07 d3 bc 88 0c ff bc 88 fa c1 bd
       -0.020722559 -0.02576027 -0.031133905 -0.09471613
000070 5a a3 7d 3d b1 4e c6 bc cc 69 c3 3d 16 63 c5 3c
       0.061923362 -0.024207445 0.095416635 0.0240951
000080 b1 7a 8a 3d 6d ee 7e bd 99 d4 ac bd 2c 8c 10 bd
       0.06761683 -0.0622391 -0.08438987 -0.03528993
000090 3b 87 09 bd 8c 75 6b 3d 87 d0 b0 bc 8a 47 20 3b
       -0.03357623 0.05748515 -0.021583809 0.0024456703
0000a0 e2 55 5b 3c 74 27 e2 3d 4e 3b 5e 3d 00 31 f6 bc
       0.013387175 0.11042681 0.054255776 -0.030052662
0000b0 1a 24 9e 3d a1 3c 3c 3c 78 00 df 3c 95 b9 b7 3d
       0.077217296 0.011489064 0.027221903 0.08970944
0000c0 79 27 f4 3c 6f 24 c7 3c cc ce 70 bd dc 47 a7 bd
       0.029803978 0.024309365 -0.058790967 -0.08168003
0000d0 24 fb 91 3d e4 3d cf 3c a8 15 00 bd 24 e8 b5 bc
       0.071279794 0.025298066 -0.031270653 -0.02220542
0000e0 3e 3d c0 bc 7e b5 8f bc 03 ad f7 bc d0 61 c9 bd
       -0.023466703 -0.017542597 -0.030233866 -0.098331094
0000f0 29 c6 73 3d 3e 3d c8 3d 90 26 8b 3c 13 f0 c1 3d
       0.059515152 0.09777306 0.016986161 0.09469619

head.weight f4 [1, 64]
000000 4c 47 ca bd 1f f1 d3 bd 36 97 94 3d 94 67 c5 bd
       -0.0987688 -0.103487246 0.07255404 -0.096388966
000010 34 a1 0f 3c 48 ca d8 3c 09 f9 a7 bd 43 5b 0e bd
       0.008766461 0.026463643 -0.082017966 -0.034755003
000020 25 6a f6 3d 7c 63 9f bd 7a 87 4e bc 82 84 c3 bd
       0.12031964 -0.07782647 -0.012605542 -0.09546758
000030 bc f0 41 bd b3 40 00 be c6 5e d4 bd d6 f7 9a 3d
       -0.047348723 -0.12524681 -0.10369639 0.07566802
000040 11 c2 16 3d b4 a0 a5 3d ce 2f f7 bd 38 c4 e4 3d
       0.03680617 0.08087292 -0.12069665 0.11170238
000050 af dd bc 3d 9a 06 6c bd 77 d4 b2 bc d4 d3 e6 3d
       0.0922197 -0.057623483 -0.021829827 0.11270872
000060 f4 24 9e 3c c0 55 47 3d 4d b5 bb 3c af 32 5d bd
       0.01930473 0.048665762 0.0229136 -0.054003414
000070 8d 72 9e bd cb 46 c1 3c 9c 9e 1a 3e 3f 0b c7 3d
       -0.077366926 0.023593327 0.15099567 0.09718942
000080 c3 6a 05 3e 58 d9 dc bd 14 b8 6c bd e7 c3 f8 3d
       0.13029008 -0.107836425 -0.057792738 0.121467404
000090 9f ff 61 bd 50 f3 84 bd cc b9 96 bd 8a ba 15 bd
       -0.05517542 -0.06491721 -0.07359657 -0.03655485
0000a0 19 02 2b bd 9e d7 19 3c 01 e9 39 3d e7 1d 09 bd
       -0.041750047 0.009389786 0.045388225 -0.033475783
0000b0 94 d0 ec 3d 1d 36 8c 3d bb f1 7e bd 4a f2 dd 3c
       0.115632206 0.06846259 -0.06224225 0.027093071
0000c0 35 c3 9d 3d 75 4c 07 3d de ab d9 bd 60 8e 3f 3c
       0.077032484 0.0330319 -0.10628484 0.01169166
0000d0 89 ba 93 3d 9e e8 8e bd e1 2a bb bd 57 f6 78 bd
       0.07213313 -0.06977962 -0.09139038 -0.060781803
0000e0 2c 07 89 bd c3 4a be bd e8 4e a8 bd 7d 48 6c bd
       -0.06690821 -0.092916034 -0.08218175 -0.057686318
0000f0 85 8d 71 3d cc 5e 47 3d f8 11 68 3c d7 58 06 3e
       0.058972854 0.04867439 0.01416444 0.13119827

input_proj.weight f4 [64, 29]
000000 b9 01 71 bd 4c 4c 23 3e 64 cb 4c 3d a4 37 32 3e
       -0.058839533 0.15947074 0.049998656 0.17404038
000010 6d 40 7c 3c d7 b8 20 3e 36 0b 4a bc 5e 61 38 3d
       0.01539622 0.15695511 -0.012331774 0.04501473
000020 a8 9f 66 bd bf 15 11 be c5 e3 0d be a1 0c df 3d
       -0.056304604 -0.14168452 -0.13856418 0.10891081
000030 fc 7a 83 bd 31 6a 05 be 2c bf 41 3e 1d 3a 94 bc
       -0.06419942 -0.1302879 0.18920583 -0.018094117
000040 6f 3d 02 3e 8c 88 e7 3d 48 a0 48 3d 90 e5 1b bd
       0.12718748 0.11305341 0.04898098 -0.038060725
000050 49 c2 32 3e 44 eb 09 3e f9 e1 2b 3d 97 8d e0 3d
       0.17456926 0.13468653 0.04196355 0.10964506
000060 0f 97 6b 3c 68 97 bf 3d 39 f7 a3 3c ce 46 63 bd
       0.014379277 0.0935505 0.020015346 -0.055487446
000070 dc a9 23 3d 8b 4b 4f 3d 9c cf 3d 3e fd ea df bd
       0.039956912 0.050609153 0.18536228 -0.10933492
000080 53 cc d4 3d 61 2f 67 3c e1 7c 39 be c2 2a 26 3d
       0.10390534 0.014110417 -0.18114044 0.04056812
000090 0d 8e 2e be 5c 57 00 be 72 81 2d 3e 20 cb 22 be
       -0.17046376 -0.12533325 0.1694391 -0.15897799
0000a0 ed bd 3e be 14 07 83 bd 8e 87 c3 bd d4 33 f2 3d
       -0.18627138 -0.063978344 -0.095473394 0.11826292
0000b0 92 9f a2 bd cd 3b e6 bd a6 db 4a 3b 92 2a 74 3d
       -0.07940592 -0.11241875 0.0030953675 0.05961091
0000c0 ee 9b da 3d c5 8a 47 3b 01 4c 34 be 77 02 a4 3b
       0.106742725 0.0030447703 -0.17607118 0.0050051766
0000d0 b4 34 38 3d ab 88 1d 3e 44 c5 1f be ef bb cd 3c
       0.044972137 0.15384166 -0.15602595 0.025114028
0000e0 73 b8 d2 bc 6d 4d c1 3d 47 e2 14 be 9c 02 1c 3d
       -0.025722718 0.09438596 -0.14539443 0.038088426
0000f0 e9 72 8e bc b2 4a 66 3d ae 59 3b bd 1a ed 14 3e
       -0.017388778 0.05622358 -0.045739822 0.14543572
000100 41 5a 6c 3d 6b 7c eb bc c3 48 df bd 8c 20 c3 bb
       0.05770326 -0.02874585 -0.1090255 -0.0059548076
000110 49 f9 1d be dc 77 0c be 5c cb 3e 3d 6b 4c 5d bd
       -0.15427126 -0.13717598 0.046580657 -0.054027956
000120 80 06 11 3e b0 61 04 3e 9b 4a 35 bd 77 8c 10 3e
       0.14162636 0.1292789 -0.044260602 0.14116083
000130 60 f0 f6 3d ee 61 63 3d 85 ea fc 3c 76 05 b0 bd
       0.12057567 0.055513315 0.030873546 -0.085947916
000140 28 02 dd bd 4f d0 05 bd 7c d6 7e bc 42 ca 07 bc
       -0.10791427 -0.03266936 -0.015554067 -0.008287968
000150 1c 76 10 3d 67 62 13 be 23 86 4a bc 30 9e ea bd
       0.035268888 -0.14393006 -0.012361082 -0.11455953
000160 fb 99 2a be 05 df be 3d ae b9 4c 3e 29 22 a1 bd
       -0.16660301 0.09319881 0.19992706 -0.07867844
000170 99 5e 28 3d 94 70 e3 bd cc 3a b7 3d d1 06 37 3e
       0.04110584 -0.11105457 0.089467615 0.17873694
000180 a9 74 91 bc 1b b3 65 bd 24 57 6a bd d6 a6 2f be
       -0.017755823 -0.05607901 -0.05721201 -0.17153487
000190 59 9f 1f 3d 19 fc a0 bd 71 2b f7 bd e6 7a cf 3d
       0.038970325 -0.07860584 -0.12068833 0.10130863
0001a0 5d c2 40 3d dd 27 39 be 8c 37 bc bd e0 6b ea 3d
       0.04706036 -0.18081613 -0.09190282 0.11446357
0001b0 ad 94 9b 3d cd 5e 35 3e 7a 5e 46 bc 3c 29 69 3d
       0.07596717 0.17711945 -0.012107486 0.05692409
0001c0 3f dc 9c bd 38 b0 e5 bd 5a cc b6 bd 4f 7d 2d bc
       -0.07659196 -0.11215252 -0.08925696 -0.010588958
0001d0 59 ca 9b ba 72 a8 3e be c0 ec 1c 3e 48 46 c6 bd
       -0.0011885866 -0.18618944 0.15324688 -0.09681374
0001e0 17 ce eb bd 81 5b 12 be de 90 76 3c 3d c4 3e be
       -0.11513918 -0.14292718 0.0150491875 -0.18629546
0001f0 a0 96 1f bd a6 76 08 3e e9 84 5d bd 8b 3b c2 b9
       -0.038962007 0.13326511 -0.05408183 -0.00037046926
000200 0a c0 15 bd 02 2a 96 3d 89 2a ff 3d a7 3c 5d 3d
       -0.036560096 0.07332231 0.12459285 0.05401292
000210 c5 4c 57 3d cd 3c 2c 3e d6 24 04 3d 53 5c 91 bd
       0.052563448 0.16820069 0.032261692 -0.070976876
000220 bd 1c 26 3e ee 4d fd 3d 76 1f af 3d 9e 41 fc bd
       0.162219 0.123683795 0.085509226 -0.12317203
000230 5c 62 91 bc 62 ad ff 3d 69 18 29 3e 4e f0 24 3e
       -0.017747097 0.12484242 0.16513218 0.16107294
000240 58 36 1b 3d a4 dc 14 3e dd 54 0f 3d c0 5d 1a 3e
       0.037893623 0.14537293 0.03499304 0.15074825
000250 1f c3 83 3d a5 fe 1b bd 91 b4 bc bd 06 aa f6 bd
       0.06433701 -0.038084645 -0.09214128 -0.12044148
000260 c4 14 ce bd bb 5f 17 be ea 53 c3 3d 48 26 92 bd
       -0.100625545 -0.14782612 0.0953749 -0.07136208
000270 e9 b7 2c be 03 36 f5 bd f7 e2 dc bc df 7d 02 bd
       -0.16867031 -0.119731925 -0.026963694 -0.03185832
000280 69 c4 d0 bd 20 9f b0 3d 16 1f 0a be fa c3 b6 3d
       -0.10193712 0.08624101 -0.13488421 0.08924098
000290 4c 19 c1 bb 02 d7 fd 3d ab 38 0d 3d 1a 58 e2 bd
       -0.005892908 0.12394525 0.03447787 -0.1105196
0002a0 d2 26 69 bd ac 5b dd bc 40 8a 7c 3d dd d3 fe 3d
       -0.056921788 -0.027021252 0.061655283 0.124427535
0002b0 7d 36 05 be 0e af 12 be 36 4e 17 be 4f f1 f9 3d
       -0.13009067 -0.1432459 -0.14775929 0.12204229
0002c0 99 a4 9d 3d 0c de d5 3d cc c5 ef 3d 20 36 61 3b
       0.0769741 0.10442743 0.11707649 0.0034364536
0002d0 91 19 1e 3e ca 3e 15 3d 84 b4 ca bc da e5 25 3e
       0.1543944 0.036436833 -0.02474428 0.16200963
0002e0 1f 96 12 be 2b 03 8c 3c 6d 63 03 3e 01 89 97 3d
       -0.14315079 0.017091354 0.12830897 0.07399178
0002f0 cc ee d5 bd cc 0b 43 3e 66 ef 8a bc 68 44 28 bd
       -0.104459375 0.19047469 -0.016959857 -0.041080862
000300 27 66 ac bd 83 1a 16 be 68 a6 2d 3c b8 ff bd bc
       -0.084179215 -0.14658551 0.010598756 -0.023193225
000310 d4 ea 3a 3d d2 cb d0 bd 14 f5 37 3b bc 95 3c be
       0.045634106 -0.10195126 0.0028069662 -0.18416494
000320 31 77 11 3e 8c b5 00 3d de a2 64 3d b0 0a 1c 3e
       0.14205624 0.031423137 0.055819385 0.15238452
000330 96 3b 39 bd b6 ed 9e 3d a6 71 12 3e a0 36 b5 bd
       -0.04522284 0.077601835 0.14301166 -0.088483095
000340 43 26 8e bd 12 a2 84 bd 9f 7d cd bd 30 27 17 3e
       -0.069408916 -0.06476225 -0.10033726 0.14761043
000350 6d 18 09 3e 89 e6 ab bb f1 72 39 be 5b 25 70 3d
       0.13388224 -0.005245988 -0.18110253 0.058629375
000360 2d 7c bf 3c 9d b6 13 be 7f ac e8 bc 3d e1 c1 bd
       0.023374641 -0.1442513 -0.028402565 -0.09466789
000370 be 60 49 3d d8 6b 9b 3d a7 29 41 bc cc a9 37 be
       0.049164526 0.07588929 -0.011789716 -0.17935866
000380 fd 26 e8 3d 75 e2 3a bd 95 e0 e5 3d 02 4e 8d bb
       0.113355614 -0.045626123 0.11224476 -0.004312278
000390 f8 36 0a 3d 3d 7a 2c be 41 62 20 be 4f 10 c3 3c
       0.03374383 -0.16843505 -0.15662481 0.023811487
0003a0 15 62 97 bd 7f 02 23 3d b4 33 07 bd b1 d9 2e be
       -0.073917545 0.039797302 -0.033008292 -0.1707523
0003b0 b2 88 2a bd db 33 85 bd b5 9d b7 3d 93 4c c1 3d
       -0.04163427 -0.06504031 0.08965627 0.094384335
0003c0 c9 2f 38 bd 48 44 eb 3d 8a 0f 8e bc d7 15 3f 3e
       -0.044967446 0.11487633 -0.017341394 0.18660675
0003d0 8f 24 c5 3d 85 be 43 3d cf 8c 81 3d 00 22 b9 3d
       0.096261136 0.047789115 0.06325685 0.09039688
0003e0 84 33 0b be de 74 4b 3e 7a ac 17 3e a2 30 ab 3c
       -0.1359387 0.198688 0.14811888 0.020897213
0003f0 fe c9 39 3d ed a6 86 bc f1 34 68 3c 1d 99 7e bc
       0.04535865 -0.016437018 0.014172778 -0.015539435

input_proj.bias f4 [64]
000000 7c 3b cc bd b4 f5 be bc 8e f1 90 bd 60 f0 dd 3d
       -0.09972283 -0.02331052 -0.07077323 0.108368635
000010 16 91 05 3e 72 6a 03 3e cb b2 38 bd 8f 60 8c 3d
       0.13043627 0.12833574 -0.045092385 0.068543546
000020 aa 32 e0 3d 01 52 61 be ef 6f 6b 3d f6 5b 50 bd
       0.109471634 -0.22003938 0.057479795 -0.05086895
000030 ea 8b e9 bd 96 5b 62 bd 7c e8 a6 bd d7 44 12 3e
       -0.114036396 -0.055263124 -0.081498116 0.14284073
000040 06 48 5b 3e 46 c0 5c 3c 85 d1 05 be b5 5d e8 3d
       0.21414194 0.013473576 -0.13068207 0.11345998
000050 8c 7d 1e 3e 18 8f 3a be c8 d7 3d 3c ab 7d 34 3d
       0.1547758 -0.18218648 0.011587091 0.04406516
000060 8f 7c 1c be d6 8f d7 3d 19 0f 2f 3e 7a 16 34 be
       -0.1528189 0.105254814 0.17095603 -0.17586699
000070 9c 1a 53 be ff 88 41 3d 1f 7d 3d 3c 88 fa 39 3d
       -0.2061562 0.04724979 0.011565476 0.04540494
000080 a7 24 5a 3d 53 bb 19 be 99 9e bb 3d 6e 00 0c 3e
       0.05325761 -0.15012865 0.091611095 0.13672039
000090 77 50 5a be 40 90 1c be 55 c7 45 be 1f 3a 5b 3d
       -0.21319757 -0.15289402 -0.1931432 0.053522225
0000a0 c3 9d 73 bd 0a 50 1f bd 36 eb f3 3d d4 19 75 bc
       -0.059476625 -0.03889469 0.11910097 -0.014959771
0000b0 da be 31 3e 5e c3 0c be 1b d7 e3 bd ce 8f 0c be
       0.1735796 -0.13746402 -0.111250125 -0.13726732
0000c0 11 20 09 3e 36 58 9f 3d 30 32 97 bd 10 21 8f 3d
       0.13391139 0.07780497 -0.073826194 0.06988728
0000d0 ba 4b 13 3e 2c 67 49 be 9e 93 31 be 34 ec 16 3d
       0.14384356 -0.19668263 -0.17341468 0.036846355
0000e0 df 98 d7 3d 85 10 0a be e2 b1 ca bd 81 c5 00 be
       0.10527205 -0.13482864 -0.0989721 -0.12575342
0000f0 8e b6 14 3e 99 69 e1 3d f9 7f 93 bd 16 b8 0e 3e
       0.14522764 0.11006469 -0.07202143 0.1393741
